programming_homework/03/code/part_2/decoder.pt (torch, 31592 bytes, 18 tensors)

weight f4 [29, 20]
000000 9c f1 02 3e 82 24 75 3f 43 2a 76 bf 1e ae b8 be
       0.12787479 0.9575883 -0.96158236 -0.3607034
000010 26 b2 25 3e b8 01 a4 be e4 fb 9b be c4 40 dd be
       0.1618124 -0.3203256 -0.30465615 -0.43213475
000020 71 bd 82 3f c7 76 32 bf 7f 09 83 bf 76 6d 62 3e
       1.0214063 -0.6971249 -1.0237273 0.22112069
000030 01 f1 05 40 23 0e a4 be 02 63 b7 bd 4c b0 2a 3f
       2.0928347 -0.32042035 -0.08954431 0.6667526
000040 ed 67 16 bd 6e aa cf 3d 74 1d 37 3f 33 7f 3e be
       -0.036720205 0.10139929 0.71529317 -0.1860321
000050 78 85 69 3f cb 0d b9 3f 5a 9e 8a 3f 12 0b 96 3b
       0.9121928 1.4457334 1.0829575 0.0045789564
000060 17 f8 3d 3e 3e 4b 9a 3f 4a d9 1f bf 4c 35 58 bc
       0.1855167 1.2054212 -0.6244093 -0.013196301
000070 4b d3 d1 bd 48 e8 8d 3e 08 27 69 bf 8f 72 bc 3e
       -0.10245379 0.2771628 -0.9107518 0.3680615
000080 cf 1e bd be ed 50 ad be 65 8f 34 3f c6 5c 7c be
       -0.36937568 -0.33850804 0.705313 -0.24644765
000090 25 e1 05 40 f9 bb 89 be 9b d5 1e 3f c0 e1 02 3f
       2.0918667 -0.26901224 0.62044686 0.5112572
0000a0 b1 b4 db 3e 30 b9 52 bf 13 21 6a bf 84 9c 11 3d
       0.42911294 -0.82313824 -0.9145672 0.035549656
0000b0 d7 94 dc 3d 85 da e9 3e 58 ee d7 bd c3 fe 80 3f
       0.107705764 0.4567453 -0.10543507 1.0077747
0000c0 3e 99 19 3f 76 09 e8 3f a1 a7 25 bd 6e 43 de be
       0.59999454 1.8127887 -0.040443067 -0.4341082
0000d0 47 34 dd 3e 3b bd fb 3e 61 b3 41 40 a4 35 77 3f
       0.43203947 0.4916781 3.0265734 0.96566224
0000e0 76 3e ea bc 07 d4 93 bf 99 21 99 3f bf 55 fa bf
       -0.028594237 -1.1549081 1.1963378 -1.9557418
0000f0 bf 2c 8f 3e 1b 87 72 bf 24 ae 34 bd 26 b0 a1 bf
       0.27963826 -0.94737405 -0.044111386 -1.2631881
000100 ef 84 2e bf 13 bf 3d be fd ab 40 3e bd c1 8b 3f
       -0.6817159 -0.1852992 0.18815608 1.0918499
000110 81 e0 60 3f 97 7e a3 3f 87 45 99 be 87 ec b3 3e
       0.87842566 1.2773007 -0.29935858 0.35141394
000120 b5 fc a5 be 1e 0b b6 bf 12 e9 e5 be 54 34 2d 3e
       -0.32419363 -1.4222143 -0.4490438 0.16914493
000130 ba 76 e0 3e a5 f4 da 3e fd 6a 28 3f e9 93 f1 3d
       0.4384058 0.42764774 0.6578825 0.1179579
000140 a9 d3 92 3e 38 55 04 bf ce 8a 13 3f 5a ad 12 bf
       0.2867711 -0.51692533 0.57633674 -0.57295763
000150 05 6c 88 3c b7 0a 0b bf ab cc 7a 3f 5a 20 21 3f
       0.01665307 -0.54313225 0.9796855 0.6293999
000160 d7 d6 d8 3e 07 96 b8 3c f6 03 25 be 13 c8 7f 3f
       0.4235141 0.022532476 -0.16114792 0.99914664
000170 df 25 65 3f 89 4f c5 3f 62 81 b7 be af a7 8e 3b
       0.8951091 1.5414897 -0.358409 0.0043534855
000180 90 51 1f 3f 62 c0 d4 3e b8 ce f2 be 1b 56 91 bd
       0.6223383 0.41553026 -0.4742334 -0.070965014
000190 dd f1 41 3d a0 fb 7a 3e b6 77 72 bf 99 42 01 3f
       0.0473498 0.2451005 -0.94713914 0.50492245
0001a0 b4 f9 ec be 42 66 5b 3f ca 5f 98 3f 4c 58 35 bf
       -0.46284258 0.8570291 1.1904233 -0.70837855
0001b0 11 f7 57 be 69 96 65 3f a3 db 81 bf fb d2 02 be
       -0.21090342 0.8968263 -1.0145153 -0.12775795
0001c0 6f f7 04 bf d2 ca e1 3e 12 ca b5 3f cc 86 13 bf
       -0.51940054 0.44100052 1.4202292 -0.5762756
0001d0 3f a5 33 bf 20 92 c4 3f 80 52 16 bd 09 ba d3 bd
       -0.7017402 1.5357094 -0.036699772 -0.10338218
0001e0 ae 13 91 3e e5 48 23 c0 96 f8 8c bf 3b b0 49 bf
       0.28335327 -2.5513241 -1.1013362 -0.7878453
0001f0 f6 5f b9 3f 44 bf 6b 3f 38 c6 99 bf 33 06 a2 3e
       1.448241 0.92088723 -1.2013617 0.31645355
000200 de 3d 14 be 44 b6 d3 3f ec b7 2b bf ec 38 e8 3d
       -0.14476725 1.6539998 -0.6707752 0.11338982
000210 b5 11 a1 3f 32 4d 5d bf 24 a3 b2 3f d9 df 9d bd
       1.2583529 -0.86445916 1.3956037 -0.07708711
000220 82 dc 48 be dd cf 9c bf d6 28 61 bf 78 f3 3a 3f
       -0.19615367 -1.2250935 -0.87952936 0.73027754
000230 04 46 e0 be 4b 70 ad be d3 76 3c 3e ae 67 cd bf
       -0.43803418 -0.33874735 0.18404703 -1.6047266
000240 f8 13 7a 3f 32 c5 4c 3f c3 96 01 3f 0d b8 1c 3f
       0.9768672 0.79988396 0.5062067 0.6121834
000250 cd a8 ee bf 3f f2 20 bc a3 6c 3d bf 90 3c f8 be
       -1.8645264 -0.009823381 -0.7399389 -0.48483706
000260 41 7e da 3e fa b1 1d 3f 92 d6 b4 3d e1 1b 88 bd
       0.4267445 0.61599696 0.088299885 -0.066459425
000270 0a a9 d2 bf 60 9a b0 bf 6f fd 85 be e1 15 a4 bd
       -1.6457837 -1.3797112 -0.26169917 -0.080119856
000280 bc 56 81 be dc 81 45 bf 66 0a 88 3f af e9 e3 3f
       -0.25261486 -0.77151275 1.0628173 1.780569
000290 b4 07 3b 3e b8 f2 06 3f f6 d5 22 3f b9 6b 55 3e
       0.18264657 0.5271411 0.6360773 0.20841874
0002a0 8c f6 88 bf f4 50 79 3f 20 bb 0a 3f f9 b0 74 3f
       -1.070024 0.9738915 0.5419178 0.9558254
0002b0 6b 24 8b 3f f7 7a 24 be c1 82 9f bf b7 8f d8 3e
       1.0870489 -0.16062532 -1.2461778 0.42297146
0002c0 33 75 d2 be cb 7d 10 bf 19 75 c7 3e 29 60 c0 3e
       -0.4110504 -0.56441945 0.38956526 0.37573364
0002d0 83 bb a7 be 1e b5 49 3e b6 63 d7 3f 0f d7 20 3f
       -0.32760248 0.19697997 1.6827304 0.62828153
0002e0 c9 67 86 3e f6 24 a9 3c a4 1a 22 bf e6 a3 07 c0
       0.26251057 0.020647507 -0.633219 -2.1193786
0002f0 7c 60 42 bf a0 61 0d be 8c 8c 67 3f 3f 9b 5c bf
       -0.75928473 -0.13806772 0.9044883 -0.86174387
000300 79 2a 16 3e 19 28 40 bf 48 0a 71 bf f1 37 1e bf
       0.1466464 -0.75061184 -0.9415631 -0.6180411
000310 2a 01 21 3f d2 66 9b 3f 3e 22 13 bf 20 df 00 be
       0.628924 1.2140753 -0.57474124 -0.12585115
000320 25 8e bf bf 1b 1d ae bf 9a 67 24 40 5b 8f 2c be
       -1.4965254 -1.3602632 2.5688233 -0.16851561
000330 79 c4 1b c0 d1 0a 84 be d7 90 43 bf 53 46 74 be
       -2.4338667 -0.25789502 -0.76392883 -0.23854952
000340 d5 3b 6d 3d 5d 40 d9 be 01 66 5c bf 82 f9 1b 3f
       0.05791839 -0.42431918 -0.86093146 0.60927594
000350 cc f0 f7 3e 47 2c 86 3f a7 ad 97 bf 78 f3 9e be
       0.484259 1.0482262 -1.184987 -0.31045127
000360 90 57 19 3f b9 85 b2 bf 47 82 6c 3e 2a 8a fb be
       0.59899235 -1.3947059 0.23096572 -0.49128848
000370 d7 f4 a3 3e b8 5c 28 c0 8b 31 ef 3f c5 e5 83 3f
       0.32022735 -2.630659 1.8686994 1.0304495
000380 33 8b 78 3e 1b 91 96 bf 10 44 34 bd a3 8a 59 be
       0.2427185 -1.1763033 -0.044010222 -0.21244292
000390 b1 1b cb be 59 5a a5 3e 65 59 da bf 80 e4 69 3e
       -0.39669564 0.32295492 -1.7058531 0.22841072
0003a0 46 69 2e 3e 3f a1 07 3f 4f e7 1f bf ef 14 45 bd
       0.17032346 0.52980417 -0.62462324 -0.048115667
0003b0 15 08 ba bd 7b 17 1d 3e 3d db 01 bf f4 43 98 3e
       -0.09083573 0.15340988 -0.50725156 0.29739344
0003c0 1e 93 13 bf ab 1b d4 bf 2e 72 ad be 75 51 b2 3e
       -0.5764636 -1.6570944 -0.33876175 0.34827772
0003d0 fd f7 33 be c8 e0 61 3e 52 eb 41 bf 60 34 5c 3e
       -0.17575069 0.22058403 -0.75749695 0.21504354
0003e0 fc 51 e0 3e e3 6e a0 be ba cd 2f 3c f5 4f 9b 3e
       0.4381255 -0.313346 0.010730201 0.3033444
0003f0 90 da 7a 3f 3e cc 2e bf 3d 38 ce bf c6 9c c3 bf
       0.9798975 -0.682804 -1.6110913 -1.5282218

weight f4 [20, 40]
000000 c9 8f 18 3f 38 f5 36 be 24 04 28 bf 41 44 d2 3e
       0.595944 -0.17866981 -0.6563132 0.410677
000010 ae 74 d8 be ed 7e 61 bd fc 9b f6 3e b2 3c fe be
       -0.4227652 -0.055052686 0.48165882 -0.49655682
000020 f3 27 d4 bd c0 01 08 bf 4c b7 59 be 8d cd 8b 3e
       -0.10359182 -0.5312767 -0.21261328 0.2730526
000030 ce f1 df be f1 e3 5c 3d a7 ee d2 be 95 17 2d bf
       -0.4373917 0.05392832 -0.41197702 -0.6761411
000040 fe f7 8a be 62 95 06 3b 30 b1 88 be fc 76 ef be
       -0.27142328 0.0020535816 -0.26697683 -0.46770465
000050 59 f0 b8 3d 90 3b 3e bc 1f fe a2 3d 31 e9 19 bf
       0.09030218 -0.0116108805 0.07958626 -0.60121447
000060 a6 38 1e 3d 09 3d d0 3e 5f 42 47 bf 55 0b dd 3e
       0.038628243 0.40671566 -0.7783565 0.43172708
000070 eb 56 65 3f 8d 5f 17 bf 08 66 99 be b7 0e f0 3d
       0.8958575 -0.59130174 -0.29960656 0.11721557
000080 c9 ca 3b 3e 5e 69 ed 3d 2c 26 55 bf fe ea 87 3e
       0.18339075 0.11592363 -0.8326137 0.26546472
000090 ce 1a c8 3e dc a4 e8 be 9a 70 32 3f c0 59 56 3d
       0.3908295 -0.45438278 0.69703066 0.052331686
0000a0 bf 0f d2 be 23 c4 39 3e 6a f8 44 3e a4 0d 78 be
       -0.41027638 0.18141226 0.19235387 -0.24223953
0000b0 2a 71 39 bf c9 c5 49 3f d0 c8 7e 3d 7d 01 2b 3f
       -0.724383 0.7881742 0.06220323 0.66799146
0000c0 47 9f e5 3e 3d 7e 72 be 6e 02 81 be 26 9f 68 be
       0.4484808 -0.23680969 -0.25197166 -0.2271696
0000d0 4a 06 96 bc db 39 e9 3e 23 f6 b0 3e 14 77 57 bf
       -0.018313546 0.45551953 0.34562787 -0.84166074
0000e0 71 1e a7 be a8 44 b8 3d 8a 2c 00 bc 32 6c 88 be
       -0.32640412 0.0899747 -0.007823119 -0.26645046
0000f0 e1 7a c9 be b7 82 91 3e f7 1b 85 3f 9d 07 4e bf
       -0.39351562 0.2842004 1.0399159 -0.80480367
000100 31 b3 a8 3e 37 db d5 bc d0 61 2f bf e6 85 11 be
       0.32949212 -0.026105506 -0.68508625 -0.14211234
000110 80 24 d3 bd d4 63 27 be 89 f1 dc be f5 29 b9 3e
       -0.10309696 -0.16346675 -0.43153027 0.36164823
000120 cf f6 f3 bd 17 2d 8b be 03 ce 3b 3e 75 8c 26 be
       -0.119123094 -0.27182838 0.18340306 -0.16264518
000130 21 3f 24 3f 40 40 85 bf 49 d9 2a 3e 6c d2 6b 3e
       0.6415883 -1.0410233 0.1668445 0.23029488
000140 20 d3 01 bf a6 25 7f 3f dd 78 79 3e 5d 05 1a bf
       -0.50712776 0.9966682 0.24362512 -0.60164434
000150 d1 05 21 3b 1e 0e 04 bd 0f 82 08 bf ba 60 bf 3e
       0.0024570117 -0.032240026 -0.53323454 0.37378484
000160 13 47 48 bf 5d 53 6f be a9 08 c3 3c f1 69 ae 3e
       -0.7823345 -0.23371644 0.02380784 0.34065202
000170 8f a3 4d be e8 af 81 3f 29 bf 28 3f 12 c7 52 bf
       -0.20081924 1.0131807 0.6591669 -0.8233501
000180 b4 bd 47 bf 60 bc da be 0d 1e 5f 3e 50 7f 8c bf
       -0.7802384 -0.42721844 0.21788807 -1.0976353
000190 7a 68 6a bf 4c 7b 2e bf e2 40 02 bf 4a c5 ff be
       -0.9156567 -0.68156886 -0.50880253 -0.49955207
0001a0 a7 47 c7 be bd 8f 5b bf ed ce 88 3e 43 47 eb 3e
       -0.38921854 -0.857662 0.26720372 0.45952806
0001b0 6c fc 10 3e ea 6e 36 bd f9 b3 8a 3d 3a ae 2b bf
       0.14158791 -0.04453937 0.06772608 -0.67062724
0001c0 ea 20 b0 3e 9d 60 87 3d ce 64 e4 bb 9a 63 60 3e
       0.3440011 0.066102244 -0.0069700247 0.21912995
0001d0 94 85 05 be 1e 8e 37 3e 5a f6 53 bf 17 90 36 bf
       -0.13039237 0.17925307 -0.8279778 -0.71313614
0001e0 66 e9 68 3e 6c b7 b5 bf dc 5e de 3e a8 14 97 3e
       0.22745284 -1.4196601 0.43431747 0.29507947
0001f0 9b 80 47 3e c3 c9 29 bf 65 5e b1 3d 06 d2 a5 bd
       0.19482653 -0.6632349 0.086605825 -0.080966994
000200 d7 09 1a 3e 55 65 6d be 28 1c dc be ef e0 83 bf
       0.15042816 -0.23183186 -0.42990232 -1.0303019
000210 96 df 81 3e 4d 04 59 bf 59 cd dd 3d f7 7f ac 3f
       0.25365895 -0.8477219 0.108301826 1.3476552
000220 e7 71 19 3f 9f 64 1c 3f 6a 98 25 3f 4b 59 05 3e
       0.59939426 0.61091036 0.6468569 0.13022344
000230 ba 97 82 3e c5 df 06 be 32 5d 14 bd fa 8d 37 3e
       0.25506383 -0.13171299 -0.03622169 0.17925254
000240 47 6a c9 3e b7 6a dc be 1e 65 81 be dc 18 92 bf
       0.39338896 -0.43050167 -0.2527246 -1.1413836
000250 65 3e c3 be 8a 05 91 3e 2b be 05 bf 75 b7 40 3e
       -0.3813354 0.28324538 -0.522433 0.18819983
000260 34 e9 2f 3e 58 66 9f 3e 80 c4 b5 be ee e3 1a 3f
       0.17178804 0.3113277 -0.3550148 0.60504043
000270 96 bc b7 3e d8 12 40 bf 5a 1d f6 3d b1 ce ec bc
       0.35886067 -0.75028753 0.12017317 -0.028907152
000280 e2 87 4c bf 6b f9 c5 bf e0 5b b8 3e bf 7e 11 bf
       -0.7989484 -1.5466741 0.36007595 -0.56834024
000290 5b 4f 26 3f e3 8b c5 bd b8 ee 99 be 0a c3 c6 be
       0.64964837 -0.09645822 -0.3006494 -0.38820678
0002a0 d0 56 41 3f d8 dc 76 be c6 1b 84 3d e5 aa 32 bf
       0.7552309 -0.24107683 0.0645061 -0.69792014
0002b0 ef 1c 92 be 11 bc ae 3e 77 5f eb 3e be 57 a3 bd
       -0.285377 0.34127858 0.4597127 -0.0797572
0002c0 5c 60 dc 3d d0 2a 9c 3e 74 d3 22 bf 91 84 b4 be
       0.107605666 0.30501413 -0.636039 -0.3525739
0002d0 46 67 0b 3f dc 92 0c bf d4 44 54 be 93 f0 39 3f
       0.5445446 -0.5491159 -0.20729381 0.7263271
0002e0 ec f0 9d 3f 52 83 1d bd c9 0e b2 be 48 5e cc 3d
       1.2339149 -0.038455315 -0.34776905 0.0997892
0002f0 05 74 99 be 52 35 84 be 9f 57 e3 3e 32 1a 3e be
       -0.29971328 -0.2582193 0.44402787 -0.1856468
000300 17 93 27 3c ab 0f 16 3f 40 9a c8 3e 3b 0c ed 3d
       0.01022794 0.5861766 0.39180183 0.115745984
000310 0b 73 c1 3e 55 64 97 be fa ea e0 bd 42 aa c5 be
       0.37783083 -0.29568735 -0.10982318 -0.3860646
000320 25 37 40 bf 64 5f ad bd ef f3 65 3e e7 56 b2 be
       -0.75084144 -0.0846546 0.22456335 -0.34831926
000330 74 96 21 3f 52 70 21 bc 84 bd 9e be 3b 13 a8 be
       0.631202 -0.009853439 -0.31003964 -0.32827172
000340 ef 26 0b bf 96 c0 0b be 92 83 37 3d 1c 4b 39 bf
       -0.5435628 -0.13647684 0.04480321 -0.7238023
000350 e4 a8 34 3e 08 91 7b 3f f3 e3 6f bf c6 a7 cc be
       0.17642552 0.98268175 -0.937072 -0.3997175
000360 f4 7b 85 bf cd c8 54 3e 25 51 c6 be 99 9b 8e bf
       -1.0428452 0.20779724 -0.38733783 -1.1141235
000370 a0 4d 17 3f 71 22 8c 3d e1 f7 f2 be 6d d6 9d 3e
       0.5910282 0.06842507 -0.47454742 0.30827656
000380 4e 14 be be 08 bc 06 bf 9f 4f 86 3f 3a 58 cc 3d
       -0.37124866 -0.5263066 1.0493048 0.099777654
000390 7c b2 3b 3e 03 04 4e be d4 6e 61 3e 64 09 14 3d
       0.18329805 -0.20118718 0.22014934 0.036141768
0003a0 19 e8 4d be ee a9 31 3f 3f 25 40 bd 8d 3e 0c 3e
       -0.2010807 0.6939992 -0.04691052 0.13695736
0003b0 75 9c 9b 3d c8 2e c8 3e 14 12 ec 3b a5 54 bb be
       0.07598201 0.3909819 0.0072043035 -0.36588016
0003c0 e5 bb 01 3f 69 b8 38 3f 0e c5 41 be 07 0b d9 bc
       0.5067733 0.7215639 -0.18922827 -0.026494516
0003d0 a3 b3 bb be 7a f5 37 bf c3 22 ca 3e 26 1d 0d 3e
       -0.3666049 -0.7185894 0.39479646 0.1378065
0003e0 2b db c4 be 33 51 bd bd 40 70 36 3e 0a 5e 36 bf
       -0.38448462 -0.09244003 0.17816257 -0.7123724
0003f0 4d 3f 4d 3d d0 8f cd be 55 50 02 3f 1a 75 b9 3e
       0.050109196 -0.40148783 0.50903827 0.36222154

bias f4 [20]
000000 45 c7 28 bd 7a 1f 0e bf 11 85 03 bd 96 41 1f 3e
       -0.041205663 -0.5551678 -0.032109324 0.15552363
000010 fe ed 18 bf 85 85 e3 be e7 95 02 be f6 1d d0 be
       -0.5973815 -0.44437805 -0.12752496 -0.40647858
000020 2f 41 7a be e9 f6 55 be 7d dc 93 be 34 02 99 3d
       -0.24438928 -0.2089497 -0.28879157 0.07471123
000030 19 6d 58 be b2 7b 4d be b0 8f b9 3d 84 d9 4b 3d
       -0.21135367 -0.20066717 0.09060609 0.049767986
000040 d3 d7 fc bd fa 42 e5 3d e1 bd 95 be 7e 61 aa be
       -0.12345853 0.111944154 -0.2924643 -0.33277506

weight f4 [20, 40]
000000 9e 82 92 3e 91 89 80 be dd 13 18 bf 2f 3c 37 3f
       0.28615278 -0.25104955 -0.5940531 0.7157621
000010 dc b6 81 b8 0e 49 aa bd 75 1f f5 3d 1e c7 ac be
       -6.1852596e-05 -0.08314715 0.119688906 -0.33745664
000020 08 33 bb be c9 fb b2 be c1 ec 17 be 30 b0 67 be
       -0.3656237 -0.34957722 -0.14836408 -0.22625804
000030 e5 09 8e be 47 7f bf be 30 32 20 bf 9f 26 06 bf
       -0.27741924 -0.37401792 -0.6257658 -0.5240268
000040 2a 17 a8 bd 03 36 56 be ca 54 3d bf f3 ef 85 3e
       -0.08207543 -0.20919041 -0.739575 0.2615963
000050 7b 38 1b bc e4 f5 40 3d 18 88 e9 3c 92 71 da be
       -0.009473915 0.0471095 0.028507277 -0.42664772
000060 46 02 37 3e 29 f5 dc be 24 88 09 be 86 f8 d9 3e
       0.17871961 -0.43155792 -0.1343084 0.4257242
000070 f1 f0 78 3e 7c 9e de 3e 9a 14 6e 3e 6a 72 da be
       0.24310662 0.4348029 0.23250046 -0.42665416
000080 65 7b 94 bd 01 4f 9d bd 5a c3 60 be 6c c3 c2 3e
       -0.07250098 -0.076810844 -0.2194952 0.3803972
000090 e8 47 40 3d be 87 13 bf 10 05 83 3d 51 0f 0c 3e
       0.046943575 -0.57629 0.0639745 0.13677718
0000a0 8c c0 18 be 0e 12 d8 3e db 9c 18 3f cf 36 ec bf
       -0.14917201 0.42201275 0.5961434 -1.8454226
0000b0 1d 86 a3 3e 03 8f 99 bf 8c 23 98 bd e5 17 96 be
       0.31938258 -1.1996769 -0.07428655 -0.29315105
0000c0 e0 28 49 be e2 d9 72 3f b0 d3 a8 bd 34 5c 80 3e
       -0.19644499 0.9486371 -0.08243501 0.25070345
0000d0 74 cb 8d 3d d5 a8 a3 bf e5 2e 20 3f e0 3f dc 3e
       0.06923571 -1.2785898 0.62571555 0.43017483
0000e0 af 7e ca 3e ed ec 39 3e 22 ed 49 3e a7 28 32 bf
       0.39549777 0.18156786 0.19719365 -0.6959328
0000f0 c1 63 c3 3e ad 4f 2b 3f 07 65 1f bf 74 46 4d be
       0.38162044 0.6691845 -0.6226353 -0.20046407
000100 9b 02 dd be d1 43 d4 3e da fb 42 3e 70 3c 09 bf
       -0.4316605 0.4145799 0.19041386 -0.53607845
000110 2f 17 e6 3c f5 29 86 bd 7f 05 8d 3f 50 45 3d be
       0.028087227 -0.065509714 1.1017302 -0.18483472
000120 35 71 b9 bf 28 db 05 3f d4 4b fd 3c 7e 86 96 bd
       -1.4487673 0.5228753 0.030919947 -0.07349871
000130 a0 51 8d bd d8 8c 96 be dd 3c 95 3e 2b 10 cd be
       -0.06900334 -0.2940433 0.29147997 -0.40051398
000140 11 74 1f be a7 e8 b4 3d e5 88 f5 be 35 83 bb bd
       -0.1557162 0.088334374 -0.47956005 -0.09155885
000150 f0 04 f1 be ca 93 2c 3f c6 83 26 3e 98 f3 6e 3f
       -0.4707408 0.6741301 0.16261205 0.93340445
000160 88 ac 34 3f 52 12 5f bf c4 5a 86 be fb d5 0f 3f
       0.7057576 -0.8713733 -0.26241124 0.56185883
000170 50 58 5f be f5 b5 06 3e b3 7f 5b 3e 0d aa 6c bf
       -0.21811032 0.13155349 0.21435432 -0.92446977
000180 02 c9 4f be ba eb 52 bf 4f 57 a0 3e f7 fb d6 3b
       -0.20291522 -0.8239094 0.3131661 0.0065607983
000190 63 b3 bd 3e 6c d8 04 3f 6d 32 ce be 4d a5 31 3b
       0.37050924 0.51892734 -0.40272847 0.0027106584
0001a0 4b 82 92 be 16 53 1b 3f 14 1c 46 3f 2f 66 64 3d
       -0.2861503 0.60673654 0.77386594 0.055761512
0001b0 60 1d 70 bc d1 91 89 be 6f 59 6d 3f 6c 6e ea be
       -0.014655441 -0.26869062 0.9271459 -0.4578737
0001c0 0f 95 b0 be c5 c8 64 3e 49 64 d7 bc 27 a2 6c be
       -0.34488723 0.22342212 -0.026292937 -0.23108731
0001d0 84 57 39 be b2 e8 c7 3e 10 2f a0 3e 5c b8 b1 be
       -0.18099791 0.3904472 0.31285906 -0.34710968
0001e0 5d ce c6 be cc c3 5c bd 8c e4 1f bf 67 a9 65 bf
       -0.38829318 -0.053897664 -0.6245811 -0.8971161
0001f0 09 bd 2f bf f5 6d 38 be 3b f3 bc 3e 6f dc 26 bf
       -0.6864782 -0.18010695 0.3690432 -0.65180105
000200 8c 78 05 3f c5 df 9f 3e ea 95 4e bf c5 a4 a3 3e
       0.52137065 0.3122541 -0.806975 0.31961647
000210 c1 c1 82 bf 56 d4 a0 be 5d fe c6 3e 81 22 80 be
       -1.0215379 -0.31412 0.3886594 -0.25026324
000220 91 95 ec be 09 ca 37 bf fb 49 77 bf f6 e2 86 be
       -0.4620786 -0.71792656 -0.9659726 -0.26345032
000230 bc 36 c3 3e 06 8a 20 3f e7 8d ef be 82 25 ad bd
       0.38127697 0.6271061 -0.4678795 -0.0845442
000240 4d 5e a7 be 59 a9 54 3e b4 60 76 bd 37 51 67 3e
       -0.32689133 0.20767726 -0.060150817 0.22589575
000250 14 3a a8 be 69 81 0a be dd cf 53 be a1 0a fa 3e
       -0.3285681 -0.13525929 -0.20684762 0.48836234
000260 a0 d0 37 3a 51 06 bf be 20 b7 94 3e 3d ea 61 3d
       0.00070119835 -0.37309507 0.29045963 0.055155028
000270 5a ae 2f bf 65 7c 52 3e cf bf c5 3e 8b bc 09 bf
       -0.68625414 0.20555265 0.386229 -0.5380332
000280 c0 9d 26 3f 3f 78 17 3f a4 e2 bd be 43 8e 29 bd
       0.6508446 0.59167856 -0.37086976 -0.041395437
000290 8e b5 f6 3e fb 9d 06 3f 06 e9 b7 be 8f 76 01 be
       0.4818539 0.5258481 -0.3591997 -0.12642883
0002a0 ab 21 96 bf bb 84 57 be 90 da 9b bc 30 54 1b 3f
       -1.1729025 -0.21046726 -0.019025117 0.60675335
0002b0 cd 4e 31 bf 92 3b 26 bf 76 3f 18 bf f2 cf 1f 3d
       -0.69260865 -0.6493465 -0.59471834 0.03901667
0002c0 76 69 ae be 7c d2 96 be 7c 49 c9 3d ba 16 3e bf
       -0.34064835 -0.29457462 0.09828469 -0.7425343
0002d0 84 dc e8 3e 0a 87 fa 3e 8d 1e 6c be 5a cf 6a bd
       0.4548074 0.48931152 -0.23058529 -0.057326652
0002e0 84 df 00 3e 14 7e 93 be 07 ac 0c 3f 73 f7 9c be
       0.12585264 -0.28807127 0.5494999 -0.3065754
0002f0 24 0b fb bd ea 40 16 bf 5b 56 33 3d a3 d6 42 3e
       -0.12257984 -0.586928 0.043783527 0.1902719
000300 58 6b 93 bf 3b e6 36 3e 3f 87 38 be 40 eb d2 3e
       -1.1517134 0.17861263 -0.18020342 0.41195107
000310 e9 a5 0d 3f eb a2 62 3e 77 ff ce be 9d 00 a4 3e
       0.55331284 0.22132461 -0.4042928 0.32031718
000320 e7 fa 3b bd 0d 59 d5 3f 96 79 80 3e c7 d9 d0 bf
       -0.045893576 1.6667801 0.25092763 -1.631646
000330 af 54 a9 3f fb e4 e8 3e bc ce 7c 3e e4 2b 0a bf
       1.3228968 0.45487198 0.24688238 -0.5397322
000340 f0 e8 c8 be ab 69 5e 3f 69 36 c4 3d 49 a2 1d bf
       -0.39240217 0.86879987 0.095806904 -0.6157575
000350 21 22 59 be 66 0e ca 3f 9a 63 5f bf c3 d0 0a 3e
       -0.21204425 1.5785644 -0.87261355 0.13556199
000360 49 b8 17 3d cb b5 66 bf 9a 8d 40 bf f4 5d 6c bf
       0.037040982 -0.90121144 -0.75216067 -0.9233086
000370 c6 24 96 3e bd a9 8f 3e 7e 37 cf be 60 c1 aa be
       0.2932493 0.28059188 -0.40472025 -0.33350658
000380 07 06 1e 3f 24 eb a6 3d 44 18 ae 3e 4a 50 1e 3f
       0.61727947 0.08150318 0.34002888 0.6184126
000390 cf 8b aa 3e e9 6d ad bd bc 2d 5f 3f db 12 42 bf
       0.3330979 -0.08468229 0.8717916 -0.7581002
0003a0 85 cb 06 be 32 10 94 3e 3d 81 ea be 0f 9c 4f 3f
       -0.13163574 0.28918606 -0.45801726 0.810975
0003b0 9a 20 d5 3d 2a 6c b1 bd bf c3 b1 3e 37 ee 96 bc
       0.10406609 -0.08663209 0.34719655 -0.018424137
0003c0 e6 9a 35 3e b6 c4 a2 be 5d af 9a be 7e 48 b2 be
       0.1773487 -0.31790704 -0.30211917 -0.34820932
0003d0 58 37 a1 3e d6 5b d1 3e 27 f5 d4 3e fe df ea be
       0.31487536 0.40890378 0.41593286 -0.45874017
0003e0 19 15 3e 3e d8 33 44 3e 98 17 13 be 3b 55 ca 3e
       0.18562736 0.19160402 -0.14364469 0.3951815
0003f0 79 99 bb be 74 88 23 be d9 b8 7d be c0 0e a9 be
       -0.36640528 -0.15970021 -0.24777545 -0.33019066

bias f4 [20]
000000 2e 51 cf be 96 f9 84 bf 59 a6 6d bf e1 7e 6f 3d
       -0.40491623 -1.0388668 -0.9283195 0.05847061
000010 f2 6c 56 bf c4 aa cd be 46 47 3c bc c7 6a 81 bf
       -0.8375999 -0.40169346 -0.011491602 -1.0110711
000020 f4 6e 92 bf 6b 7c 2a bf 0b 34 f5 bd 06 b8 c1 be
       -1.144011 -0.66596097 -0.11972817 -0.3783571
000030 60 14 49 bf 6a 30 30 bf 84 fd 8e bf 09 fe 86 bf
       -0.78546715 -0.68823874 -1.1171117 -1.0546275
000040 b3 85 2f 3e 46 77 db 3e a7 a2 80 bf 34 05 73 bf
       0.17140846 0.42864436 -1.0049638 -0.94929814

weight f4 [20, 40]
000000 96 e4 6d 3e fb 44 54 3f fc 98 a9 bd f1 64 6f bf
       0.2323173 0.82917756 -0.082811326 -0.935134
000010 6b 6e a8 3d 2a a7 b7 3d aa 2d d2 bb ad 83 05 bd
       0.082241856 0.08967431 -0.006414135 -0.03259628
000020 46 e0 c6 3d 29 9b 87 3e a8 97 54 3e aa 15 48 3d
       0.097107455 0.26485565 0.20760977 0.048848785
000030 ed 1c 4f bb 4f 0b e3 3d 87 49 ba 3d 9c 39 1a 3d
       -0.0031602934 0.11086141 0.090960555 0.037652597
000040 ee 27 75 3e ce cf f9 bd 3d 36 dd bc d4 1f 54 bf
       0.23941013 -0.12197839 -0.027003402 -0.82861066
000050 f2 0c d5 3d ff 79 13 bf ff e2 cd be d2 74 35 be
       0.1040286 -0.57608026 -0.40212247 -0.17720345
000060 8c 83 85 bd a1 fb 77 be 9d ae d8 be 09 9a 87 3f
       -0.06519231 -0.24217083 -0.4232072 1.0593883
000070 01 09 db 3d ec 57 8d be d7 18 10 3b 1e cd e5 3e
       0.10695077 -0.27606142 0.0021987462 0.44883054
000080 f5 ff 87 3d 9f 1c 01 bd 3a f2 c6 be b3 b4 fe 3e
       0.06640617 -0.031521436 -0.3885668 0.49747238
000090 c3 02 01 3d e8 22 06 bf ce 9b ad be 41 3d 5a 3e
       0.031496774 -0.5239701 -0.33907932 0.21312429
0000a0 ba 9b ae 3f c5 63 ff be 3b 82 d9 3e eb 00 1a bd
       1.3641274 -0.49880806 0.4248217 -0.03759853
0000b0 66 c4 fe be b6 ae c3 3f 27 08 0d 3f 35 76 43 3f
       -0.49759215 1.5287693 0.55090564 0.76352245
0000c0 4a a8 83 3f 0b 42 aa bf 7b b8 89 3e d3 d2 21 bc
       1.0285733 -1.3301405 0.2689856 -0.009876925
0000d0 b6 0c 76 be bd 6c eb 3f d4 00 47 bf 4d 1a 38 bf
       -0.24028286 1.8392559 -0.7773564 -0.7191513
0000e0 78 f4 85 bf 47 19 8b 3e cd d2 22 3f 3c 97 e8 3e
       -1.0465231 0.27167723 0.63602906 0.45427883
0000f0 b5 c1 11 3e c0 bd e7 3d c6 36 3d be 51 ab 3b 3e
       0.1423405 0.11315489 -0.18477926 0.18327071
000100 c1 9d 5a be 5f 70 59 3d 62 2f c1 3c f4 4c 3e be
       -0.21349241 0.05308568 0.023582164 -0.18584043
000110 f7 3f 3c 3d 6a e2 f2 bd 58 93 fc 3d 76 83 10 bd
       0.04595944 -0.11859591 0.12332791 -0.03528162
000120 25 1d 97 3c c3 ee e9 bc af d9 d8 bc 71 f4 9d be
       0.018446514 -0.028556233 -0.026470987 -0.30850556
000130 6c d8 0c be c8 50 1c be 11 7e 87 3d fe 9a a2 bd
       -0.13754433 -0.1526519 0.06615842 -0.07939719
000140 f1 b1 43 3f 64 09 73 bf c2 fe 18 3e 57 10 2a 3e
       0.7644339 -0.94936204 0.14940932 0.16607796
000150 d0 4f 87 3f ff 56 87 3e c4 c6 6d 3e c6 02 81 be
       1.0571232 0.2643356 0.23220354 -0.25197428
000160 2f 71 56 3f 4d 4a b2 3e 84 81 f2 3e 32 38 85 bf
       0.83766454 0.34822312 0.47364438 -1.0407774
000170 23 e2 19 be fc 06 14 bf cb 0c 74 bf 91 d3 ac 3f
       -0.1502767 -0.5782316 -0.9533202 1.3502065
000180 be b1 40 bf ec d8 05 be de 8c ac 3e fe a5 13 3d
       -0.75271213 -0.1307103 0.33701223 0.036046974
000190 3f e3 b6 be 1a fc 2d be d1 82 b9 be 28 6d 22 3e
       -0.3572025 -0.169907 -0.36232617 0.15861952
0001a0 ff 59 c1 be 10 fc 87 be fa c6 1a 3e 62 5b 5b 3e
       -0.37763974 -0.26559496 0.15114966 0.21421579
0001b0 99 d2 2a bd c2 66 be 3c 9b 6d 74 3e 29 43 22 bc
       -0.041704748 0.023242358 0.23869936 -0.009903708
0001c0 e5 e2 8e bd 67 c1 61 3e 5a 8f a9 bd 9d d8 95 3e
       -0.069768704 0.22046433 -0.08279295 0.29266825
0001d0 a5 65 b2 bd e0 de 88 bb b4 be 92 be 89 3b 70 be
       -0.087107934 -0.0041769594 -0.2866112 -0.23460211
0001e0 c8 2b 2b be f6 9d 19 3e 18 74 98 3d 07 59 05 3f
       -0.1671592 0.15001664 0.07444018 0.5208897
0001f0 c8 37 5e 3f e6 e0 bc be 1a c1 e6 bd 8c 9f c4 be
       0.86803865 -0.36890334 -0.112673 -0.38402975
000200 ce 34 ce bd 55 06 31 bf 1a d5 32 be 73 cc 4c bc
       -0.100686654 -0.69150287 -0.17464104 -0.012499916
000210 fd 5e 38 bd 11 d8 73 bf 0e d6 e7 be 25 f7 79 3e
       -0.045012463 -0.95251566 -0.45280498 0.24410684
000220 3a 7e 53 bc 3d 1d 50 3e 6c e7 ef bc 6b 2b 3a 3c
       -0.012908513 0.20323654 -0.029285155 0.011362891
000230 7d 58 b0 be 95 d2 c2 3d 4a 2b a0 3e 88 cb 88 be
       -0.3444251 0.095128216 0.31283027 -0.26717782
000240 f2 de 0c 3d 60 01 f9 3e 11 ec f4 bd cb 50 0a 3f
       0.034392305 0.48633862 -0.119590886 0.5402953
000250 46 a2 aa 3d 62 6d c7 be c6 6f 1a be cb 68 2c be
       0.083317325 -0.3895064 -0.150817 -0.1683685
000260 b0 93 48 3f df 93 08 be 4d 5f bf 3e 04 a1 a9 bd
       0.78350353 -0.13337658 0.37377396 -0.082826644
000270 d0 4e 8c be 91 33 48 3c 38 8d 74 be d9 91 b5 3d
       -0.2740388 0.012219326 -0.23881996 0.08865709
000280 bb 5e 2c 3f 4f e5 88 be 7f 62 3a 3e 0d 08 c1 3d
       0.6733205 -0.2673745 0.18201636 0.09425364
000290 74 4a fe 3f 31 58 be bd 78 a6 71 bd 7d 0f e6 3d
       1.9866471 -0.09294165 -0.058996648 0.11233423
0002a0 2f 46 08 3f c7 f1 01 bf 30 13 c9 be 82 4e ce 3e
       0.5323209 -0.5075955 -0.3927245 0.40294272
0002b0 27 42 1e 3d c5 46 0e 3f 2e 13 00 bf 98 78 01 be
       0.038637307 0.55576736 -0.50029266 -0.12643659
0002c0 91 84 d9 3f 97 5b 9c bb 91 5d 96 3f 89 09 09 bf
       1.6993581 -0.0047716605 1.1747304 -0.53530174
0002d0 4e 6e b1 be df 51 4b be 5b df 0f 3e 44 e8 64 3d
       -0.34654468 -0.1985545 0.14050047 0.05588557
0002e0 5b 51 8c 3d 7b f7 8f 3e 7c 98 ea 3d 9d f3 0e be
       0.06851455 0.281185 0.11454865 -0.13960119
0002f0 a0 c0 65 be 38 0e 21 3e 61 78 22 3e 71 d1 24 be
       -0.22436762 0.1572808 0.15866233 -0.1609552
000300 b8 12 8f 3e 9f ca 04 3e 11 fc 29 be 13 c2 ad 3d
       0.2794397 0.12967919 -0.16600062 0.08484282
000310 84 cd 65 be 70 e8 b4 3e dc ab 4e 3e a2 45 ef bd
       -0.22441679 0.35333586 0.20182747 -0.11683203
000320 c6 06 19 3f cf c0 bb bf 62 e0 72 3d 3a 08 26 bd
       0.5977596 -1.4668216 0.05929602 -0.04053519
000330 ae 9f af bf b6 29 14 bf e2 1f 84 be 91 3f 70 3e
       -1.3720605 -0.57876146 -0.25805575 0.23461749
000340 d7 f0 1b 3f 37 5e d7 bd 28 1f 00 be 05 56 02 3f
       0.6091437 -0.10516017 -0.12511885 0.50912505
000350 ad a4 15 3e c5 c6 9f bf 03 90 1b 3f ba af 78 3e
       0.146136 -1.2482535 0.6076662 0.24285784
000360 ed 4a f0 3d dd 44 7b 3c 5d c4 9a 3e cd 7d 88 3e
       0.11733041 0.0153362425 0.30227938 0.26658478
000370 7b 72 d2 3e da 9f 90 3e 25 09 c7 be e6 44 d8 bd
       0.41102967 0.28246957 -0.38874164 -0.10560016
000380 38 82 14 bd 39 54 5b 3d 84 fa 56 3d b2 2e 6f 3e
       -0.036257 0.053547118 0.052485004 0.23357657
000390 25 63 b0 3e c4 5b 8f 3e 04 bd f1 bd 54 3e cc bd
       0.3445064 0.279997 -0.1180363 -0.09972826
0003a0 a0 a9 90 3d c9 1f 9d 3e 0a a1 88 be 58 8f bc 3e
       0.070636034 0.30688313 -0.26685363 0.36828113
0003b0 b5 0c a3 bc fb 00 0a be 52 00 89 bd 05 46 94 3e
       -0.01990352 -0.13476937 -0.06689514 0.2895967
0003c0 67 03 59 bf 82 3c 83 be ca f6 6a 3d 75 34 48 3f
       -0.84770817 -0.256321 0.057364263 0.78205043
0003d0 d7 23 1b bf 4c 94 e1 bd 4a 0a ac 3b a1 7f 51 bc
       -0.6060156 -0.110146135 0.00525025 -0.012786777
0003e0 f8 c2 7f be 12 15 f6 be cd 4c 17 bf d9 4b 36 bf
       -0.24976718 -0.4806295 -0.59101564 -0.71209484
0003f0 4f 92 f0 3e 80 04 00 be c9 8d c4 3e 28 6a 82 3c
       0.46986625 -0.12501717 0.38389423 0.01591976

bias f4 [20]
000000 78 c9 07 3e 17 02 3f bc 33 16 64 be 1f 1c 0a 3f
       0.13260448 -0.011658213 -0.22274093 0.5394916
000010 34 06 a5 3e c8 b1 86 3d e4 2a b4 be 30 3f 63 3e
       0.32231295 0.06576878 -0.35188973 0.22192073
000020 65 65 18 bd bf 5f 8a 3e 26 27 16 be 30 48 6c bd
       -0.037206072 0.27026173 -0.14663371 -0.05768603
000030 9b 92 21 3c 07 b8 5d 3e 61 46 1f 3e f1 c9 5e be
       0.009861614 0.21652232 0.15554191 -0.21756722
000040 a8 97 2e 3f 1f ce b6 be bb e1 ad bd 81 44 18 3d
       0.6820016 -0.35704133 -0.0849032 0.037174705

weight f4 [20, 20]
000000 4c aa 69 be 97 52 aa 3e ad 2b 64 be 9e 0c d4 be
       -0.2281887 0.33266136 -0.22282286 -0.41415876
000010 b9 6b b3 3d 84 33 7e be 31 25 df be ca 07 82 bf
       0.08760781 -0.24824339 -0.43583062 -1.0158627
000020 e8 59 b6 bd 04 85 2c bf f6 d3 ad bd 34 37 fd 3d
       -0.08903867 -0.67390466 -0.08487694 0.12364045
000030 27 38 f8 be b7 5a 15 3f d2 82 88 3e 87 f8 3b 3f
       -0.4848034 0.58341545 0.26662308 0.734261
000040 1a eb 80 be a3 f5 6f 3e f0 90 00 bf ab 14 db 3e
       -0.25179368 0.23433547 -0.5022116 0.42789206
000050 32 31 34 be 00 d9 1d 3d ac 4c 10 3f 1a 8a 84 be
       -0.17596892 0.038537025 0.5636699 -0.25886613
000060 10 35 a1 bd 92 a1 9c 3e d5 3d dd 3e 2e 47 80 bf
       -0.07871449 0.30592018 0.43211237 -1.0021722
000070 6d c1 49 3e 42 58 c7 3e 98 16 91 bf 4a e5 25 3f
       0.19702692 0.38934523 -1.133502 0.6480299
000080 9c ad 04 bf bf 2e cc bd fd d3 c7 3d a1 f7 5a be
       -0.51827407 -0.099698536 0.097572304 -0.21383525
000090 cb 57 6d 3f b8 86 54 bf 46 03 83 be 79 38 18 3f
       0.92712086 -0.83018064 -0.25588435 0.5946117
0000a0 ad 4c 96 be 53 c7 b1 3e 2b 75 37 bf fa 96 e6 be
       -0.29355374 0.34722385 -0.7166316 -0.4503706
0000b0 05 6d 7c be 4d 0e 70 bd f0 48 43 3f 44 df a3 be
       -0.24650963 -0.05860739 0.7628317 -0.32006276
0000c0 f4 9f 57 be a6 02 47 bd 0e d1 1a be 33 0f 7c 3e
       -0.21057111 -0.04858651 -0.1511881 0.24615173
0000d0 c3 cc 35 bf 98 a6 fd 3e a0 2e f7 bc 2e 29 15 be
       -0.71015567 0.49541163 -0.0301736 -0.1456649
0000e0 a9 9e 8e 3f f4 af f2 be 3d 9f 47 be 01 6f c7 3e
       1.1142169 -0.47399867 -0.19494338 0.38951877
0000f0 fd 00 1c 3e 1b 7e ff be 02 2a cb be 5f a7 3b 3d
       0.15234752 -0.49900898 -0.39680487 0.045813914
000100 50 86 38 bf a4 f2 1d 3e 8b fb 02 3f 4d fd e5 bc
       -0.72079945 0.15424591 0.51165074 -0.028074885
000110 00 f5 fa 3e 67 ac ca be f2 c6 8d 3e 2e c3 5e be
       0.49015045 -0.39584658 0.27690846 -0.21754143
000120 87 90 e1 3e 08 52 5b be 71 a7 d7 3e 6c 4b c6 3d
       0.44055578 -0.21418011 0.42119935 0.09682354
000130 73 78 4d bf 01 23 8c 3f d4 43 38 bf 0f f9 b8 3d
       -0.80261916 1.0948182 -0.719785 0.09031879
000140 34 ce 3a 3f b1 5a a3 3e f5 09 a0 be 3c ef b7 bd
       0.7297089 0.3190513 -0.31257597 -0.08981177
000150 a5 40 d4 be 0f fc d6 bb da 5b 65 3e ba ec 56 be
       -0.4145557 -0.0065608094 0.2239832 -0.20988742
000160 d9 fd e7 3e 3e 60 0f 3d c5 ef da be 31 b1 1f 3f
       0.45310858 0.035003893 -0.42761055 0.6237975
000170 a5 b2 09 3f c5 fb 73 be 60 db 69 bc 3d 86 5b be
       0.53788215 -0.23826511 -0.0142734945 -0.21437927
000180 93 65 38 3f 63 cd af bf 57 d3 2f bf 09 b8 0c 3e
       0.7202999 -1.3734554 -0.68681854 0.13742079
000190 af 44 99 be ad cb 69 3f af 9b d6 be 29 e2 c6 be
       -0.29935214 0.9132641 -0.41915652 -0.38844422
0001a0 1e 44 9d be 67 36 2d be 98 71 9f 3d 76 00 9c be
       -0.30716032 -0.16915284 0.07785338 -0.30469102
0001b0 26 28 02 bf 47 ba dd 3d 5c 43 d8 be d3 94 1a 3f
       -0.5084251 0.10826545 -0.4223889 0.6038334
0001c0 35 21 5d 3d 13 6e b7 3b 16 bb f1 be 02 15 1a bf
       0.053986747 0.0055978387 -0.47213048 -0.60188305
0001d0 21 59 5b 3f b3 bd a3 be a3 25 8b 3c 99 07 ae be
       0.85682875 -0.31980667 0.01698572 -0.33990172
0001e0 dc 4b 3a 3e 74 cb af 3e fa c8 8f 3e bf 28 43 3e
       0.18193 0.3433491 0.2808302 0.19058512
0001f0 7c ef a0 3e 61 72 1b bd 01 62 e4 3d a2 9a 11 be
       0.31432712 -0.037950877 0.11151505 -0.14219144
000200 85 f9 3a be 56 df 20 be 13 fb 2a 3f 22 99 d9 bd
       -0.18259247 -0.15710196 0.6678936 -0.10624911
000210 ed 1f 5f 3e a3 85 54 3e 44 1c bd 3e b4 0e b8 3e
       0.21789522 0.20754103 0.36935627 0.35948718
000220 ba 16 54 be b3 1a b6 3e 77 69 b6 3e 43 c8 02 be
       -0.20711794 0.35567245 0.35627338 -0.12771706
000230 47 51 ba 3d ee f4 24 3d 9d bd 2c bf 53 29 a6 be
       0.09097534 0.040272646 -0.67476827 -0.32453403
000240 a4 47 80 be cb 26 05 be 82 c7 c7 3e d6 b8 80 be
       -0.25054657 -0.1300308 0.390194 -0.2514102
000250 58 0e 74 bd e0 ea aa 3d 24 a7 08 bf 26 d4 f1 3e
       -0.05958399 0.0834558 -0.53380036 0.4723217
000260 ce e4 9c 3b 51 b1 8f be 8b 64 0a 3f cf 76 81 bd
       0.004788018 -0.2806497 0.54059666 -0.06321489
000270 11 fc 08 be 14 60 05 be 54 b0 20 3f 53 67 05 3f
       -0.13377406 -0.13024932 0.62769055 0.52110785
000280 c0 c6 de bd 05 49 da bd ff d2 f5 bb 6f bb 4f bf
       -0.10877752 -0.106584586 -0.0075019593 -0.81145376
000290 2a 81 1e be b6 6c c9 3b c0 2f 9f 3f e4 01 be 3b
       -0.1547896 0.0061469926 1.2436447 0.005798565
0002a0 c8 54 1c bf ce 43 fa 3d 0c bb 0a bf 5c cd 09 3f
       -0.61066866 0.12219964 -0.5419166 0.5382898
0002b0 c4 65 7e 3e cf 52 27 be 3a a9 17 3f 69 fb c2 3e
       0.24843508 -0.16340183 0.59242594 0.38082436
0002c0 59 45 a4 3f 3f 07 78 bf 18 6f 18 bf bc 9e 4b 3f
       1.2833663 -0.96886057 -0.59544516 0.79539084
0002d0 d5 ef 7f be a8 0e b5 be 32 86 b0 be a6 c7 3b bf
       -0.24993832 -0.35362744 -0.34477383 -0.73351514
0002e0 2d 08 29 3e 03 c0 76 3e 54 cd 13 3f 38 7a 14 3f
       0.16507025 0.24096684 0.5773518 0.5799899
0002f0 8c 78 8a 3e 07 2e 77 3d 95 5d 36 bf 25 a7 20 3f
       0.27045095 0.06034663 -0.71236545 0.6275504
000300 b0 96 93 bc c2 64 63 3f 94 08 90 ba 86 ef fa be
       -0.01801619 0.8882562 -0.0010988885 -0.49010867
000310 95 34 95 3f ab 7f 8f bf bc e9 fe 3e 2f c1 f3 bd
       1.1656672 -1.1210836 0.497877 -0.11902081
000320 67 19 26 3e d0 09 82 3d 71 b1 1e 3e d8 e9 52 be
       0.16220628 0.06349528 0.15497376 -0.20597017
000330 35 07 80 be f0 ff fb bc 90 9f 85 be 57 a8 2d 3d
       -0.250055 -0.030761689 -0.260983 0.04239687
000340 3c 2c f0 b9 97 4b df bd 1d e1 26 3e af 6e b7 3d
       -0.00045809324 -0.109030895 0.16296811 0.08956658
000350 37 41 11 3d 8e e6 a0 3d 9e 4e 34 3e 26 29 9e bc
       0.035462584 0.07856475 0.17608115 -0.01930673
000360 b7 9e 15 bd 13 33 d6 3e bb 86 a0 3d 12 00 d3 bd
       -0.036528315 0.41835842 0.07838198 -0.10302748
000370 d6 57 a2 bf b0 2e c4 3d 99 aa 49 bf 03 b8 86 bd
       -1.2683055 0.095792174 -0.78775936 -0.06578066
000380 49 84 17 be a0 9f 12 bf 32 bf 82 3f ae d0 1c bf
       -0.14796557 -0.5727482 1.0214598 -0.6125592
000390 51 cd 06 bf 9e 73 a4 bf c5 56 b3 3d d1 9d 11 bf
       -0.5265704 -1.2847784 0.08756784 -0.56881434
0003a0 34 6b 2e be 0e 63 e0 3d 70 1e 6a be 03 58 2d 3f
       -0.17033082 0.10956393 -0.22863173 0.6771242
0003b0 e2 e9 14 bf a4 54 41 3f 2a bb 84 3e ac 77 86 3e
       -0.58169377 0.75519776 0.25924045 0.26263177
0003c0 8d a8 33 bf 5a 86 6e bc 14 4a 89 3e c7 7d 05 bf
       -0.70179063 -0.014558399 0.2681433 -0.52145046
0003d0 fc fd 4e 3d ca 0b 16 bf 7e 32 fa 3e d9 20 2b 3e
       0.050535187 -0.5861174 0.48866647 0.16711749
0003e0 f7 36 01 be 04 21 04 bf 91 58 f5 3c fe db 30 3f
       -0.12618624 -0.5161288 0.029949458 0.6908568
0003f0 c5 3c 10 3f f4 5d 8b be 4a 04 98 3e 42 7a 91 be
       0.56342727 -0.27220118 0.29690772 -0.28413588

bias f4 [20]
000000 d2 9b 71 be e4 5e 44 bf bb 05 8a bf 62 7e 94 be
       -0.23594597 -0.7670729 -1.0782999 -0.29002672
000010 1f ff 80 bf 36 e1 2a bf 90 2f 03 3c 9b 8d 8f bf
       -1.0077857 -0.66749895 0.008006945 -1.121509
000020 9f 05 69 bf 95 88 37 bf ca 81 57 bd 7a da ad be
       -0.910242 -0.7169278 -0.05261401 -0.33955747
000030 58 cb 22 bf 62 1f 35 bf 52 19 73 bf 96 93 59 bf
       -0.6359153 -0.7075101 -0.9496051 -0.84990823
000040 d5 f9 4f 3e c5 7b 1f 3e 29 f5 34 bf 7a be 82 bf
       0.20310147 0.15574558 -0.70686585 -1.0214379

weight f4 [20, 20]
000000 0c d7 14 3e bf f6 bd be 07 d1 06 3f 3b a7 14 be
       0.14535159 -0.37102315 0.526627 -0.14516918
000010 2f c8 af 3e 1a 7d 21 3d 2b 65 5e bf 0e db 95 3e
       0.34332415 0.039425947 -0.8687312 0.29268688
000020 07 b1 97 3e 87 eb ad 3d 04 72 67 3e 29 17 93 bd
       0.2962725 0.08492189 0.22602087 -0.07182152
000030 f4 25 a8 3c d2 d9 09 bf 8e ea 77 be ff 00 6a bf
       0.02052591 -0.5384799 -0.2421057 -0.9140777
000040 68 fb 87 3e 0a c0 36 bf 80 ee 20 3e 45 89 ff bd
       0.26558995 -0.7138678 0.1571598 -0.12477354
000050 6c 0e b3 3e 6f e0 36 3f 25 a7 58 3e 81 b5 14 be
       0.3497194 0.7143621 0.2115751 -0.14522363
000060 ea 03 92 be 20 c3 6d 3e 43 1e 87 3e 55 08 89 3e
       -0.2851861 0.23218966 0.26390275 0.2676417
000070 6f 3b 89 3e ca d1 21 bf 42 69 8c bd ae 27 0f 3f
       0.26803157 -0.6321074 -0.06856014 0.5591992
000080 59 d7 56 be 15 93 fe be 0b 2e e2 be 2b e0 3e be
       -0.20980586 -0.4972159 -0.44175753 -0.18640201
000090 f3 83 5c 3f cf 7d c5 be 43 6c c3 be 0a 53 10 3c
       0.8613884 -0.38572547 -0.38168535 0.008808861
0000a0 bc 23 45 3f ee ae e7 3b 01 7a c5 3e 11 0d 15 be
       0.7700765 0.007070414 0.38569644 -0.14555766
0000b0 46 c0 14 bc 66 19 a0 3e b6 f4 99 3e 52 44 4e 3e
       -0.009079045 0.31269377 0.30069512 0.2014325
0000c0 6a ca 99 3e da 1f dd be 18 4a 72 3e 0d ac 92 be
       0.30037242 -0.43188363 0.23661077 -0.2864689
0000d0 85 86 48 3f ca cf 97 3e 70 a7 a6 3e 98 6f 30 3e
       0.7833026 0.29650718 0.3254962 0.1723007
0000e0 df cb b1 3e 82 c7 e9 be 43 3d 03 3f f8 3f b1 3d
       0.34725854 -0.45660025 0.5126535 0.08654779
0000f0 77 aa d2 3e ea 6c 91 3e bb d3 c9 3c 9a a7 7e bb
       0.4114568 0.28403407 0.024637094 -0.0038857223
000100 dd 3f a0 39 de e7 a7 be 9f e7 09 3d 4b 87 a2 3e
       0.0003056516 -0.32794088 0.033668157 0.31743845
000110 aa f3 04 3f 39 c9 2a 3f 1f 12 c4 3e e3 dd 56 be
       0.519343 0.6671329 0.38295075 -0.2098308
000120 2c e7 17 3f ea 37 ab 3e 6a 9f be 3b 28 db b0 be
       0.59337115 0.33441097 0.0058173435 -0.34542203
000130 69 9d 86 bd a9 7c 50 3f e2 30 07 3f a9 fb 85 bf
       -0.06572992 0.81440216 0.52808964 -1.0467426
000140 d3 9d da 3e be c6 e5 be 88 67 91 3e 37 6d ea bd
       0.42698535 -0.4487819 0.283993 -0.11446612
000150 3d 61 2d be f3 48 44 3e 37 1f 96 be 27 6b 88 be
       -0.16931625 0.19168453 -0.2932069 -0.2664425
000160 42 1e 11 be 34 95 1d 3f 7e 17 cd be 34 fb 16 3f
       -0.14171699 0.6155579 -0.40056986 0.58977056
000170 f6 75 5a bf 9f 3a b2 3e 73 d6 2c bf 90 e5 dc be
       -0.85336244 0.3481035 -0.67514724 -0.43143892
000180 3f 23 a4 3f 01 d9 80 bf bc 21 98 bf 93 37 8b be
       1.2823256 -1.0066224 -1.1885295 -0.27190837
000190 79 4e 43 3e 16 1b 00 3d 6b 84 ed bd 6e 88 f9 be
       0.19072904 0.03127583 -0.11597522 -0.487369
0001a0 98 1f 74 bd 80 62 40 3f a2 71 02 3f f5 0c 03 be
       -0.059600443 0.751503 0.5095464 -0.12797911
0001b0 72 3e d8 be 44 6e 2f 3e 63 35 ee be 88 c7 01 3f
       -0.42235142 0.17131907 -0.46525106 0.50695086
0001c0 1b 7f 6d be 07 f6 38 bf 5c ed 71 be 0c 08 cc 3d
       -0.23193018 -0.7225041 -0.23625702 0.09962472
0001d0 37 48 4c 3f 1d 12 03 bf ad 7c 74 3e 53 0a 18 be
       0.7979769 -0.51199514 0.23875685 -0.14847688
0001e0 28 f5 2c be 27 a7 fd 3c 5f b5 6a be 44 3e 34 be
       -0.16890395 0.030963494 -0.2292075 -0.17601877
0001f0 da 91 af 3b 02 59 55 be ab 0d e5 3d b5 e0 01 bf
       0.005357963 -0.20834735 0.111842476 -0.507335
000200 91 dd 92 be b9 ad aa bd e1 f6 f6 be 1e 84 07 3f
       -0.28684667 -0.08333916 -0.4823523 0.5293597
000210 7c de ea 3d 96 c8 2b bf 69 e7 85 3e 32 5a 0f bd
       0.11468217 -0.67102945 0.26153114 -0.034998126
000220 9c 40 aa 3f 2c 25 a2 bf 04 49 ac 3b 14 44 bb 3e
       1.3300967 -1.2667594 0.0052577276 0.36575377
000230 39 45 03 3e 76 45 99 be 7a ab ca 3d 08 e5 f3 be
       0.12819375 -0.29935807 0.09895988 -0.47635674
000240 2d 83 b9 be 56 9c 8c 3e 33 69 14 3e 32 00 28 3d
       -0.36232892 0.27463025 0.14493255 0.04101581
000250 5e 39 ad 3e 22 26 ab be 57 92 bf be bd 31 23 3e
       0.3383283 -0.3342753 -0.37416336 0.15936942
000260 36 31 95 3e af d5 0d 3e a0 64 fb be d4 23 ce bd
       0.29139107 0.13851045 -0.49100208 -0.100654274
000270 ce 05 e8 3e 93 f7 18 bd ab de f3 be b7 4b c3 3e
       0.4531693 -0.03734548 -0.4763082 0.38143703
000280 12 03 b0 3e c0 c8 a9 3e 2c 57 66 3e db d4 5a bf
       0.34377342 0.33160973 0.22494191 -0.8548104
000290 72 2b 1b be 4d 0b 88 be 11 37 b6 be d8 ae ef 3e
       -0.15153292 -0.26571122 -0.35588887 0.46813083
0002a0 1d a6 aa 3d 13 48 23 bf ee f2 f3 be be b9 2b 3f
       0.08332465 -0.6378185 -0.47646278 0.67080295
0002b0 a7 48 8a bd 79 71 01 bf c6 0e 74 3c 4e 31 f3 3e
       -0.067521386 -0.5056377 0.0148961 0.47498554
0002c0 fe fc 0e 3f 7f 57 20 3e d4 66 c3 3e 1c 2e 92 bc
       0.55854785 0.15658377 0.3816439 -0.017844252
0002d0 ab aa a2 3f 49 8f cf ba b5 f8 7c 3f 24 8f 91 be
       1.2708334 -0.0015835549 0.98816997 -0.2842952
0002e0 66 0f 20 3d bd d5 67 bd 2f a1 aa be 7e 27 83 be
       0.039077185 -0.05660032 -0.33326098 -0.25616068
0002f0 ad c8 54 3f 06 65 36 3f 06 cc 9f bd 67 17 91 3d
       0.83118707 0.712479 -0.07802586 0.07084542
000300 59 22 ec bc dc 12 9c 3e f5 a9 20 3e d1 b6 8d 3e
       -0.028824972 0.3048314 0.15689833 0.2767854
000310 c4 c5 1a be 32 32 0a bf c2 ec f5 be 4c 9d b8 bb
       -0.15114504 -0.5398284 -0.48032194 -0.0056339856
000320 72 22 21 3f b4 ea e9 be 22 5d d5 bd ff 72 70 3d
       0.62943184 -0.45686877 -0.10418154 0.05870342
000330 8c ea dd be 5f 9f b6 be 6f 1c 3f 3e 66 ec 4c 3f
       -0.43343008 -0.35668465 0.1866319 0.80048215
000340 da 66 44 3f 39 a8 bf bd 45 0b fb be 77 dd 97 3d
       0.7671944 -0.09358258 -0.49032035 0.07415288
000350 51 dc 39 3f 66 b7 1e 3f 40 05 5c bf 7d 8c 70 be
       0.726018 0.61998594 -0.8594551 -0.23491092
000360 0e cc 6b bc 02 06 9b 3e c2 ab db be 89 50 03 3c
       -0.014391912 0.3027802 -0.42904478 0.008014807
000370 c4 8e 8b 3b 71 62 0f 3f 63 7a 1f 3e 2f c5 83 3e
       0.0042589623 0.56009585 0.1557403 0.25736377
000380 88 c6 8e 3d b5 0e 81 be 03 c1 16 bf ab 28 cc 3e
       0.069714606 -0.25206533 -0.5888826 0.39874777
000390 5f ae b3 be 0a 89 08 be a5 2b a0 3f d1 9c 45 3e
       -0.35093972 -0.13333526 1.2513319 0.19298102
0003a0 88 75 81 be d0 3b d2 be 7f 8e d6 3e 2f cd 53 3f
       -0.25284982 -0.41061258 0.4190559 0.8273496
0003b0 59 5f 08 bf b6 0b 6a 3e 11 39 b7 3f 1a e6 1f bd
       -0.5327049 0.2285603 1.431429 -0.0390378
0003c0 b4 c1 27 3f 81 74 ad 3d d4 78 c8 3c 73 c0 1b 3e
       0.6552994 0.08469487 0.024471678 0.15210132
0003d0 70 d1 60 3c 7a af cc 3d 75 3e 6a bf 7f 25 cb bb
       0.013721809 0.09994407 -0.9150155 -0.0061995382
0003e0 e7 44 d6 bd 8d 85 99 3e f2 08 06 3e ad 31 53 3e
       -0.10462361 0.29984704 0.1308935 0.20624419
0003f0 4c cf 3f 3e a3 8a 6d be 9b b4 d5 3e 81 c9 8e 3c
       0.18731421 -0.23197417 0.41739354 0.017430069

bias f4 [20]
000000 73 26 3b 3e cf 3b c3 be 83 78 49 3d ec bc 68 3e
       0.18276386 -0.38131568 0.049187195 0.22728318
000010 9d a6 ad be 77 26 dd be d3 60 5a be 9c 6a f1 be
       -0.33916178 -0.4319341 -0.21325998 -0.4715165
000020 07 d2 96 be d1 0b 79 bd 56 93 11 be 58 1f 01 3d
       -0.29457113 -0.060802285 -0.1421636 0.031524032
000030 f3 ff 9a be aa 2c 4e be 43 ec 87 3d cc 29 11 3d
       -0.302734 -0.20134225 0.0663686 0.03544025
000040 6d da 9c bd 52 2f 3b 3d 33 da db bd 88 35 fd bd
       -0.07658849 0.045699425 -0.107349776 -0.12363726
