programming_homework/03/code/part_2/encoder.pt (torch, 18390 bytes, 13 tensors)

weight f4 [29, 20]
000000 38 37 60 be 2f 5b e7 3d 37 e5 06 bf 29 d0 5b bf
       -0.21896064 0.11296689 -0.52693504 -0.858645
000010 13 a8 68 3f b1 50 c1 bf 85 2f e9 bd 8f 3c 1b bd
       0.9088146 -1.510275 -0.11386017 -0.03789955
000020 01 46 82 3d 66 7e 89 3f 55 38 f7 be 29 74 80 3c
       0.063610084 1.0741699 -0.48285165 0.01568039
000030 f4 06 6d be 4f 0d 76 3f a1 c6 56 3f f4 db 2a be
       -0.23147184 0.9611406 0.83896834 -0.16685468
000040 53 17 fd be c7 03 10 3f 23 dc f2 bf 6d ae bd be
       -0.49431857 0.56255764 -1.897343 -0.3704714
000050 92 af 2d 3f f4 3f cc 3d c9 97 32 c0 d4 ec 4e 3f
       0.67846024 0.099731356 -2.7905142 0.8083012
000060 60 be 73 be 31 67 0e 3f 42 27 5a be f2 b2 f5 3e
       -0.23803091 0.5562621 -0.21304038 0.47988087
000070 25 ca e0 be c8 b1 a2 3f d3 39 6c be 5a e9 10 3e
       -0.43904224 1.2710505 -0.23068933 0.14151517
000080 58 19 d0 3e be 92 8c be 73 54 23 3e ca 9c c4 3f
       0.40644336 -0.27455705 0.15950184 1.5360348
000090 6c 07 c3 3e e0 2c 10 3f 75 0f 40 be f4 63 29 3f
       0.380916 0.56318474 -0.18755896 0.6616814
0000a0 2f d7 aa be d4 ad d4 bf 0a 75 b5 bd 37 0c 93 bf
       -0.33367297 -1.6615548 -0.08860214 -1.1488103
0000b0 3c dc 18 bf de 20 74 3f 35 e5 95 bf b4 8d d6 bf
       -0.5971105 0.9536265 -1.1710573 -1.6761994
0000c0 8b 73 0a 40 b0 2b 95 bf 54 97 84 3f b6 e1 a0 bf
       2.1633022 -1.1653957 1.0358682 -1.2568882
0000d0 96 ee cb 3e 27 0f 0e bf de 72 dd 3f 6f c4 f7 bd
       0.39830464 -0.5549187 1.730068 -0.120980136
0000e0 18 a0 1b 3e 80 cb e2 bf fe ec 6b bf cf 6f 4f 3f
       0.1519779 -1.7718353 -0.92158496 0.8102998
0000f0 7b c1 37 3f a1 f9 a0 bf e9 36 4e 3d c9 e3 e2 be
       0.717796 -1.2576181 0.050345335 -0.4431441
000100 00 2a 9b 3f 79 56 da 3d aa 56 d8 be 86 e4 82 3f
       1.2122192 0.106610246 -0.4225362 1.022599
000110 6d 33 e5 bd 34 53 85 3f 6c c6 61 3f 28 fe 4d bf
       -0.11191449 1.0416017 0.8819339 -0.80465937
000120 cf 81 2a 3f fb be a0 be 90 8c bc bf cb 61 9b be
       0.6660432 -0.31395707 -1.4730396 -0.30348048
000130 1b 33 82 3f e7 7d fa bd d5 c1 bd 3d 37 97 02 bf
       1.0171846 -0.12231045 0.09265486 -0.51011986
000140 e2 2c 64 3e ce db 32 3f 26 25 f1 3f bc 4a b4 be
       0.22282746 0.69866645 1.8839462 -0.35213268
000150 2c c2 20 be da 2c af 3e fa 4e 29 bf 13 9c a3 3f
       -0.1569907 0.34213907 -0.66136134 1.2782005
000160 02 b5 ac bf 1d 59 03 3d a7 b1 b0 3e 6f 00 36 bf
       -1.3492739 0.032067407 0.34510538 -0.7109441
000170 b9 b8 9d bf b7 43 62 3f 52 af b6 bf 8d c8 82 be
       -1.2321998 0.88384575 -1.4272254 -0.25543633
000180 5f 38 11 3f e9 fd 47 3d 61 f9 12 3f 1f 66 53 3f
       0.5672664 0.048826132 0.5741177 0.825777
000190 38 d4 22 bf 87 b3 33 3e 1d ca 60 bf 45 39 4d 3e
       -0.6360507 0.17548953 -0.878084 0.20041378
0001a0 71 13 c6 be 9e 34 62 3f 06 1f 0a 3f 5f a8 f2 3d
       -0.38686708 0.8836154 0.5395359 0.118485205
0001b0 c6 44 15 bf 95 16 23 bf f2 8e 5b be b0 ee 87 3f
       -0.58308065 -0.6370633 -0.21441248 1.0619717
0001c0 e0 e7 66 be 04 3a 28 bf 27 b5 2a 3f 80 2c d8 bd
       -0.22549391 -0.65713525 0.66682667 -0.10555363
0001d0 81 e3 88 3f 5e b1 21 bf 9a 0a 5c bf d4 8c e5 3d
       1.0694429 -0.63161266 -0.85953677 0.112085015
0001e0 9a d6 c6 3f df 49 56 bf 2f 52 7d 3f 4f b5 84 3e
       1.5534241 -0.8370647 0.9895353 0.25919577
0001f0 55 f3 34 3e 2b 9b e9 3e 32 c9 d6 bf c6 f7 91 be
       0.17670949 0.45626196 -1.678015 -0.2850935
000200 7c 5d f2 be a1 91 31 bf 3b 96 73 3f 9c 57 71 bf
       -0.47336948 -0.6936284 0.9515111 -0.94274306
000210 e3 ad 29 bf b6 a4 ab 3e 21 94 81 3f c8 3f 9e bf
       -0.66280955 0.33524102 1.012333 -1.2363214
000220 33 45 c2 be 45 d8 28 bf 9c 3a 3a 3f 12 0a 84 be
       -0.3794342 -0.65955 0.7274568 -0.25788933
000230 c4 67 b0 3e 44 3a 7f be 68 29 45 3e f3 74 02 3e
       0.34454167 -0.2492457 0.19254076 0.12739925
000240 ae a6 0e bf 6b 42 0e c0 a7 25 7d 3f 8b fc df be
       -0.55723083 -2.2228038 0.9888558 -0.43747362
000250 ef 6a 6d bf 5f 19 13 3b ef 59 81 3f 4d 70 df bf
       -0.9274129 0.0022445542 1.010557 -1.7456146
000260 14 f4 1e 3f 60 e6 6e 3f 7b 37 98 bf c4 d8 1d 3f
       0.62091184 0.93320274 -1.1891931 0.61658883
000270 3b cc ab 3f 49 e8 92 3f c9 fc d7 3f e5 b5 a7 3d
       1.3421701 1.1477138 1.6874019 0.081889905
000280 2b ba cf 3e 0f a5 01 3e 35 29 5d 3f 10 ec 38 bf
       0.40571722 0.12660621 0.86391 -0.722352
000290 b8 04 a5 bf 18 98 ae 3e 7c c4 24 bf 7a 68 c9 be
       -1.2892065 0.34100413 -0.6436231 -0.39337522
0002a0 1d a6 12 bf b5 d9 09 3f 19 dd 4a bf 6e 2e b8 bf
       -0.5728472 0.5384782 -0.7924362 -1.4389169
0002b0 f2 2a b2 3f 89 25 3e be b4 32 32 3f ee 34 b4 be
       1.3919356 -0.18569006 0.69608617 -0.35196632
0002c0 e5 f2 ef bf 84 7c 1f bf 43 38 30 3f fb 14 a9 3f
       -1.8746 -0.6229937 0.6883585 1.3209528
0002d0 da 4e 67 3e 1e c4 de 3e e2 d3 ed bf 4a e3 54 3f
       0.22588673 0.43509 -1.8580287 0.83159316
0002e0 d9 40 71 3f ea 1d 07 3e a8 24 10 bf f5 9f 62 bf
       0.94239575 0.13195005 -0.56305933 -0.88525325
0002f0 e6 18 16 bf 2a f3 ed be fa 42 87 be 6f 97 8d be
       -0.5863174 -0.46474582 -0.26418287 -0.27654597
000300 db 84 04 3f 25 17 9f be d1 61 a0 3d 21 f0 f3 be
       0.5176522 -0.31072345 0.07831157 -0.4764414
000310 5c 31 00 3f 2b e4 89 bf be c8 ae be d8 05 8a 3e
       0.50075316 -1.0772756 -0.3413753 0.26957583
000320 29 9f 16 be 4e 62 42 bf e1 46 95 3f 65 ef 98 3d
       -0.14709152 -0.7593125 1.1662256 0.07467536
000330 f1 5e 6d 3e ea 9a 5f be 09 73 97 bf 70 9e 95 3f
       0.23180749 -0.21836439 -1.1831981 1.1688976
000340 93 d2 2f bf ad 44 04 3f 6a bf 99 bf 28 ba 58 bf
       -0.68680686 0.5166729 -1.201154 -0.8465905
000350 ef 3e 3f 3d 09 65 f2 3e c9 f4 02 bf 2e cc 96 3e
       0.046690878 0.4734271 -0.5115476 0.29452652
000360 3c 2b 1b bf b4 b2 f8 bf 02 21 b6 3f 9d e3 34 3f
       -0.60612845 -1.9429536 1.4228823 0.7065981
000370 b9 38 9f 3f 88 72 6c be fb 17 91 be 91 a4 75 3d
       1.2439185 -0.23090565 -0.28338608 0.059971396
000380 c0 9f c2 bf cd 23 29 3f 93 92 69 bf 4c 2e 1e bf
       -1.5205002 0.6607025 -0.9123928 -0.61789393
000390 f1 b9 98 3f 12 00 56 be e5 36 9e 3f 22 d0 a7 3e
       1.1931745 -0.20898464 1.2360502 0.3277598
0003a0 f7 4a 7c 3f 20 52 9b 3f 35 c8 c9 3e 0c 5c ea be
       0.9855189 1.2134438 0.39410558 -0.4577335
0003b0 ae fc 9e be ae 2d 88 3e eb fe f6 3e 4a d5 93 bf
       -0.31052154 0.2659735 0.48241362 -1.1549466
0003c0 ef d1 7f 3e db 1f 6c 3f 64 6c 0e 3f 9f d9 76 bf
       0.24982427 0.9223611 0.5563414 -0.96425813
0003d0 7e a8 80 bf bc 31 21 bf be 2d 8d be 9e db 90 bf
       -1.005142 -0.62966514 -0.2757396 -1.1317022
0003e0 c6 3a 08 bf 75 c3 35 3e 44 3d c2 3f 3d 50 88 3f
       -0.5321468 0.17750342 1.5174947 1.0649487
0003f0 5e ec c4 bd 81 1c 6a 3e b2 c7 97 be 54 e3 0f 3f
       -0.09615396 0.22862436 -0.29644543 0.5620625

weight f4 [20, 20]
000000 3e 53 43 be ac 83 eb bc 7d d9 2b bf 3b 43 0a bf
       -0.19074723 -0.02874931 -0.67128736 -0.54008836
000010 5a 71 9a be 7d 1e dd 3e 70 09 13 bf 89 5e fc be
       -0.30164605 0.43187323 -0.57436275 -0.49290875
000020 26 00 c6 bd 2b dc da 3e 86 d2 22 bf 51 a4 3c be
       -0.09667997 0.427461 -0.63602483 -0.18422057
000030 0e fe 9e be 0d 0f e1 bd e2 a3 6d bf f0 2e 12 3f
       -0.31053203 -0.10989199 -0.9282819 0.5710287
000040 31 3f 22 be 02 e8 bb ba 9f df 02 bf a3 7c 8e 3c
       -0.15844418 -0.0014336111 -0.5112247 0.017393416
000050 34 20 84 3e 77 9d 1e be fb ba 69 bc 9e b9 d0 3e
       0.2580582 -0.15489756 -0.014265771 0.40766615
000060 5d d0 52 be f9 12 84 3e c6 07 cd 3c 85 3a 3a 3e
       -0.20587297 0.25795725 0.02502812 0.18186386
000070 65 7d 08 be f2 3e b8 3e af e9 dc be 4c 45 20 be
       -0.13329084 0.35985523 -0.43147036 -0.15651435
000080 78 2b 87 3e f3 3f ce be 65 4c 73 3b 60 80 7e 3e
       0.26400352 -0.40283164 0.0037124392 0.24853659
000090 5b 19 3a bf 44 6b 1c 3f 2a ce 20 3e 30 23 b0 3e
       -0.7269494 0.61101174 0.15703645 0.34401846
0000a0 42 19 2a be 2b ad 07 be 5d 2a 7c be d8 91 7e 3e
       -0.16611198 -0.13249652 -0.24625535 0.24860322
0000b0 07 c9 80 3e 12 f0 b9 3d cd 17 50 3e 05 23 9f 3e
       0.25153372 0.09078993 0.2032158 0.31081405
0000c0 ae 69 8c be 6a ec 36 be 0d 9a b3 bd 44 2e f5 3d
       -0.27424377 -0.17863622 -0.08769617 0.11971715
0000d0 5a 3f f0 3d 95 b9 95 be 0a 8a 81 3e 39 ce 91 be
       0.11730833 -0.2924315 0.25300628 -0.28477648
0000e0 fd 3e 48 3f a8 f7 9d be 18 7f 90 be 69 8e 5d be
       0.7822111 -0.3085301 -0.28221965 -0.21636356
0000f0 a2 27 eb 3e 88 62 0b be cf e0 b0 bd a9 72 ee 3c
       0.45928675 -0.13611805 -0.08636629 0.029107409
000100 f4 c1 a6 3e 02 fe f8 be fb d3 65 be 8b 01 0d 3f
       0.3256985 -0.48631293 -0.22444145 0.5508048
000110 73 a4 49 bf 87 d2 f7 bd ef 2a 2c 3f 32 d0 f3 3b
       -0.78766555 -0.12100702 0.6725301 0.0074405903
000120 3e a2 3d 3f ed 2c c3 3d 42 d6 25 3f e9 4f 1e 3e
       0.74075687 0.09530053 0.64780056 0.15460171
000130 29 2d da 3d 6d d9 46 bd 48 b8 16 3d a8 43 eb 3b
       0.10653145 -0.048547197 0.036796838 0.007179696
000140 29 83 09 be fa 36 43 bd b2 b1 b0 3e ca 15 83 bf
       -0.1342894 -0.04765985 0.3451057 -1.0241024
000150 54 b8 84 3e 91 39 53 bf 9e b7 8e bc ea 7a aa 3e
       0.2592188 -0.82509714 -0.01742154 0.332969
000160 e0 22 6e be 49 86 4a 3f 4b fb 74 3e 96 e6 23 be
       -0.23255491 0.7911115 0.23923986 -0.1600593
000170 2a 9b 60 bf 9f 22 6d 3e 1d 52 40 bf 7e 48 8f 3f
       -0.8773676 0.23157738 -0.75125295 1.1193998
000180 16 99 82 3e 94 e4 a1 3e f7 8a 59 bd 07 90 92 bb
       0.2550742 0.31619704 -0.053111043 -0.004472736
000190 0d 63 8f bf 68 33 ab be 19 bc fd 3e 8b 2c be be
       -1.1202103 -0.33437657 0.4955757 -0.3714336
0001a0 ce 5a ca 3d a2 de 09 bf 3e eb cc 3e c3 29 83 be
       0.09880601 -0.53855336 0.40023226 -0.256178
0001b0 d3 00 af 3e 04 5c 13 3f ab 1f 5b bf 45 ff f2 3d
       0.34180316 0.5756228 -0.85595196 0.11865095
0001c0 3f 51 2b be 72 cc b6 3e b8 66 5d be 7f 32 3f 3e
       -0.16730212 0.35702854 -0.21621215 0.18671606
0001d0 3d 83 05 bf 1f ee 04 3f e6 40 1d be 62 5d c0 bd
       -0.5215338 0.51925844 -0.15356788 -0.09392811
0001e0 92 1c 2a bd 97 a5 df bd 01 2e cd 3e a9 7e 02 3e
       -0.041531153 -0.10920256 0.4007416 0.1274363
0001f0 c8 ee 3a bf 06 c1 55 3f 86 36 96 3d 07 10 3d 3e
       -0.730206 0.83497655 0.07334618 0.18463145
000200 b1 58 9b be ec 32 8d be 4c b5 0c 3f 96 72 b7 be
       -0.30341104 -0.27577913 0.5496414 -0.3582961
000210 1c 67 5d 3d 21 70 ce be 58 36 30 be 15 3b f6 3e
       0.05405341 -0.40319923 -0.1720823 0.4809195
000220 cb ee dd be ea 23 96 bc c3 81 ed 3d ac 47 ac be
       -0.43346247 -0.018327672 0.11597016 -0.3364843
000230 bf 2b 82 3e f2 10 f8 be fa 26 24 ba 05 5d 2b be
       0.25424 -0.48450428 -0.00062619115 -0.16734703
000240 69 14 29 bf 59 c9 30 3f 25 fe a9 be 44 2a 4c 3f
       -0.6604677 0.6905723 -0.3320171 0.7975199
000250 bc 12 3d be 38 f3 26 bf 07 23 5d 3f 26 82 23 3e
       -0.18464178 -0.6521487 0.8638157 0.15967616
000260 70 14 22 3e 19 d3 d7 be 7f 2f 75 be 30 4d 92 be
       0.15828109 -0.42153242 -0.239439 -0.28574514
000270 0d 5a 15 3f 37 6b f3 be 06 bf d4 3e f5 a4 1e 3e
       0.5834053 -0.47542736 0.4155199 0.15492614
000280 d1 93 1e 3e fb 59 c8 be d1 9e 30 bc dd ab 84 be
       0.15486075 -0.3913115 -0.010780052 -0.2591237
000290 81 a8 9c be 15 7d 6c 3e 2e cf 9e bd 6f a2 b8 3e
       -0.30597308 0.2309459 -0.0775436 0.36061427
0002a0 90 a1 20 be 6b 26 82 bd 68 4f 0f 3f c2 e0 fa be
       -0.15686631 -0.06354984 0.5598054 -0.48999602
0002b0 8c a6 24 bf 20 9a a4 be 72 2c 64 be 04 ed 37 3e
       -0.6431663 -0.32148838 -0.2228258 0.17961508
0002c0 57 20 6c 3e ed c1 48 be 38 36 ab be 79 f0 2a 3c
       0.23059212 -0.19605227 -0.33439803 0.01043331
0002d0 8b 19 67 3c 1c dc 68 3e 14 68 8e bd e3 64 2c be
       0.014105211 0.22740215 -0.06953445 -0.1683536
0002e0 b2 40 8d 3d 94 b0 5d be 19 c2 da 3c 05 74 1b 3e
       0.06897105 -0.2164939 0.026703881 0.15180977
0002f0 17 f0 ee bd b2 59 91 3d 67 d6 75 3e 21 d1 6d be
       -0.11666887 0.07097186 0.24007569 -0.23224308
000300 31 27 07 3e 4c 6b 24 bf d6 15 0e be 99 89 1c 3c
       0.13198544 -0.6422622 -0.13875517 0.00955429
000310 5c 1d 0d be 31 f6 93 3d 67 47 b3 3e fb 52 85 3e
       -0.13780731 0.07224692 0.35015413 0.26039872
000320 11 fd 16 3e 44 f0 13 bd 30 72 80 be cd 25 ab 3d
       0.14744975 -0.036117807 -0.25087118 0.08356819
000330 1f b3 47 be 55 0e dd be 49 9c dd 3e ec de b8 be
       -0.19501923 -0.43174997 0.432833 -0.36107576
000340 95 9e 4e be fb da d7 be 9b 1e 64 3e 68 05 cf be
       -0.20177682 -0.42159256 0.222773 -0.40433812
000350 cd 7c 97 3e 02 80 ba be 3b d0 0b 3f d8 50 4c be
       0.29587403 -0.36425787 0.5461461 -0.19952714
000360 17 4d 84 be 89 24 8c be b8 ad 14 be e3 67 82 bc
       -0.25840065 -0.27371624 -0.14519393 -0.015918678
000370 94 31 c7 3d a0 3d 10 3d 3e df db bd 3b 3a 15 be
       0.09726253 0.03521502 -0.107359394 -0.14572994
000380 25 3b 0c 3f 8a 8b cd 3d 09 3f bc 3e a0 b8 c2 be
       0.5477775 0.100363806 0.36766842 -0.38031483
000390 3d d9 6c bd aa 4d 3c 3d 45 b4 50 be 85 bb 0b 3e
       -0.057824362 0.045972504 -0.20381267 0.13645752
0003a0 b6 37 28 bf 3b fc 01 bf 5b 12 32 bf 53 ef 07 bc
       -0.6571001 -0.507755 -0.6955926 -0.008296805
0003b0 5c b8 33 3d 93 c7 99 3d 92 a9 47 3e 6a e8 29 bf
       0.04387699 0.07508769 0.1949828 -0.6637026
0003c0 31 70 ae 3e 88 ac 38 3f fe 91 21 bf 1a 82 9d 3f
       0.3406997 0.7213826 -0.6311339 1.2305329
0003d0 f8 c4 25 3f 07 1f a4 be b3 9e 85 3e ea 64 be 3e
       0.64753675 -0.32054922 0.2609764 0.37186366
0003e0 6c 51 ed be 4b fa af 3d 78 c1 4c be b6 7b e6 3e
       -0.46351182 0.085926615 -0.19995677 0.4501626
0003f0 d5 9a cb bd 04 b1 86 be 2c 66 26 3f ac 19 ea be
       -0.09941641 -0.26306927 0.6499965 -0.4572271

bias f4 [20]
000000 31 08 24 bf 50 7b 2a bf 18 b7 a0 3e 90 c6 06 3f
       -0.64075 -0.6659441 0.3138969 0.5264673
000010 c8 6e c4 be d8 a5 cb be 51 75 62 3f 38 f5 62 3f
       -0.3836577 -0.39774966 0.8846026 0.88655424
000020 55 8f 02 3d bd 98 1d 3f 03 61 10 3f 81 a3 49 3e
       0.031874973 0.61561185 0.5639803 0.19691278
000030 03 df 2f 3f 85 7d 68 bf 7c f7 ee bd 38 56 8c bd
       0.68699664 -0.9081653 -0.11668298 -0.068523824
000040 07 e4 0c bf 42 bf 7d 3f 81 af 07 bf f0 54 f1 bd
       -0.5503544 0.9911996 -0.5300217 -0.11783779

weight f4 [20, 20]
000000 26 d9 0b bf 72 86 48 3d e0 a0 6d 3e d2 4e 8f be
       -0.5462822 0.048956342 0.232059 -0.27989823
000010 bf c8 64 be 51 6e 84 be c9 d9 07 3e ca a2 dc 3e
       -0.22342204 -0.25865415 0.13266672 0.43092948
000020 8f 5c da be f9 05 00 be c2 b2 d9 be f1 b5 91 be
       -0.42648742 -0.12502278 -0.42519194 -0.28459123
000030 93 89 09 bf cf b1 9b be cc 2c 89 3e 92 20 06 3f
       -0.53725547 -0.30409095 0.2679199 0.5239345
000040 cc 35 a8 3c 9f 2a 18 3d 2a 28 b7 3e 05 aa 2e be
       0.020533465 0.03715002 0.3577283 -0.17057045
000050 cc 99 ee 3d 1d 17 2e bb cb c4 1e 3f 04 93 d1 3c
       0.11650428 -0.002656407 0.6201903 0.025582798
000060 d8 ba 0e bf 14 4f 25 bd 60 33 f1 3e 11 9c 96 3d
       -0.5575385 -0.040358618 0.4710951 0.07353986
000070 d6 9f 0e 3e 0c 8b 67 be 51 0a 18 bf fa 7a 41 bd
       0.1392816 -0.22611636 -0.5939074 -0.04723642
000080 79 0c c3 be 15 9a 55 be de d7 fa 3d 22 e6 b3 3e
       -0.38095453 -0.20859559 0.12248205 0.35136515
000090 c6 e4 09 3e e1 94 59 3f 5f 68 f8 3e 06 f3 ac 3e
       0.13466176 0.84992796 0.4851713 0.33779162
0000a0 56 79 f1 3c 51 35 d7 bd 3b 93 c5 3c 7f e6 23 3e
       0.029476803 -0.10508216 0.024118057 0.16005896
0000b0 32 e6 0a bf 1d 89 d5 3e 35 46 d6 bc 90 00 07 3f
       -0.542575 0.41706172 -0.026156524 0.52735233
0000c0 79 50 0b 3e 30 4e b4 be 2b d1 11 3f 20 41 2f be
       0.13604917 -0.35215902 0.5695979 -0.17114687
0000d0 4f e6 e5 3e 64 bf fb be 84 71 81 be a5 62 1f be
       0.44902274 -0.49169457 -0.25281918 -0.15564974
0000e0 50 31 d3 3e 37 85 8b be 25 7a 67 3f 91 c7 1e 3f
       0.4124856 -0.27250072 0.9042075 0.62023264
0000f0 ba 02 c2 bc 5b 33 d1 3e 23 f4 2f 3e 0d c3 82 3e
       -0.02368294 0.40859494 0.17182975 0.25539437
000100 f4 78 7b bd d2 95 40 3e 68 44 1c 3d 80 47 4f 3e
       -0.061394647 0.18807152 0.038151175 0.20242119
000110 23 0a a8 be bc cc 80 be b8 77 86 3d 1e 25 0c 3e
       -0.32820234 -0.251562 0.06565803 0.13686034
000120 3d f0 c6 3d ad 1e d8 be 56 1b 35 3e 3c 02 10 be
       0.097137906 -0.42210904 0.17686209 -0.14063352
000130 39 e4 0d 3f 9a f4 ac bd d8 02 2a 3e 8e c2 0b 3f
       0.55426365 -0.084450915 0.16602647 0.5459374
000140 2f 79 04 bf 2e 33 c4 3d dc 14 36 be d2 59 a0 be
       -0.5174741 0.09580074 -0.17781395 -0.31318527
000150 5b c5 09 3d 22 40 9f be 24 b2 e9 3c 99 8c 68 be
       0.03363548 -0.31103617 0.028527327 -0.22709884
000160 df e1 cb 3e 59 e0 96 be 9f 88 87 3e 32 9f ae 3d
       0.39820763 -0.2946804 0.2647142 0.08526458
000170 7a 7c fc be ed 37 56 3e bc 5a 9a 3d b2 39 25 be
       -0.49313718 0.20919771 0.075368375 -0.1613529
000180 f1 53 00 3e 12 e9 e1 3d 72 80 f5 3d 12 79 0d be
       0.12532021 0.11030783 0.119873896 -0.13815716
000190 8c 6e 74 3e 66 7d ba be 7b d0 8c bd 05 6f 03 be
       0.23870295 -0.36423796 -0.06875702 -0.1283532
0001a0 8b 8b 17 3e e7 62 76 3e d2 70 9c be bc 3c e1 3c
       0.14799325 0.24061166 -0.30554825 0.02749478
0001b0 04 9c d9 3d 0e 42 3c 3b 6a fa a2 be 95 a9 a4 3e
       0.10625461 0.0028725895 -0.31831676 0.3216063
0001c0 12 ec 63 3e 75 2d cf bd ab c0 45 3e d6 00 45 be
       0.22258022 -0.10116092 0.19311778 -0.192386
0001d0 6d 58 6e be e2 e0 ad bd 54 31 25 be d3 9f 9f 3d
       -0.2327592 -0.084901586 -0.16132098 0.07794156
0001e0 0a 46 e9 be ab 10 0b bf 29 83 ae 3d 6e 1c c5 be
       -0.45561248 -0.5432231 0.085211106 -0.38498253
0001f0 62 68 22 3e 95 bc 59 be a7 53 25 3e 65 cb 58 be
       0.15860131 -0.21263345 0.16145192 -0.21171339
000200 c4 79 df bc 81 8d 1b 3e 97 bd 1b be 72 d6 a2 3d
       -0.027279742 0.15190698 -0.15209042 0.079510584
000210 2f 75 7d 3e 88 8d 8d bd 91 44 80 bd 15 cb cf 3d
       0.24751733 -0.069117606 -0.06263078 0.10146157
000220 c8 29 ed be 48 97 3e 3e 7b ae 24 3e 39 44 fb bd
       -0.4632094 0.18612397 0.16082184 -0.12268872
000230 34 09 00 bd 76 5a 89 be c3 d0 34 3e 25 bf 2a be
       -0.031258777 -0.2682683 0.17657761 -0.16674478
000240 88 8d a2 bd 56 17 14 3d 51 bf e7 bd ca 93 a3 be
       -0.07937151 0.036155067 -0.113157876 -0.31948692
000250 c0 43 9c bd 69 77 be bd d3 da 6c be 30 99 fd bd
       -0.0763011 -0.093001194 -0.2313035 -0.12382734
000260 b9 37 96 be f1 46 a6 bd b9 9d 91 be bf 12 f1 3e
       -0.29339388 -0.08119 -0.28440645 0.47084615
000270 f3 2b c3 be 96 f3 a1 3c 38 93 08 3e b5 0b a0 be
       -0.38119468 0.019769471 0.1333741 -0.31258932
000280 95 65 53 3e 08 b2 5c 3d 15 6e 83 be e3 74 73 bd
       0.20644219 0.05388072 -0.25669923 -0.059437644
000290 bf 57 cf bd 00 76 c6 bd 42 c8 4e bc 1e b8 b8 be
       -0.10124158 -0.096904755 -0.012620987 -0.3607797
0002a0 a7 62 b1 3e f3 33 b2 3d c0 a0 eb 3e 47 42 a2 3c
       0.34645578 0.08701315 0.4602108 0.019806994
0002b0 ad 7c 9d 3d e0 ce 39 be ae 0d d6 be 1f eb 7d 3e
       0.07689796 -0.18145323 -0.41807312 0.24796723
0002c0 8a ac 01 be 31 29 ec 3d b4 90 2b 3f 38 0f 48 3e
       -0.12663475 0.11531294 0.67017674 0.19537055
0002d0 0a a1 d0 3b 3f 31 03 be 59 1d a6 bd f0 fe 08 3c
       0.0063668536 -0.12811755 -0.08111066 0.008361563
0002e0 fa aa dc 3d ce b2 49 bd 65 d9 89 3e 2c 9e d7 3d
       0.10774799 -0.049242787 0.2692367 0.10528216
0002f0 36 3d 3e bd 36 4f 71 3e fa 08 a6 bd 2b 6f 3a be
       -0.046445094 0.23565373 -0.08107181 -0.1820647
000300 3d be 92 3d bd 94 21 bc 2e 05 c5 3e 96 b5 8b 3d
       0.07165191 -0.009862122 0.38480514 0.06821744
000310 84 ef 91 3d 32 52 e6 bd d9 a3 d3 bd 17 f9 49 3e
       0.07125762 -0.11246146 -0.10333986 0.19723926
000320 d0 0b 8b bd f5 66 cf be f3 c7 1b bc 83 6e 8b be
       -0.067893624 -0.40508237 -0.009508121 -0.2723275
000330 7b bd 9a bd 32 3f 51 bc 52 5c b5 3e 02 db fa bd
       -0.07555672 -0.012771415 0.35421997 -0.12248804
000340 bc 3f 0e bf 7f c6 b1 be 97 41 96 bc 1f 93 5d be
       -0.55566 -0.34721753 -0.018341823 -0.21638153
000350 8e 7a b5 be 75 8d 85 be 07 3c 53 be 27 10 7a 3e
       -0.35445064 -0.26084486 -0.20628367 0.24420224
000360 1c 3a 54 bd 8b 27 37 be 97 70 46 bb 13 37 29 bf
       -0.05181323 -0.17886178 -0.003027951 -0.6609966
000370 b8 c5 87 3e 26 40 f7 bd 44 df 14 bc c0 07 c5 be
       0.26518035 -0.12072782 -0.009086434 -0.38482475
000380 82 d8 7b 3e 96 7a 3c 3e 95 e6 bb bd 40 10 15 bf
       0.2459431 0.18406138 -0.091748394 -0.5822792
000390 94 36 57 3c cd 09 8c 3e 71 25 04 bf f0 2f 8d 3d
       0.013135571 0.27351227 -0.5161963 0.06893909
0003a0 ac 6c 6d 3e 2f ab 3d 3d e9 b1 b0 be 17 8f e1 bd
       0.23185986 0.04630583 -0.34510735 -0.1101362
0003b0 a8 06 ff be 8b fc 30 3f 1f 06 85 be ba 5c a6 bd
       -0.49809766 0.6913535 -0.25981233 -0.08123155
0003c0 c2 b5 97 bc f6 fd bd be c9 e1 8a 3d 76 da 37 bd
       -0.018519286 -0.3710782 0.06781346 -0.044886075
0003d0 c3 72 b7 be 85 e6 b6 3d d7 8e 0a be 32 4e 1c 3e
       -0.35829744 0.08930687 -0.13531052 0.15264204
0003e0 98 eb 4b 3e 3a 0e 49 be c4 b4 a6 3e 2e aa 36 be
       0.1991409 -0.19634333 0.32559788 -0.17838356
0003f0 b9 9d 31 be 85 cb c6 bd b6 74 0e bf 8d 33 8d bd
       -0.17345323 -0.09706787 -0.55646837 -0.06894598

bias f4 [20]
000000 22 10 cf be 23 1c dc be 19 2e 6e 3f bc 9c fb 3e
       -0.40441996 -0.42990217 0.9303909 0.49143016
000010 49 df cf be bd 17 34 bf fb ea 49 bf a7 61 01 bf
       -0.4060004 -0.7034872 -0.78874177 -0.5053963
000020 56 9e 13 be 46 bb 4e bf c8 c2 47 3e 5c cb 01 bf
       -0.14415869 -0.80754507 0.19507897 -0.50700927
000030 19 e2 16 3e b9 b4 a8 be 68 cd 32 bf 5b 19 ad be
       0.14734687 -0.3295038 -0.69844675 -0.33808407
000040 06 ee 67 bf 1a d7 d3 3e 78 6f 10 bf b4 6b 7a bd
       -0.9059757 0.41375047 -0.5642009 -0.06113787

weight f4 [20, 20]
000000 50 fe 9a 3d 1a 1e fc be 6c e6 a9 3e 94 09 09 3f
       0.075680375 -0.49241716 0.3318361 0.5353024
000010 3b 3d 9d 3e cc 35 d6 3b bd ab be 3c 0e 64 01 3f
       0.30710778 0.006537175 0.02327525 0.50543296
000020 47 3f 3c bd 96 ed b5 3c fc 7c eb 3e 86 41 e9 3e
       -0.045958783 0.022208016 0.45993793 0.45557803
000030 87 9f 36 3f c0 9c 8d 3e d8 b4 89 3e d7 9b 7f be
       0.7133717 0.27658653 0.26895785 -0.24961792
000040 32 25 b4 3d 8b 7c f8 3e c9 02 95 3e 9e 83 ae be
       0.08796157 0.4853252 0.29103687 -0.3408479
000050 6f 94 5f be 72 6c 8b 3e 75 3d ac 3e 22 d5 00 3c
       -0.21833967 0.27231175 0.33640638 0.007863315
000060 a8 3a 03 bf 1e f4 7d 3e 30 8d 1a 3f 38 7f 09 3f
       -0.5126138 0.24800155 0.60371685 0.53709745
000070 f8 13 2d 3f 4e b6 32 be ba 38 84 be 07 8d 01 3e
       0.67608595 -0.17452356 -0.2582453 0.12651454
000080 f8 bd d0 bd 90 a6 46 3d 26 25 14 3f e1 ab b4 3e
       -0.10192484 0.04849869 0.57869184 0.35287383
000090 7f 95 7d 3c 8e e5 a8 be 7d 74 83 3d ca 50 b4 3e
       0.015477537 -0.32987636 0.06418703 0.35217887
0000a0 16 ec b3 be 15 f5 b0 bd ff d7 a0 3e a6 85 52 be
       -0.35141057 -0.08640496 0.31414792 -0.20558795
0000b0 2d 7b 5f 3e 2c 38 c8 be 0c d5 c1 3d f7 0d b9 3d
       0.21824332 -0.39105356 0.094644636 0.09035867
0000c0 89 c2 92 3c 04 68 e5 3e 49 47 69 be 72 1a 25 be
       0.017915027 0.4480592 -0.227811 -0.1612337
0000d0 ca 8a 80 be 8e fc 20 3f 42 82 9a bd 11 92 53 be
       -0.25105888 0.6288537 -0.07544376 -0.20661189
0000e0 09 bb ac be b8 12 b1 3e c3 c5 a0 be 9f ee 7c 3e
       -0.33736446 0.34584594 -0.3140088 0.24700402
0000f0 ba 43 b9 3b 3f a2 ec be bd 53 44 3e 1e c2 88 be
       0.0056538256 -0.46217534 0.19172569 -0.267106
000100 10 cf c9 be 3f 43 d6 bd 6b 5b 45 be 87 89 e2 3d
       -0.3941579 -0.10462045 -0.19273154 0.110613875
000110 d0 48 28 be a2 7d 87 be 24 19 26 3e 00 4a 89 bd
       -0.16434026 -0.26463038 0.16220528 -0.067035675
000120 88 78 9b 3e 13 c0 3b be 8c 01 6b be 18 09 5f 3d
       0.30365396 -0.18334989 -0.22949809 0.05445203
000130 6a 64 a2 3e dc 5e ca be b2 e2 2f 3f 21 ac 3a 3d
       0.31717235 -0.39525497 0.68705285 0.04557431
000140 c6 12 41 be 84 72 ca 3e 53 b5 ff be 5e d2 bb 3d
       -0.18854818 0.39540493 -0.49943027 0.09170984
000150 e8 fe 05 3c 6c 8e 36 be 42 28 79 bd 0c 95 5b 3f
       0.00817845 -0.17827767 -0.06082941 0.857743
000160 3a cc 52 3e 2b 6c 2c 3f d5 c3 39 3f 74 ff 23 3e
       0.20585719 0.6735255 0.7256444 0.16015416
000170 ca 21 1a bf 31 e2 be be 37 88 0e bf 28 65 c0 bd
       -0.6020781 -0.37281945 -0.556766 -0.09394294
000180 af d8 a4 3e b4 76 08 3f 4d c8 9b bd cb b2 c0 3d
       0.32196566 0.53306127 -0.07606564 0.09409102
000190 9e 89 00 3f e0 9b 26 3c 43 6e 13 3e c1 84 04 3e
       0.5020999 0.010168999 0.1439753 0.12941267
0001a0 af 5e 56 bf ca 12 40 3e 9c 6d b1 3d aa 42 ac be
       -0.83738226 0.18757167 0.086634845 -0.3364461
0001b0 bf 02 3e 3a 4d 9b d3 3e 7b 0e 0b be 5e 66 0d bf
       0.0007248334 0.41329423 -0.13579743 -0.55234325
0001c0 79 5e 90 bc 67 82 dd 3e cc 9f 95 be d7 e4 53 3f
       -0.017623173 0.43263552 -0.29223478 0.82771057
0001d0 ef 3e 15 be 33 80 57 be c2 49 3a 3e ab e2 1f 3e
       -0.14574789 -0.21044998 0.18192199 0.1561381
0001e0 13 38 33 3e 99 90 22 bd 85 a9 88 3d f9 4d cd 3d
       0.1750186 -0.03968868 0.06672958 0.10024638
0001f0 96 8c 8e be 93 98 58 3e 42 09 98 3e 32 bc 0a be
       -0.27841634 0.21151952 0.29694563 -0.13548353
000200 f8 a7 1d be fb a8 05 bf 53 a7 8a 3e a4 7c aa be
       -0.15396106 -0.5221097 0.27080783 -0.33298218
000210 3e 95 b4 3e d1 8b e5 be a4 9c 0b bf 74 fe dc 3c
       0.35270113 -0.44833234 -0.5453589 0.026976801
000220 5d c3 02 3e f6 27 85 3d da 7d 4e 3d 86 a3 b8 bc
       0.12769838 0.065017626 0.05041299 -0.022538912
000230 40 cd cc bd a4 af 7a be b7 b7 05 3f 18 e4 56 bf
       -0.10000086 -0.24481064 0.5223345 -0.83941793
000240 eb dd f1 3b 22 c4 cc be 76 7d 8c be f9 d1 9a 3e
       0.007381191 -0.39993387 -0.2743947 0.3023832
000250 c9 91 05 3f ce 0d 80 3e 38 95 10 3e 4a 16 56 be
       0.52175575 0.25010532 0.14119422 -0.2090694
000260 0b 0a 02 3e a0 fd 4c 3e 3d d4 6d 3c c2 50 8b be
       0.12699144 0.20018625 0.014515934 -0.2721005
000270 b1 95 3f 3d f3 42 1b 3c 70 0c 0b 3f 3c 35 06 3e
       0.046773616 0.009476411 0.54315853 0.13106245
000280 aa 8b 41 3d 11 4f 07 bd 95 6f e1 bc 33 eb b6 be
       0.047252335 -0.033034388 -0.027519027 -0.35726318
000290 1c 2a 5f bc 40 58 15 bf ec 11 bb bd 66 45 06 3e
       -0.0136208795 -0.58337784 -0.09134278 0.13112411
0002a0 c0 a0 dd 3c 18 f8 c9 bc f2 9e 7d be f3 ed 4c bd
       0.02705419 -0.024654433 -0.24767664 -0.050031614
0002b0 69 c5 93 3e b7 dc f6 3e 28 84 10 be ce c0 e6 be
       0.2886155 0.48215267 -0.14112914 -0.45068973
0002c0 91 33 a2 be 99 ae 14 3f 20 8d 73 bd fe f5 98 3e
       -0.31679967 0.58078915 -0.05946076 0.29875177
0002d0 7c 3c 4c bd ff 48 c2 bc 83 77 e6 bd d8 5b 27 be
       -0.04986237 -0.023716448 -0.11253264 -0.1634363
0002e0 b4 9b 96 bd 5a 0b b1 3d 99 06 50 be 58 51 62 be
       -0.07353917 0.08644743 -0.20315017 -0.22101343
0002f0 98 10 ef 3b b5 f8 b8 3b 8f 25 17 be a2 36 8d bc
       0.0072956793 0.0056448826 -0.14760421 -0.017237965
000300 4c fd 27 be 19 5f 44 3e 39 d6 19 be e9 70 85 3d
       -0.16405219 0.19176902 -0.15023126 0.065156765
000310 2f dc d6 bd 00 59 33 bd 52 04 d1 3d 38 65 a4 3c
       -0.104912154 -0.04378605 0.10205902 0.020067796
000320 3e 55 b9 bd a1 0c 57 3e ab 05 dc bc 92 73 a4 3e
       -0.09049462 0.21000911 -0.026858171 0.32119423
000330 c8 de 91 3e 8e f4 c6 be fc fe ab bd 45 aa a2 3e
       0.2849028 -0.38858455 -0.08398244 0.3177053
000340 ae 33 be bd d5 c6 54 3e 9e 4f 06 bf 0f 8c f2 bd
       -0.09287201 0.20778973 -0.52465236 -0.1184312
000350 46 c0 78 bd 8f c5 3d 3e fc 36 16 3f 23 a8 8c bd
       -0.06073024 0.18532394 0.5867765 -0.06868007
000360 56 65 36 3e 60 7e 95 3d 27 f3 78 3e 20 d6 ba 3e
       0.17812094 0.07299495 0.24311505 0.3649149
000370 47 3e 28 bf f7 30 04 3e a3 24 af 3d 26 d3 ea bd
       -0.6572003 0.12909304 0.0855191 -0.114660546
000380 5f d2 06 bd 74 6f 3e 3d 3b 8b ad be 4e fc 63 ba
       -0.03291547 0.04649301 -0.33895287 -0.0008696959
000390 5e d8 35 be 34 14 04 3f 30 dc 8e bd a9 fe 27 3f
       -0.17758319 0.5159333 -0.06975591 0.65622956
0003a0 62 b1 6b be d9 fd 94 3e 13 30 4b 3c 93 c0 b2 be
       -0.23016885 0.2909992 0.0124015985 -0.34912547
0003b0 dc 64 58 3e 5a 46 11 3d a0 36 26 3e 60 dc ad 3e
       0.21132225 0.035467483 0.16231775 0.33957195
0003c0 08 3b 63 bd d2 a7 ea be 79 e2 c8 3e f2 31 e6 be
       -0.05547622 -0.45831162 0.39235285 -0.4495998
0003d0 f3 41 b1 be e2 f3 69 3e 0b 6a c8 bd 5d ed e7 3d
       -0.34620628 0.2284694 -0.09785851 0.1132457
0003e0 07 a0 22 bc c5 a7 ff 3c ca 43 d3 3e 45 a6 52 be
       -0.009925849 0.031207928 0.41262656 -0.2057124
0003f0 d0 7f 47 3e 11 88 3e bb 68 f6 9b be 5d d1 d5 bd
       0.1948235 -0.00290728 -0.3046143 -0.104403235

bias f4 [20]
000000 74 ec e3 3c 30 a4 ab bd c8 96 1f bd 37 e7 a5 3e
       0.02782271 -0.08380926 -0.038962156 0.32402965
000010 74 ec e0 bd ab f2 9a 3d 99 7e e9 be 99 33 11 3e
       -0.109826 0.075658165 -0.456044 0.14179839
000020 f0 d8 a3 3e 34 04 ff bd 55 64 3b bd 99 98 ae 3e
       0.32001448 -0.124519736 -0.04574998 0.34100798
000030 a3 da 54 bd 3d 41 69 3c 3e 1c 89 3e 18 f7 ee 3e
       -0.05196632 0.014236745 0.2677936 0.46672893
000040 29 f1 b7 be 4c 67 41 be 47 9f 03 be 96 d1 f6 3d
       -0.35926178 -0.18887061 -0.12853728 0.12051694

weight f4 [20, 20]
000000 d9 28 1a be 29 49 5b 3e d3 c3 a4 3e 41 b3 8d bf
       -0.15054645 0.21414627 0.32180652 -1.1070329
000010 f4 6b 34 be 14 d0 03 bf c3 3e 62 be 6f 43 b4 3f
       -0.17619306 -0.5148938 -0.22094254 1.4083079
000020 21 ac 12 3e da c1 39 be 5e 48 4f be 87 cb a8 be
       0.14323474 -0.18140355 -0.2024245 -0.3296778
000030 48 43 61 be 84 64 95 be e5 fd b6 3c 26 b0 13 bf
       -0.21998322 -0.2917825 0.022337863 -0.57690656
000040 5e 81 1d 3e de dc e5 be fc c7 21 be ef ed e1 bd
       0.15381381 -0.4489507 -0.15798944 -0.1103171
000050 85 4d f7 be 97 04 00 3e 9c 94 63 bb 93 13 9e be
       -0.4830133 0.12501751 -0.003472603 -0.3087431
000060 9d e0 23 be 57 ad 0e bf 6f 2f 80 bd d5 d5 81 3f
       -0.16003652 -0.55733246 -0.06259047 1.0143381
000070 27 13 d4 be 52 58 2a 3e c8 32 ba 3c aa 4d 76 3e
       -0.41420862 0.16635254 0.022729293 0.24053064
000080 4e e8 29 be f5 36 1f be 9c 90 df bd 5e 5c 6f 3e
       -0.16592523 -0.15548308 -0.10916254 0.23375079
000090 a1 01 e6 be 6a 92 29 3e c6 b2 e2 3e 7d 22 15 3e
       -0.44923118 0.16559759 0.44277018 0.14563937
0000a0 53 3d 59 3d 5e 8e 09 be e8 86 19 bf 27 25 f1 be
       0.053037 -0.13433215 -0.59971476 -0.47098657
0000b0 e7 86 27 be 23 74 b1 3d c0 27 3e bd 4e da e6 bd
       -0.16360055 0.086647294 -0.046424627 -0.11272107
0000c0 64 be 81 3e 14 87 7a bd 04 0a 0f bf dd dd 34 3e
       0.2534057 -0.061163977 -0.5587466 0.17662759
0000d0 a0 01 99 be 22 e5 8e 3e 1a 0b 77 3e 13 0c 48 bc
       -0.29884052 0.2790919 0.24125329 -0.01220991
0000e0 0a 52 76 bd cb 3e 8f be 46 19 f6 bd e6 69 11 3d
       -0.060136832 -0.27977595 -0.12016539 0.035501383
0000f0 14 3a 10 3e 75 4b 55 3e 85 af 11 be 66 f1 9a 3e
       0.14084655 0.20829566 -0.14227112 0.30262297
000100 ce b2 05 3e 64 9a c7 3d 9e a3 1f bd e7 f6 2a be
       0.1305649 0.097462445 -0.038974397 -0.16695748
000110 07 8c ce bd 2b 3a d2 bd df 73 18 bf 4b e5 fb 3e
       -0.10085302 -0.10265001 -0.59551805 0.49198374
000120 f1 1a 92 be eb d9 b3 3d 6d bf bf 3e 69 91 cb bd
       -0.2853618 0.08781799 0.37450734 -0.09939844
000130 2a 8e 60 be 79 da 8a be 39 67 7c be e1 3a f4 bd
       -0.21929231 -0.27119806 -0.24648751 -0.11925293
000140 52 26 b4 bd 01 72 b0 bd f6 8d d2 3e 04 51 14 3e
       -0.087963715 -0.086154945 0.41123933 0.1448403
000150 ce 0b 6f 3e bf 4f 17 be 0d ed 41 be 75 db 10 3e
       0.23344347 -0.14776514 -0.18938084 0.14146216
000160 34 e6 80 be c5 bf 86 3e 5b f0 dd 3e 84 fe 0e be
       -0.2517563 0.26318184 0.4334744 -0.13964278
000170 d7 47 a3 3b c9 04 84 be 05 16 e8 be 0e 84 61 3e
       0.004982929 -0.257849 -0.453293 0.22023031
000180 76 a1 4c bd f4 b0 94 be 57 e5 4d 3b 52 45 28 be
       -0.04995867 -0.29041255 0.0031417215 -0.16432694
000190 09 33 a6 3e f5 4e 92 3e f2 10 75 3e 5f f4 31 3e
       0.32460812 0.28575864 0.23932245 0.17378376
0001a0 b1 55 b4 3d d1 40 2c be 50 3b 30 be bd 52 46 3f
       0.08805407 -0.168216 -0.17210126 0.7747
0001b0 67 a9 3c 3e 84 22 3a 3b c3 86 ac 3e 79 58 02 3d
       0.18423997 0.002840192 0.33696565 0.031822655
0001c0 e5 3b 83 bd e9 15 99 3e 63 be 71 3e 20 95 63 3d
       -0.06407908 0.2989953 0.23607783 0.05556214
0001d0 0a 0e 05 3f 2c 3f aa be 20 1d 95 3d 3b e3 bc be
       0.51974547 -0.3325132 0.07280946 -0.36892113
0001e0 32 23 96 be 38 61 15 3e 87 ed 20 3e f9 3b 94 bf
       -0.29323727 0.14587867 0.1571561 -1.1580802
0001f0 5c e4 ac bd d0 26 d0 bc c1 5b 57 bf 91 ae 96 3f
       -0.084419936 -0.025409132 -0.8412438 1.1772023
000200 ee 4b 7e 3f 29 ed 2e bf 42 13 3f be 1b 21 a7 3d
       0.9933461 -0.6833063 -0.1865969 0.08160611
000210 f9 33 76 be d8 ba eb bc b0 cc e6 3f 32 b5 13 bf
       -0.24043263 -0.028775617 1.8031216 -0.5769836
000220 f4 23 fa be 2c 32 1b bd 8a f9 f9 be 5c 6d 28 bf
       -0.48855555 -0.037889645 -0.48823196 -0.6579187
000230 e3 5f ab 3d 22 71 37 37 f3 88 da be 32 b3 51 3f
       0.08367898 1.0933991e-05 -0.4268261 0.81914055
000240 47 2d 13 3e bb 80 4b 3e 7c 94 11 3e a9 4d 93 bf
       0.1437274 0.19873326 0.14216799 -1.1508075
000250 4e c1 02 3e 3a 52 9b 3e f6 a1 e5 be f0 86 56 bd
       0.12769052 0.3033617 -0.4485013 -0.05237478
000260 92 0e 76 3e 9b 81 92 3d b3 f1 83 be 5a ce 83 3d
       0.24028996 0.071536265 -0.2577034 0.06435843
000270 b1 d3 49 3e e8 78 5b 3f 2f c1 5d 3e d2 ea df 3f
       0.1970966 0.85731363 0.21655725 1.7493536
000280 c6 3c a4 be 2b 8e c4 3e c7 0c 1a bc 08 a2 70 be
       -0.32077616 0.38389716 -0.00940246 -0.2349931
000290 29 3c 35 be 34 e2 26 bf 64 e8 a8 3e a4 49 57 3f
       -0.1769873 -0.6518891 0.329898 0.8409674
0002a0 58 5d 19 3e 25 3f 6d bc ff f6 98 3a f7 a9 09 be
       0.14977014 -0.014480387 0.001167029 -0.13443743
0002b0 b8 2f 9e 3e 05 74 5d 3d 89 8f 83 3e 1e 20 f7 bd
       0.30895782 0.054065723 0.25695446 -0.12066673
0002c0 c7 f4 71 3e 12 df cf 3e bd f8 48 3e 05 b5 09 bf
       0.23628531 0.40599877 0.19626136 -0.5379184
0002d0 0e 13 0e 3d 1e db 99 3e 4a 17 6a bd ed 06 ac bd
       0.03468614 0.30049986 -0.057151116 -0.083997585
0002e0 74 b1 f6 be d7 9b 89 3e 05 87 85 3f fb a0 97 be
       -0.4818226 0.2687671 1.043183 -0.29615006
0002f0 55 fc e9 be 1a a1 e1 39 d7 62 05 be 29 fb 64 be
       -0.45700327 0.00043035374 -0.13025986 -0.22361435
000300 8b 51 44 be e7 3d d3 3e 1d 1d 21 3e 91 f0 1f bf
       -0.19171731 0.41258165 0.15733762 -0.6247645
000310 44 e8 5b 3e 6f 3a a6 bd de 40 69 be c8 56 c7 be
       0.21475321 -0.08116614 -0.22778651 -0.38933396
000320 38 dd 84 3e d5 e5 07 3e ef ff 4e bf e6 31 65 3d
       0.25950027 0.13271268 -0.80859274 0.05595579
000330 2f 2a c0 be 0d c7 af be 98 a3 1f be 5a b3 3c 3f
       -0.37532184 -0.3433155 -0.1558975 0.7371117
000340 a3 a3 c3 3e 20 06 2c 3f 47 d1 4d be b3 40 0a 3e
       0.38210782 0.67196846 -0.20099364 0.13501243
000350 9a be c5 3e 52 ab 28 bc 51 4a 46 3f 13 cd b2 bd
       0.3862198 -0.010294752 0.7745715 -0.08730521
000360 dd 29 7c bd 37 2e 9d 3d f9 ed 95 3e 9e ee 43 bf
       -0.06156336 0.076748304 0.2928312 -0.76535976
000370 e8 87 28 3e c8 20 42 3f a3 25 eb be a0 00 89 3d
       0.16458094 0.7583127 -0.45927152 0.06689572
000380 8d fb c7 3c 3d 8e 2c 3f 05 9b ce 3e ec e7 20 3f
       0.024411941 0.6740454 0.40352646 0.62853885
000390 8a 16 1f bf 95 38 93 be 0f 58 3f 3e 79 46 5a be
       -0.62143767 -0.28754106 0.18685935 -0.21315946
0003a0 7b 04 93 be e9 af 27 3e 92 05 d5 3e a6 1c 47 be
       -0.28714356 0.16375698 0.41605812 -0.19444522
0003b0 06 b3 99 3e dc 21 20 be c1 7f 5b 3c 09 60 6c bf
       0.30019397 -0.15637916 0.013397158 -0.9233404
0003c0 4a b2 85 bc 95 11 18 be ee 83 09 3f 52 95 13 3e
       -0.016320366 -0.14850457 0.53716934 0.1441243
0003d0 c3 db af 3d 02 c0 d4 3d 61 97 1a bd 5f 58 a0 be
       0.08586838 0.10388185 -0.037742022 -0.31317422
0003e0 4c 46 01 be f0 8f 3c bb bb 6b 1a be dd 53 c8 bd
       -0.12624472 -0.0028772317 -0.15080158 -0.09781621
0003f0 95 ca 15 bd be 42 ef 3c bf fc 22 be 00 78 3b 3d
       -0.03657015 0.02920663 -0.15916727 0.045768738

bias f4 [20]
000000 d0 af 76 be 73 e3 35 bf 8a 1a 8b 3f 43 73 06 3f
       -0.24090505 -0.71050185 1.0867474 0.52519625
000010 6d 03 17 bf c1 38 4d bf 8b a6 23 bf 02 7e 3d bf
       -0.589896 -0.80164725 -0.63926 -0.740204
000020 14 3d 65 be 48 18 4d bf 1a 59 d2 3d 61 68 08 bf
       -0.2238658 -0.80115175 0.10270901 -0.5328427
000030 53 48 f4 3e 2f 4c f9 be 25 de a6 be 1b 7c 29 bf
       0.4771143 -0.48690936 -0.32591358 -0.66204995
000040 44 35 49 bf 86 30 cf 3e 99 f7 d1 be 77 32 94 3e
       -0.785969 0.40466708 -0.41009215 0.28944752

weight f4 [20, 20]
000000 88 22 d7 bb a9 4f 61 3e 72 f8 40 3e cd 9e 31 be
       -0.0065653957 0.22003044 0.18844774 -0.17345734
000010 2e 1c 1a bd 8a bc 70 3e 28 d0 fb be f7 42 59 3f
       -0.03762453 0.23509422 -0.49182248 0.84867805
000020 d9 69 e4 3e 40 5f 10 3f 9b ad 80 be 36 72 01 bf
       0.44612005 0.5639534 -0.2513245 -0.505649
000030 7a 6b d4 be 08 f1 7d 3e d0 6a b0 3f f1 3d dc be
       -0.41488248 0.24798977 1.3782597 -0.43016008
000040 04 5e 2b bf cd 86 ce 3e 0b bb db bd 02 62 49 bf
       -0.6694033 0.4033722 -0.10729035 -0.78665173
000050 f2 18 12 bf 7c a5 cb bb 65 80 04 3f 4c 6c 75 bf
       -0.57069314 -0.0062147956 0.51758415 -0.9586837
000060 0d 23 ea 3e 1c 59 78 3d 99 ed d7 bc 30 ff b6 3e
       0.45729867 0.060631856 -0.026358413 0.35741568
000070 50 ee 24 3e 71 eb 57 3e 22 0e 75 bd 42 ba af 3e
       0.16106534 0.21085908 -0.05982793 0.3432179
000080 23 b8 d5 3e b6 ff aa 3e 92 c8 5b 3f a2 a6 24 3f
       0.41742048 0.33398217 0.8585292 0.6431676
000090 89 11 20 3f 6d be 5f 3d 29 44 0c 3f 02 07 a2 be
       0.62526757 0.054624964 0.54791504 -0.31645972
0000a0 8f aa 82 3d 46 e4 92 3e a6 2f b7 3f 43 83 a7 3f
       0.06380188 0.28689784 1.4311416 1.3086933
0000b0 77 84 39 3d 19 26 0a 3e 30 a5 5f bf 25 99 13 3d
       0.045292344 0.13491096 -0.8736143 0.036034722
0000c0 0d 8c ea 3e f3 d5 a4 bd 4f c8 82 be 0c 82 15 bf
       0.45809975 -0.0804862 -0.25543448 -0.5840156
0000d0 45 17 28 40 7b 11 0f bf ef a5 99 3e d2 de 42 bf
       2.6264203 -0.5588605 0.3000941 -0.76121247
0000e0 9e 1c ab 3d 3d 52 14 40 4e 82 9b 3c ba cd b5 3d
       0.08355068 2.3175194 0.018983033 0.0887713
0000f0 b7 1b b7 3d ac 5a 96 be 31 e3 8c 3f f1 a2 5c 3e
       0.08940833 -0.29366052 1.1006833 0.21546532
000100 fb 75 d9 bd c1 08 37 3f dc 62 df 3e df 6d 05 3f
       -0.10618206 0.7149773 0.4363011 0.52120775
000110 78 ce 0f be 34 7e bd be 75 cd c7 3e d9 1d 9b be
       -0.14043605 -0.37010348 0.3902394 -0.3029621
000120 89 7d 7c 3f 8c 14 2b bf bc 0e 89 3f 84 54 13 bf
       0.9862905 -0.6682823 1.0707622 -0.57550836
000130 aa 7e 8d 3e 26 d8 c7 3e 68 cf b4 be 99 d8 38 bf
       0.276357 0.39032096 -0.35314488 -0.722055
000140 be c1 3b 3f 1b aa ca be 48 b3 18 3f fd 30 e2 be
       0.733425 -0.39582905 0.5964856 -0.44178
000150 e7 4b 98 be ee f8 3d 3f 6e 43 88 3f da b4 57 3f
       -0.2974541 0.7420796 1.0645578 0.8426033
000160 08 86 35 be 88 81 ee 3e be 4a c4 3e 92 0c 0d 3e
       -0.1772691 0.465832 0.38338274 0.13774326
000170 d0 fa 1d be 56 25 ba be 4f 40 e9 3e b0 8f 16 3e
       -0.15427709 -0.3635661 0.45556876 0.1470325
000180 5f 78 2d 3e 5f 1a 0e 3f 00 e4 5c be e0 df ed bf
       0.16940449 0.5550899 -0.2157135 -1.8583946
000190 ae b0 03 3f ed 39 d1 bc 89 77 2a 3e 48 de 3e 3d
       0.51441467 -0.025540316 0.16647162 0.046598703
0001a0 54 2b 6b 3e 91 0d e4 be d3 3a a2 bb 06 d1 83 3f
       0.22965747 -0.445416 -0.00495086 1.0298164
0001b0 36 c1 85 be 59 ad 57 bf 4b 08 89 bd b5 72 98 3d
       -0.2612397 -0.8424888 -0.06691035 0.07443754
0001c0 06 14 6d bf e2 80 79 3f 13 75 a7 bd e5 93 6a 3e
       -0.9260868 0.97462285 -0.08176627 0.2290798
0001d0 af 43 e9 3e 07 bc f9 bd f6 55 8e 3e de 43 88 bf
       0.4555945 -0.121940665 0.27799958 -1.0645711
0001e0 78 1b 0e 3d f1 69 e9 bd d8 43 c5 3e 91 98 88 3f
       0.034694165 -0.1139716 0.38528323 1.067156
0001f0 cb 2c 90 3d 10 b8 3d 3f d5 69 df bd 74 bd 81 be
       0.070397936 0.7410898 -0.10908858 -0.25339854
000200 22 3a 6c 3e 3b e4 e7 3e 75 f4 85 be 3b e6 6e 3f
       0.23069051 0.45291314 -0.26163068 0.93320054
000210 c3 53 56 3f 8c 70 05 bf d9 c1 37 3e 2c b0 57 3e
       0.8372156 -0.5212486 0.17945041 0.21063298
000220 91 69 87 be 4b 99 f0 3e e0 57 3c 3f 47 7a 9f 3e
       -0.26447728 0.46991953 0.73571587 0.31147978
000230 79 d3 1d be ec 0a 1e bf 81 ed 41 3f f6 fb 4c 3f
       -0.15412702 -0.61735415 0.7575303 0.8007196
000240 f7 45 54 be 47 78 0b 3f 7c 29 4b bf e7 a8 ee be
       -0.20729814 0.54480404 -0.79360175 -0.46613237
000250 2b ef d7 bd f7 c0 dc 3d 3d d5 0f 3f 26 6e 5d bf
       -0.105436645 0.107789926 0.5618475 -0.864962
000260 75 d3 c6 3d 4e 0e e1 3e 91 47 e4 be 06 37 14 3f
       0.09708301 0.43956226 -0.4458585 0.5789646
000270 ab 5b 0b bf fe 91 5d 3e 6e 34 9c 3e bb 37 89 3f
       -0.5443675 0.21637723 0.3050875 1.0720133
000280 bd c6 24 3e 82 2b f1 3e 3e 99 1a be e1 69 00 3f
       0.16091438 0.47103506 -0.1509752 0.5016156
000290 07 b4 96 be 00 80 de be f5 68 97 3b 99 cb d2 3d
       -0.29434225 -0.4345703 0.004620666 0.102927394
0002a0 00 8b c0 3e 64 07 70 3e cb f6 8b be 2f c2 dc bd
       0.3760605 0.2344032 -0.27336726 -0.10779225
0002b0 fa c4 64 be 73 10 99 3e 4d d2 db be 76 bf 89 be
       -0.22340766 0.29895362 -0.42933884 -0.26903886
0002c0 01 33 92 be 74 79 14 bf a0 05 4f be f1 b4 98 3e
       -0.28554538 -0.5799782 -0.2021699 0.29825547
0002d0 63 d4 2b bf 56 24 88 bf 1f fe 1d 3e 1a a8 73 3e
       -0.6712095 -1.0636089 0.15428971 0.23794594
0002e0 13 28 88 3f f1 d2 c1 be 29 f5 05 bf cd 22 f4 3e
       1.063723 -0.37856248 -0.5232721 0.476828
0002f0 3d 86 0b 3f 46 8f 49 be ae b9 9e bd 3f 17 fd be
       0.54501706 -0.1968356 -0.07750259 -0.49431798
000300 0c c2 8f 3e 24 3d 08 3e 4c 11 f2 bd 10 e3 55 3f
       0.28077734 0.13304573 -0.11819705 0.83549595
000310 99 6c 0d bf 14 30 30 be 15 34 b8 3d 65 e3 20 3f
       -0.5524383 -0.1720584 0.08994309 0.62846977
000320 75 c3 9e bf 38 3a 29 be 23 7e 2d 3f 33 ea 22 3f
       -1.2403399 -0.16526115 0.67770594 0.6363861
000330 28 7b a5 3e 2d 1a 8f 3e 0f f2 69 bf 67 67 a8 be
       0.32320523 0.27949658 -0.9138498 -0.3289139
000340 84 b4 6f be b5 3e 39 3f 73 67 07 bc 3e 52 49 3e
       -0.23408705 0.7236131 -0.00826441 0.19660279
000350 d3 74 ce 3c 13 85 9d 3e 54 6d 9e be 33 e5 43 3e
       0.02520219 0.3076559 -0.30942786 0.19130401
000360 1b 40 70 3e e7 fa 0e 3f f5 8d 56 3e ee 31 14 3f
       0.23461954 0.55851597 0.2095259 0.57888687
000370 c2 38 a3 be 4f 13 59 be 0a 78 28 3f 2a 5a db bd
       -0.3187924 -0.21198772 0.65808165 -0.10710557
000380 4d 29 44 bf 07 84 42 bf a8 38 8c 3e bc 2e 86 3d
       -0.7662552 -0.7598271 0.27386975 0.065518826
000390 5b fb 05 be ff 41 85 3f cd d4 45 be 70 aa 76 3e
       -0.13084166 1.0410765 -0.19319458 0.24088454
0003a0 67 e6 00 3f 75 1e a5 3d 81 93 73 bf ee e7 00 3f
       0.50351566 0.0806245 -0.9514695 0.50353897
0003b0 c2 27 a7 3e 1c 80 35 3f b0 7c cf 3e 57 7d ff 3e
       0.3264752 0.70898604 0.40524817 0.49900314
0003c0 24 d0 f0 be 0e 2b 85 be a0 6e c9 3f 4a 0d 44 3f
       -0.470338 -0.2600941 1.5736885 0.7658278
0003d0 9f f9 1c bd b2 c6 be 3c 42 0d 01 bf c1 90 df bf
       -0.038323995 0.023288105 -0.50410855 -1.746605
0003e0 ed 4f 3a 3e 68 26 45 3f 81 c7 18 3f 5b 7d f5 3e
       0.18194552 0.7701173 0.5967942 0.479472
0003f0 62 81 77 3f c2 fd 84 bf 5e 03 3d bf 05 1b 14 3f
       0.966818 -1.0389941 -0.7383326 0.5785373

bias f4 [20]
000000 bd 35 f2 be 7a 71 1b bf d4 79 b2 3e 81 ee d1 3e
       -0.47306624 -0.60720026 0.34858572 0.41002277
000010 bb 79 1d bf 10 d9 24 bf c7 37 17 3f 0f 5a 86 3f
       -0.6151387 -0.6439371 0.59069484 1.0496234
000020 c9 73 e6 3c bd 0e 25 3f 21 69 bd 3e f5 41 10 3e
       0.028131383 0.64475614 0.3699427 0.1408766
000030 67 34 5e 3f 38 6c 89 bf ca 3e 8c bd 54 31 e7 3d
       0.8679871 -1.0736151 -0.068479136 0.112887055
000040 66 de d2 be 30 f9 4f 3f 97 c7 df be 97 5f a1 be
       -0.41185302 0.81239605 -0.43706962 -0.31518242
