programming_homework/03/code/part_3_1/decoder.pt (torch, 142411 bytes, 46 tensors)

weight f4 [29, 20]
0.41183788 0.39244136 0.42855966 -0.29264846 -2.32932 -0.5310351 1.2734085 1.3937557
0.76832104 0.70200807 -0.22230835 0.43705606 0.15626399 -1.3920125 1.1620017 0.41919747
-0.9122915 1.3304317 0.5859318 -0.35881835 0.51638395 0.38545397 -0.596405 0.27258223
0.24228588 0.6563768 -0.22701262 0.6096789 0.9681069 -1.217049 0.06486706 -0.3277732
0.9656944 -1.3747584 -0.68254334 0.84254074 1.2568134 -1.1511592 -0.11947845 -0.10161781
0.19869094 -0.746615 -0.4330436 -0.21585079 -0.41673216 -0.49699208 0.3652914 -0.29383293
-0.6084185 2.0695026 -0.19213478 -0.60006624 -1.58635 -1.1350565 -1.7671182 -0.45767602
0.4350532 1.3605052 0.24039133 0.44889733 0.26396534 0.1481346 0.9147539 -0.58988935
0.6758716 -0.53644705 -0.7298039 -0.79498184 0.96918195 1.5015904 0.3587533 -0.5510986
-1.1360029 -0.775522 0.10825156 -0.9990264 -0.3568188 0.8093359 0.07888038 0.80600995
-0.40261933 0.14104071 -0.07719615 0.6898648 0.81278116 -0.7152927 -0.8751783 -0.18567058
0.096638754 -0.034524754 -0.76777595 -0.43436325 -0.19452389 -0.07389217 -0.9616387 -1.0115103
-0.086345315 1.1501427 0.11372403 0.091895916 0.17512766 -0.4503075 0.10137919 -0.82144886
-1.3639927 -0.2860431 -0.027892448 -1.476478 -0.14665307 -0.23471747 -0.15141544 -1.0235543
-1.2272965 -0.4318914 0.19794887 0.90397745 0.7305165 -0.80821276 -0.19754562 0.2967273
-0.3799221 -0.24886124 -0.14915346 -0.58233905 -0.5736355 -0.6952915 -0.69489646 0.57843715
1.2601078 1.8034266 -0.54199594 -0.62212753 -0.69679433 0.8147765 -1.29429 -0.73449206
-0.619843 -0.50371045 0.30797455 0.660097 -0.13436721 0.121799305 -0.30184495 -0.30930153
0.23621567 -0.4569577 -0.39337862 -0.49383798 -0.27585945 1.0579019 -0.2959786 0.0554327
-1.380727 0.01943559 -1.2270929 1.0958183 -0.629053 -0.64226604 -0.65946066 0.35994843
0.53985673 -0.45092887 -0.27468064 -0.5583952 -0.8406163 -1.0003598 0.6468785 0.3454788
-0.46985963 -0.035138477 -1.5804048 0.8965907 0.37676784 0.7634539 -0.8496858 -0.08685244
0.16339444 -1.201313 0.85373855 -0.59640634 1.0012147 -0.64847463 0.8542344 -0.61384034
-1.6098009 -0.35505766 -0.21149842 -1.2999775 -0.71841854 0.30474225 1.7889796 -0.06821743
1.3895446 -1.3397429 -0.362143 0.14742702 0.07420249 -0.087154806 -0.66013914 0.42025545
0.3891542 -0.40961295 -1.264673 0.030712692 0.102762125 -0.47409344 1.4367222 -1.4622136
0.123611994 2.023566 0.7947544 0.5958081 -1.4150748 -0.22471738 0.14868417 -1.9100219
-1.8983309 -0.13078506 -0.034674276 0.47419763 -0.33612853 1.0080143 0.06555586 0.44774988
0.41751835 -1.0609651 -0.14655775 -0.11264987 -0.15586185 0.65164286 -1.4580969 0.09154006
0.6268308 0.33341673 -1.1682813 0.8141737 -0.6827996 0.6479214 -0.95898104 -0.19665411
0.28875634 0.46944186 0.28936943 0.11677914 0.4419192 -0.2574779 0.78113276 -0.31988874
-0.29895118 -0.46561587 0.17230555 -0.4525786 -0.29344904 0.577222 0.043750625 -0.19021472
00000000: 6adc d23e 13ee c83e 2c6c db3e 05d6 95be
00000010: 9413 15c0 ebf1 07bf 0dff a23f 9666 b23f
00000020: b0b0 443f cdb6 333f cda4 63be d0c5 df3e
00000030: ab03 203e 772d b2bf 79bc 943f 0da1 d63e
00000040: f08b 69bf 964b aa3f a0ff 153f 0ab7 b7be
00000050: bd31 043f 395a c53e 00ae 18bf e68f 8b3e
00000060: ca19 783e 4f08 283f ff75 68be eb13 1c3f
00000070: dbd5 773f 43c8 9bbf 05d9 843d e4d1 a7be
00000080: c037 773f 15f8 afbf 29bb 2ebf c0b0 573f
00000090: 43df a03f 2f59 93bf 1eb1 f4bd 001d d0bd
000000a0: a375 4b3e 2922 3fbf e4b7 ddbe fd07 5dbe
000000b0: eb5d d5be bf75 febe 7907 bb3e 4571 96be
000000c0: 51c1 1bbf bb72 0440 fbbe 44be f19d 19bf
000000d0: 840d cbbf 8849 91bf ee30 e2bf 8354 eabe
000000e0: 4bbf de3e 0925 ae3f 2529 763e dfd5 e53e
000000f0: 7726 873e 99b0 173e 502d 6a3f fd02 17bf
00000100: ec05 2d3f 9854 09bf 6ed4 3abf ee83 4bbf
00000110: 4f1c 783f 1d34 c03f 83ae b73e cc14 0dbf
00000120: 8b68 91bf 9c88 46bf feb2 dd3d 32c0 7fbf
00000130: f4b0 b6be a330 4f3f 098c a13d ab56 4e3f
00000140: 1f24 cebe fa6c 103e 0419 9ebd fb9a 303f
00000150: 6d12 503f 6c1d 37bf af0b 60bf 6e20 3ebe
00000160: 8aea c53d d469 0dbd f78c 44bf dc64 debe
00000170: 4531 47be c754 97bd f42d 76bf 2b79 81bf
00000180: d0d5 b0bd e037 933f 25e8 e83d ed33 bc3d
00000190: aa54 333e b48e e6be e59f cf3d 794a 52bf
000001a0: 5097 aebf 3e74 92be b47e e4bc 3bfd bcbf
000001b0: 392c 16be c759 70be a60c 1bbe d403 83bf
000001c0: 0d18 9dbf df20 ddbe 1cb3 4a3e 116b 673f
000001d0: 2103 3b3f 08e7 4ebf 6649 4abe a4ec 973e
000001e0: 2685 c2be 7bd5 7ebe afbb 18be 2c14 15bf
000001f0: c7d9 12bf a0fe 31bf bce4 31bf 7514 143f
00000200: 364b a13f afd6 e63f 3fc0 0abf c043 1fbf
00000210: 1d61 32bf 3195 503f 4bab a5bf ac07 3cbf
00000220: 08ae 1ebf 2bf3 00bf d7ae 9d3e 1efc 283f
00000230: 8f97 09be ea71 f93d 6c8b 9abe c55c 9ebe
00000240: 85e2 713e 5cf6 e9be ec68 c9be 55d8 fcbe
00000250: 733d 8dbe 5469 873f 828a 97be 660d 633d
00000260: aabb b0bf 6337 9f3c 6111 9dbf c643 8c3f
00000270: 9e09 21bf 8c6b 24bf 6ad2 28bf 294b b83e
00000280: 0d34 0a3f 26e0 e6be f1a2 8cbe fdf2 0ebf
00000290: a132 57bf ca0b 80bf d499 253f 99e2 b03e
000002a0: 7191 f0be 5ded 0fbd b44a cabf f886 653f
000002b0: b7e7 c03e b771 433f 0285 59bf b1df b1bd
000002c0: df50 273e a0c4 99bf 9c8e 5a3f 16ae 18bf
000002d0: ce27 803f 6f02 26bf 1baf 5a3f a424 1dbf
000002e0: f50d cebf 1eca b5be 0b93 58be aa65 a6bf
000002f0: 47ea 37bf 2d07 9c3e 49fd e43f 94b5 8bbd
00000300: 99dc b13f b27c abbf cf6a b9be 1cf7 163e
00000310: 7af7 973d 387e b2bd e1fe 28bf b92b d73e
00000320: 383f c73e cab8 d1be cee0 a1bf 2f99 fb3c
00000330: f374 d23d 60bc f2be 83e6 b73f d129 bbbf
00000340: 4928 fd3d 1b82 0140 0675 4b3f e186 183f
00000350: 2c21 b5bf 501c 66be aa40 183e 997b f4bf
00000360: 82fc f2bf 85ec 05be 9d06 0ebd 08ca f23e
00000370: 0a19 acbe 9d06 813f 2742 863d 793f e53e
00000380: f7c4 d53e b4cd 87bf 3c13 16be fab4 e6bd
00000390: 409a 1fbe 11d2 263f eba2 babf 5b79 bb3d
000003a0: fc77 203f 99b5 aa3e 3e8a 95bf b06d 503f
000003b0: f4cb 2ebf 2dde 253f c87f 75bf b25f 49be
000003c0: dfd7 933e af5a f03e 3b28 943e e729 ef3d
000003d0: 3c43 e23e 25d4 83be 51f8 473f 75c8 a3be
000003e0: 2110 99be 3465 eebe de70 303e 62b8 e7be
000003f0: f43e 96be d2c4 133f db33 333d a6c7 42be

weight f4 [20, 20]
-0.5034218 0.39546725 0.1317771 0.4413702 -0.14698875 0.100929804 0.09584536 -0.12969281
-0.1685347 0.16867563 -0.16697867 0.098117635 -0.068640016 0.1567676 -0.08218302 0.03436653
0.19879882 -0.18024294 -0.20632975 0.2979568 0.20203194 -0.3774803 -0.28579283 -0.4749196
0.23394424 -0.28004164 0.30243143 0.0013591293 0.3526787 -0.06167485 -0.136358 -0.094718166
0.29276496 -0.100735545 -0.026617281 0.1566514 0.24049105 0.29525673 0.43519878 0.22348481
0.2782016 0.18774477 0.115266904 0.10208204 -0.0951787 0.021646114 0.045754585 0.086233936
0.00986858 -0.113403305 0.08501109 0.05864932 -0.011979242 -0.12613986 -0.031472348 0.2651372
-0.054444924 -0.151848 0.36170155 -0.09440852 -0.5179717 0.35348666 0.19109042 -0.015384
0.27744526 0.1337619 0.19577855 0.1570528 -0.25454396 0.12723677 0.25686118 0.1677416
0.15333538 0.03858888 0.116469234 -0.21305622 0.15762806 -0.21756013 -0.2358106 0.3920059
-0.4355892 -0.11883997 0.32487768 0.50136983 -0.19282058 0.14183213 0.021526525 -0.32277662
-0.18162212 -0.035496954 -0.15555146 -0.05603699 -0.11900032 -0.024650503 -0.18942162 -0.1024688
0.27414322 -0.050817776 0.34395725 0.15675952 -0.42542773 0.41890034 0.08268558 0.64206314
-0.39151642 -0.21121538 0.2109669 0.18166892 0.21720746 0.13530992 0.24174008 0.05412055
0.010349595 -0.07987751 -0.010455068 0.095330454 0.06973042 -0.17427771 0.035280563 0.036736593
0.02144809 -0.15333791 0.116382 -0.29143983 0.056915645 0.2832267 0.12203302 0.22178146
-0.09310521 -0.11054287 -0.119024135 0.08238277 0.018329082 -0.017796032 -0.20926696 0.039772116
-0.34075296 0.02889165 -0.020284016 -0.07941089 0.1255617 0.2721136 0.0051606544 0.06845781
-0.33297142 -0.0530698 -0.22969055 -0.3629749 -0.08148365 -0.084237605 -0.22457692 0.10342698
-0.0021834862 -0.087036625 -0.18333705 0.14889945 0.20885068 0.14222105 0.19026737 0.04145667
0.17499323 -0.15904418 -0.05741542 0.4270331 -0.07123303 -0.50043964 -0.029984562 -0.06546303
0.15311386 0.05107873 0.026958875 -0.0122052645 -0.01712163 -0.064147465 0.21142623 0.06095945
0.05794117 -0.19216715 0.22088578 0.1286133 -0.17251371 -0.094592385 -0.0009647823 0.31379047
0.3608802 0.18171027 -0.32315254 -0.2546027 -0.14697735 -0.15665151 -0.015448564 -0.054310884
0.036707528 0.25238708 -0.28095928 -0.32842672 0.19635336 -0.060637217 0.13571769 0.2017091
-0.19948442 0.13290815 0.33244857 -0.15492448 -0.32866594 0.73626786 -0.014194481 -0.036202196
-0.19301629 0.04641875 -0.5245256 0.22512995 0.08288267 -0.20524536 -0.097084865 -0.2528966
0.19284923 -0.12661529 0.1572021 -0.16470666 -0.07470527 -0.015036797 -0.106645525 -0.15450424
-0.097309805 -0.4179698 0.2680386 0.30411708 -0.15904956 0.029527808 -0.09952861 -0.16785488
0.035347935 0.1684443 0.043753795 -0.0048160446 0.009978818 0.036154225 -0.13071616 0.19400945
0.09436854 0.31077403 -0.3987716 -0.2589427 0.070563965 0.051808037 -0.23446564 -0.08285197
-0.27767563 0.032657262 0.05288042 -0.30928966 0.36852783 0.34157607 0.03151039 -0.027340312
00000000: 40e0 00bf af7a ca3e 93f0 063e 46fb e13e
00000010: 3884 16be 49b4 ce3d 924a c43d 31ce 04be
00000020: 5c94 2cbe 4eb9 2c3e 75fc 2abe e6f1 c83d
00000030: 2393 8cbd b087 203e 924f a8bd ebc3 0c3d
00000040: eb91 4b3e 9b91 38be 1b48 53be cb8d 983e
00000050: 76e1 4e3e 1945 c1be 7053 92be a928 f3be
00000060: 148f 6f3e 9e61 8fbe 4bd8 9a3e d024 b23a
00000070: 4d92 b43e c49e 7cbd 6ea1 0bbe 99fb c1bd
00000080: 4ae5 953e 704e cebd 7c0c dabc 3969 203e
00000090: 4943 763e e42b 973e 60d2 de3e 34d9 643e
000000a0: 7170 8e3e 2a40 403e 0e11 ec3d 6310 d13d
000000b0: 0ded c2bd 3153 b13c 2969 3b3d 6b9b b03d
000000c0: d3af 213c fe3f e8bd 4b1a ae3d 453a 703d
000000d0: 9544 44bc cf2a 01be 26e9 00bd 10c0 873e
000000e0: a401 5fbd 0b7e 1bbe f230 b93e 4159 c1bd
000000f0: cb99 04bf 34fc b43e 35ad 433e 2c0d 7cbc
00000100: 4e0d 8e3e e1f8 083e 2c7a 483e 73d2 203e
00000110: 9653 82be 5b4a 023e 4f83 833e 74c4 2b3e
00000120: f303 1d3e 600f 1e3d 6c87 ee3d 692b 5abe
00000130: 4069 213e 15c8 5ebe 5578 71be ffb4 c83e
00000140: 8c05 dfbe 5f62 f3bd 5e56 a63e c659 003f
00000150: c272 45be 713c 113e 6558 b03c fa42 a5be
00000160: 26fb 39be 4165 11bd e248 1fbe 0b87 65bd
00000170: 71b6 f3bd daef c9bc bef7 41be 2adb d1bd
00000180: 805c 8c3e 4d26 50bd 2a1b b03e 9185 203e
00000190: aad1 d9be 1b7a d63e 0f57 a93d 405e 243f
000001a0: d774 c8be d848 58be b507 583e 6b07 3a3e
000001b0: a26b 5e3e af8e 0a3e b68a 773e 83ad 5d3d
000001c0: 5991 293c d296 a3bd bc4b 2bbc 9d3c c33d
000001d0: d3ce 8e3d db75 32be 5a82 103d 1c79 163d
000001e0: e8b3 af3c 9d04 1dbe b059 ee3d 9a37 95be
000001f0: 6120 693d 1703 913e 73ec f93d ae1a 633e
00000200: f2ad bebd 4d64 e2bd edc2 f3bd 4cb8 a83d
00000210: df26 963c fcc8 91bc 144a 56be 16e8 223d
00000220: 2c77 aebe 2eae ec3c aa2a a6bc 2da2 a2bd
00000230: 3f93 003e 7952 8b3e b51a a93b 9c33 8c3d
00000240: 3b7b aabe b85f 59bd 0034 6bbe d9d7 b9be
00000250: e6e0 a6bd c484 acbd 7ef7 65be 86d1 d33d
00000260: d218 0fbb 4240 b2bd b5bc 3bbe 1979 183e
00000270: f4dc 553e 65a2 113e 73d5 423e 78ce 293d
00000280: 6d31 333e 7adc 22be 6e2c 6bbd 15a4 da3e
00000290: 9fe2 91bd d01c 00bf 2fa2 f5bc 7b11 86bd
000002a0: e1c9 1c3e ee37 513d dcd8 dc3c 97f8 47bc
000002b0: a942 8cbc bf5f 83bd 1e80 583e 9eb0 793d
000002c0: b853 6d3d 77c7 44be e22f 623e 34b3 033e
000002d0: 6fa7 30be a7b9 c1bd 72e9 7cba 25a9 a03e
000002e0: 4ac5 b83e 4212 3a3e 4074 a5be 495b 82be
000002f0: 3b81 16be 4169 20be f91b 7dbc 1775 5ebd
00000300: a25a 163d e138 813e e5d9 8fbe 8c27 a8be
00000310: db10 493e bb5e 78bd 94f9 0a3e d58c 4e3e
00000320: a545 4cbe 1319 083e b336 aa3e 86a4 1ebe
00000330: e746 a8be 0d7c 3c3f f88f 68bc c148 14bd
00000340: 10a6 45be 9621 3e3d 4f47 06bf 7788 663e
00000350: 64be a93d d72b 52be 6ed4 c6bd aa7b 81be
00000360: 457a 453e 70a7 01be 96f9 203e dda8 28be
00000370: 14ff 98bd e65c 76bc f868 dabd 5c36 1ebe
00000380: 5d4a c7bd 2300 d6be 5b3c 893e 3cb5 9b3e
00000390: e3dd 22be 4de4 f13c a8d5 cbbd 26e2 2bbe
000003a0: ffc8 103d aa7c 2c3e 2e37 333d e9cf 9dbb
000003b0: 327e 233c 7416 143d 75da 05be 6aaa 463e
000003c0: 4b44 c13d c61d 9f3e cb2b ccbe 2394 84be
000003d0: d783 903d aa34 543d c317 70be 4bae a9bd
000003e0: 802b 8ebe 9fc3 053d 2499 583d 375b 9ebe
000003f0: aeaf bc3e 0fe3 ae3e 0a11 013d caf8 dfbc

bias f4 [20]
0.050912444 0.43263787 -0.23401675 0.5298467 0.07941705 0.24377303 -0.22880371 -0.030722175
-0.19567809 0.2414833 -0.15120779 0.12257075 0.19019347 -0.143114 0.10553398 -0.24718694
0.2093833 -0.053989716 -0.05706165 0.108169325
00000000: 9189 503d b682 dd3e 16a2 6fbe 09a4 073f
00000010: 68a5 a23d a39f 793e 854b 6abe 12ad fbbc
00000020: d65f 48be 6647 773e 37d6 1abe 6006 fb3d
00000030: 14c2 423e 7a8c 12be 3322 d83d 931e 7dbe
00000040: 9368 563e 5224 5dbd 7ab9 69bd e187 dd3d

weight f4 [20, 20]
-0.42677784 -0.2355265 0.29581556 -0.070041746 0.049677514 -0.43919235 0.13438432 -0.1699749
0.13436177 -0.26026517 0.121523544 -0.033038765 0.1472085 -0.29361013 0.07229968 -0.057063047
0.0848083 -0.16721581 0.32079726 0.011286673 0.009105093 -0.022539012 -0.45821944 -0.3541167
0.25703698 -0.7373367 0.13069701 -0.1209493 -0.23228294 -0.008404246 0.25221643 -0.21366556
0.062237315 0.41130498 0.10740808 0.08136187 -0.036295608 0.30400857 -0.20907086 0.080673076
0.16382124 0.16172531 0.21959189 0.22566472 -0.14272152 0.124233164 -0.08848511 -0.3648038
0.051607646 0.30671608 -0.16167924 -0.07860959 0.12430996 0.013147904 -0.26187265 -0.096688576
-0.070481256 0.28031492 -0.23301198 -0.016725203 -0.75014526 -0.22097494 -0.23624773 -0.40476537
0.19988582 -0.5197713 0.36542442 -0.18734342 0.081553444 -0.30698627 -0.1096882 -0.3019604
0.30640972 -0.23007482 0.15952352 0.16814288 0.035405673 -0.06823731 0.016915191 0.15283507
-0.3081587 -0.43051726 0.5418923 0.22546427 -0.105435446 0.20880772 0.17183562 0.0867162
0.31480962 0.054199424 3.337638e-05 0.4087565 -0.04576473 -0.1605325 0.14402682 0.016354324
-0.16644582 -0.16083466 0.05314358 -0.19431546 -0.215608 -0.21491507 0.007214503 0.6869524
-0.09858384 -0.61121154 0.1428749 -0.40759242 0.12436084 0.07887262 -0.035926536 0.22682528
-0.15345332 -0.24331066 -0.29169595 -0.10074001 0.2197215 -0.0015954657 0.16240387 0.31030142
-0.004210214 -0.06829483 -0.0028157984 -0.26440918 -0.059654232 0.36854336 -0.22426434 0.017840017
-0.22391383 -0.036666054 -0.23913795 -0.063356884 -0.027717272 -0.16183664 -0.009722017 -0.11201536
0.13965257 0.33624327 -0.044419702 -0.121431425 0.045210153 0.22839957 0.32048398 0.08232127
-0.046800613 0.13559023 0.021518353 -0.23162054 0.12187609 0.00458379 -0.05940428 -0.027147597
-0.027870966 -0.0018067921 0.2049206 -0.12779658 -0.2572852 -0.10523352 0.028727198 0.02887521
0.38137645 0.0795263 0.1614711 0.6554886 -0.025704341 -0.18893066 0.18302274 -0.115508124
0.1510824 0.015717175 -0.032425873 0.30502927 -0.0040038615 0.14713313 -0.16614024 0.1632493
-0.20205653 -0.13417472 -0.12906006 -0.046539277 -0.24325572 0.0033787293 0.13122213 -0.21776165
-0.2993 -0.26094595 -0.114741825 0.20453902 0.21246038 -0.13530011 -0.08010484 0.12613568
-0.040598903 -0.27112475 0.24367365 0.2775733 -0.16742405 -0.047147166 -0.22074097 -0.1386353
-0.29965574 -0.10861412 0.47940332 -0.036481556 -0.18813728 0.81657964 -0.32229447 0.11534518
-0.010562475 0.0788365 0.05714284 -0.15998277 -0.3680101 -0.33338663 0.0014977354 -0.29352257
-0.123405114 0.25582847 0.10338785 0.067964174 0.030720135 -0.07047875 -0.1407684 -0.18380071
0.38251734 -0.32961142 0.16650298 -0.04070298 0.13223398 -0.18692261 0.1901163 -0.034333505
0.050239366 0.119206585 -0.04285559 -0.0710297 0.35416657 -0.21465561 0.03627801 -0.04919792
-0.16252024 0.300907 -0.3755731 -0.4570287 0.21546803 -0.20776732 -0.22188649 -0.042534877
0.077262655 -0.02910306 0.17027609 -0.024540829 -0.11626748 -0.17303382 0.020888634 -0.016474796
00000000: a082 dabe dc2d 71be 2375 973e 0c72 8fbd
00000010: a67a 4b3d d2dd e0be 0b9c 093e e60d 2ebe
00000020: 2296 093e 7a41 85be 56e1 f83d a853 07bd
00000030: d3bd 163e 1154 96be db11 943d f1ba 69bd
00000040: f9af ad3d 9f3a 2bbe 8a3f a43e bdeb 383c
00000050: 872d 153c bca3 b8bc bd9b eabe c94e b5be
00000060: 5a9a 833e 19c2 3cbf 70d5 053e 44b4 f7bd
00000070: 94db 6dbe f6b1 09bc 8322 813e 25cb 5abe
00000080: 8eec 7e3d 9196 d23e c4f8 db3d 0da1 a63d
00000090: b4aa 14bd 03a7 9b3e ac16 56be ed37 a53d
000000a0: c1c0 273e 529b 253e b2dc 603e a714 673e
000000b0: 9725 12be f56d fe3d ae37 b5bd 90c7 babe
000000c0: 8a62 533d e409 9d3e 3e8f 25be 11fe a0bd
000000d0: 3896 fe3d 4e6a 573c 2c14 86be a904 c6bd
000000e0: 7a58 90bd 7085 8f3e b19a 6ebe 4b03 89bc
000000f0: 8509 40bf 4147 62be edea 71be 683d cfbe
00000100: deae 4c3e bb0f 05bf e918 bb3e f4d6 3fbe
00000110: 7e05 a73d 4e2d 9dbe 35a4 e0bd 8e9a 9abe
00000120: bce1 9c3e bc98 6bbe 225a 233e a62d 2c3e
00000130: 8a05 113d 01c0 8bbd ba91 8a3c cc80 1c3e
00000140: fac6 9dbe c26c dcbe 74b9 0a3f 1be0 663e
00000150: 8aee d7bd b1d1 553e adf5 2f3e 4398 b13d
00000160: ba2e a13e 3700 5e3d 9dfd 0b38 8848 d13e
00000170: cc73 3bbd a262 24be c47b 133e 81f9 853c
00000180: c670 2abe d7b1 24be 15ad 593d a2fa 46be
00000190: 58c8 5cbe b212 5cbe a367 ec3b 1ddc 2f3f
000001a0: 53e6 c9bd 5c78 1cbf cc4d 123e f4af d0be
000001b0: e5b0 fe3d f887 a13d b427 13bd e344 683e
000001c0: de22 1dbe 6e26 79be 2c59 95be c750 cebd
000001d0: acfe 603e f21e d1ba 334d 263e d4df 9e3e
000001e0: d6f5 89bb 29de 8bbd 4289 38bb a460 87be
000001f0: ff57 74bd b7b1 bc3e 8da5 65be 3a25 923c
00000200: ab49 65be 252f 16bd 94e0 74be 41c1 81bd
00000210: 550f e3bc 81b8 25be 1849 1fbc 4f68 e5bd
00000220: 1501 0f3e 1428 ac3e 6ff1 35bd 0ab1 f8bd
00000230: 482e 393d 94e1 693e 7a16 a43e 0e98 a83d
00000240: 00b2 3fbd 2ad8 0a3e 4247 b03c ef2d 6dbe
00000250: 2c9a f93d 9e33 963b e751 73bd a364 debc
00000260: a751 e4bc e2d1 ecba b5d6 513e 1bdd 02be
00000270: e3ba 83be ac84 d7bd 4d55 eb3c b48b ec3c
00000280: c643 c33e afde a23d ae58 253e 1ace 273f
00000290: e991 d2bc 0a77 41be 506a 3b3e 868f ecbd
000002a0: 58b5 1a3e 4ec1 803c fed0 04bd cc2c 9c3e
000002b0: d332 83bb 11aa 163e ab20 2abe d32a 273e
000002c0: e8e7 4ebe 1965 09be 5228 04be f89f 3ebd
000002d0: 0718 79be ac6d 5d3b 185f 063e e9fc 5ebe
000002e0: d93d 99be b59a 85be c3fd eabd ad72 513e
000002f0: 378f 593e 1d8c 0abe 020e a4bd b629 013e
00000300: 094b 26bd ddd0 8abe 9685 793e 161e 8e3e
00000310: 3671 2bbe 631d 41bd ec09 62be 69f6 0dbe
00000320: 7a6c 99be 1471 debd 5a74 f53e af6d 15bd
00000330: 0fa7 40be 5d0b 513f c803 a5be 183a ec3d
00000340: 3b0e 2dbc 0875 a13d 9c0e 6a3d 86d2 23be
00000350: d26b bcbe a7b1 aabe a94f c43a 9748 96be
00000360: d2bb fcbd f3fb 823e 02bd d33d cd30 8b3d
00000370: cba8 fb3c 2a57 90bd 9725 10be 4136 3cbe
00000380: 50d9 c33e d4c2 a8be c27f 2a3e 2bb8 26bd
00000390: 5868 073e a468 3fbe d9ad 423e 4aa1 0cbd
000003a0: cbc7 4d3d 9522 f43d 5889 2fbd 0578 91bd
000003b0: 5255 b53e aece 5bbe 4098 143d c283 49bd
000003c0: b56b 26be 7b10 9a3e 1e4b c0be aaff e9be
000003d0: a7a3 5c3e f5c0 54be 3636 63be 0d39 2ebd
000003e0: e23b 9e3d 8a69 eebc db5c 2e3e d909 c9bc
000003f0: a51d eebd c72f 31be a41e ab3c 27f6 86bc

bias f4 [20]
0.1986466 0.2604784 -0.042478606 0.20663178 -0.11200404 0.23126346 -0.1603679 0.015914822
0.13832287 0.039726056 -0.22508746 -0.11769414 -0.15786651 -0.078188576 0.26832318 0.140288
-0.17951013 -0.040230945 0.087462634 -0.08302878
00000000: 046a 4b3e 6d5d 853e 0cfe 2dbd 4897 533e
00000010: 6062 e5bd 54d0 6c3e 7c37 24be cd5f 823c
00000020: 83a4 0d3e cab7 223d 547d 66be a009 f1bd
00000030: c2a7 21be 5521 a0bd a861 893e a8a7 0f3e
00000040: 81d1 37be 34c9 24bd 9c1f b33d fe0a aabd

weight f4 [20, 20]
0.2730765 0.35672006 0.09442625 0.1311766 -0.21437511 -0.12773557 -0.5172268 0.023517376
-0.33193374 0.09804777 -0.03648598 0.015460401 -0.12415978 -0.06543134 -0.18528831 -0.22215982
0.12302109 -0.12763868 -0.024896681 -0.4125047 -0.11990353 0.35895035 -0.112277254 -0.12515187
0.0072728423 -0.411222 0.43314537 -0.09931158 -0.11232139 -0.07007916 -0.3594612 -0.14314303
0.09112854 -0.34465197 0.014984898 -0.17573684 -0.13913248 0.18036258 0.10290759 -0.072694354
-0.010108057 0.2553499 0.5293521 0.318083 -0.04962411 0.5260867 -0.014748598 0.1158339
0.30198586 0.14785884 0.051738303 -0.13984582 -0.19561844 -0.06400102 0.33383426 -0.22254923
-0.16373 -0.09672865 -0.16864733 -0.027746819 0.4855062 -0.09349624 0.0648425 0.74522424
-0.51405025 0.043532442 -0.13437645 0.033754896 -0.07238676 -0.022824857 -0.10302025 -0.10778893
-0.038340338 0.019614076 -0.07785446 0.022781799 0.13957825 -0.06795893 0.40629858 0.13004136
0.06884045 -0.08739274 -0.07093008 0.11583281 0.4121332 0.14145261 -0.4493743 0.03658308
-0.09433621 0.01588484 -0.12475588 0.24550834 0.059426084 0.0300923 0.013373794 -0.1724917
-0.18437707 -0.13178554 0.027488211 0.08637726 -0.27533445 -0.18612264 0.5345253 0.066602334
-0.1190971 0.52994835 0.118075386 -0.25884596 -0.16937678 -0.04294704 -0.17677346 -0.2681998
-0.41774502 -0.029097466 0.076496124 -0.22191484 0.4604262 -0.06341502 -0.3599274 0.2356107
-0.16708946 0.14242198 -0.11933211 0.2674823 0.10356557 0.14517675 -0.11597905 0.23213424
-0.39748842 -0.23754564 -0.3000435 0.05724602 -0.24555162 0.121034905 -0.2904456 -0.29377368
-0.41574934 0.13452022 -0.3307676 -0.15293752 0.2628539 0.14847729 0.08865977 -0.020157656
0.2735342 0.8408004 -0.027730081 -0.008178549 0.13948743 0.090738945 -0.09697809 0.07843672
0.3166137 -0.27034184 -0.5320943 -0.19724981 -0.11566748 -0.22068445 0.053654417 -0.09250168
-0.24268676 -0.13689674 -0.10968285 0.4766689 0.42811134 -0.49072477 -0.3990982 -0.49367502
-0.42261723 0.019489186 -0.064632155 -0.01432955 -0.41383755 0.2524992 0.07126717 -0.41363892
-0.25802377 0.088206664 -0.06521073 0.058658805 -0.3147648 -0.02168124 0.0174757 -0.07486434
0.5660673 0.008318457 -0.63352805 -0.19652133 -0.11917604 0.41395575 0.32169566 -0.07829425
-0.01460064 -0.13923536 -0.0017291156 -0.18327554 -0.020692512 -0.22399628 -0.22405179 -0.338198
0.47806808 -0.053997368 0.110070616 -0.07161633 0.59787047 0.026226275 -0.07129872 -0.34165993
0.10961925 -0.117519155 -0.16438688 -0.1530206 0.1404966 -0.07552938 -0.12593155 -0.14253533
-0.23456495 -0.07836488 0.1924002 0.11547119 -0.15670751 -0.38163817 -0.06527571 0.32303497
0.15438026 0.06836197 -0.6654723 -0.013702794 -0.437297 -0.17001757 0.25590247 0.32403833
-0.31366184 -0.10005958 -0.64885163 -0.22203717 -0.06200281 0.08983546 -0.50787276 -0.0348658
-0.54181254 -0.07588229 0.030161742 -0.23727539 0.16952789 0.074314065 0.07984575 0.09202526
-0.329648 -0.04759254 0.21607277 -0.05674973 0.6985031 0.23803282 -0.10570738 0.11959293
00000000: afd0 8b3e 03a4 b63e 8d62 c13d 2953 063e
00000010: 2685 5bbe 1dcd 02be fa68 04bf 83a7 c03c
00000020: 38f3 a9be 45cd c83d 5372 15bd 9f4d 7d3c
00000030: 7c47 febd de00 86bd 38bc 3dbe dd7d 63be
00000040: 7bf2 fb3d b7b3 02be 20f4 cbbc d133 d3be
00000050: fb8f f5bd 57c8 b73e 9ef1 e5bd d027 00be
00000060: 0651 ee3b b18b d2be 3bc5 dd3e df63 cbbd
00000070: c208 e6bd aa85 8fbd 4c0b b8be 1694 12be
00000080: 9aa1 ba3d 3976 b0be 3883 753c 5cf4 33be
00000090: bf78 0ebe f8b0 383e 37c1 d23d c7e0 94bd
000000a0: 449c 25bc 39bd 823e 9f83 073f c6db a23e
000000b0: a742 4bbd 9ead 063f 1ba4 71bc 533a ed3d
000000c0: e49d 9a3e 4f68 173e 8beb 533d be33 0fbe
000000d0: 3350 48be f712 83bd 53ec aa3e f2e3 63be
000000e0: d6a8 27be ac19 c6bd e3b1 2cbe 4c4d e3bc
000000f0: 4594 f83e f57a bfbd 25cc 843d 04c7 3e3f
00000100: cc98 03bf 134f 323d fb99 09be 9342 0a3d
00000110: 823f 94bd 32fb babc 48fc d2bd 71c0 dcbd
00000120: c20a 1dbd b3ad a03c 2972 9fbd e5a0 ba3c
00000130: 9aed 0e3e 0d2e 8bbd 5e06 d03e 9029 053e
00000140: 39fc 8c3d f7fa b2bd ca43 91bd c139 ed3d
00000150: 1f03 d33e f4d8 103e 6314 e6be 24d8 153d
00000160: 5833 c1bd ed20 823c 0380 ffbd 8a66 7b3e
00000170: c468 733d 2184 f63c c21d 5b3c aaa1 30be
00000180: 58cd 3cbe caf2 06be f52e e13c 90e6 b03d
00000190: a3f8 8cbe ef96 3ebe a6d6 083f ce66 883d
000001a0: 2ee9 f3bd b2aa 073f 82d1 f13d 7587 84be
000001b0: 1b71 2dbe 3ce9 2fbd 1a04 35be 7c51 89be
000001c0: ade2 d5be cf5d eebc 00aa 9c3d a53d 63be
000001d0: fcbc eb3e bcdf 81bd 6748 b8be ee43 713e
000001e0: 8019 2bbe 11d7 113e 6564 f4bd 71f3 883e
000001f0: 301a d43d 37a9 143e 6d86 edbd 99b4 6d3e
00000200: 9a83 cbbe 2a3f 73be 4d9f 99be cd7a 6a3d
00000210: e271 7bbe 26e1 f73d 49b5 94be 8169 96be
00000220: 19dd d4be abbf 093e 5f5a a9be a79b 1cbe
00000230: c994 863e 6e0a 183e 4193 b53d ab21 a5bc
00000240: ad0c 8c3e b23e 573f 322a e3bc 52ff 05bc
00000250: cbd5 0e3e 57d5 b93d 739c c6bd 6ea3 a03d
00000260: 311b a23e 3f6a 8abe 5537 08bf dbfb 49be
00000270: 12e3 ecbd 1bfb 61be bcc4 5b3d 8571 bdbd
00000280: e182 78be a92e 0cbe 67a1 e0bd f20d f43e
00000290: 6931 db3e 4740 fbbe 9956 ccbe f9c2 fcbe
000002a0: 4961 d8be c9a7 9f3c dd5d 84bd 7dc6 6abc
000002b0: 84e2 d3be 9347 813e 86f4 913d 7bc8 d3be
000002c0: b11b 84be b2a5 b43d 348d 85bd 3744 703d
000002d0: da28 a1be db9c b1bc 3329 8f3c 7a52 99bd
000002e0: c9e9 103f 234a 083c e52e 22bf e33c 49be
000002f0: 9112 f4bd 02f2 d33e 4bb5 a43e bc58 a0bd
00000300: 8637 6fbc b793 0ebe 7ea3 e2ba 95ac 3bbe
00000310: 5883 a9bc 485f 65be d56d 65be 4a28 adbe
00000320: 57c5 f43e 582c 5dbd b46c e13d 95ab 92bd
00000330: 0a0e 193f 7cd8 d63c 1005 92bd 0dee aebe
00000340: 0f80 e03d e2ad f0bd 0955 28be 6fb1 1cbe
00000350: 57de 0f3e 26af 9abd 33f4 00be c8f4 11be
00000360: cb31 70be c47d a0bd 8f04 453e 297c ec3d
00000370: ef77 20be 1466 c3be 45af 85bd d764 a53e
00000380: dc15 1e3e 5c01 8c3d 655c 2abf af81 60bc
00000390: 64e5 dfbe 1619 2ebe a605 833e 5ae8 a53e
000003a0: 4998 a0be 09ec ccbd 241b 26bf b65d 63be
000003b0: a9f6 7dbd a7fb b73d f303 02bf 71cf 0ebd
000003c0: 3ab4 0abf 2d68 9bbd c215 f73c 52f8 72be
000003d0: b898 2d3e f931 983d 2b86 a33d bd77 bc3d
000003e0: 9fc7 a8be 65f0 42bd 2e42 5d3e 6872 68bd
000003f0: 19d1 323f e0be 733e 1c7d d8bd 23ed f43d

bias f4 [20]
0.20175792 0.16159888 0.013999101 -0.17513447 -0.18811828 0.10866547 0.13034958 0.00083235267
0.1297792 -0.12955949 0.25948173 -0.12873024 -0.13861603 -0.036727227 -0.018584382 -0.11173043
0.0653438 -0.055358622 0.12563346 -0.28859574
00000000: a199 4e3e 2d7a 253e 7c5c 653c 7356 33be
00000010: 14a2 40be 008c de3d 5c7a 053e 3e32 5a3a
00000020: d7e4 043e 3eab 04be cada 843e dcd1 03be
00000030: 5cf1 0dbe 4a6f 16bd 463e 98bc ecd2 e4bd
00000040: f8d2 853d b9bf 62bd 0fa6 003e d2c2 93be

weight f4 [20, 20]
0.0099447835 -0.2973077 -0.10074066 0.18905059 -0.2074445 -0.5249004 -0.043608308 -0.026470467
0.50491476 -0.082512476 0.013261215 0.1605461 0.16468063 0.03933656 0.008519836 -0.43924809
0.042657353 0.30366778 0.04155368 0.19176182 -0.007829141 0.016737837 -0.016167477 0.19825554
0.16495411 -0.09717189 -0.35885435 0.24863607 0.049072377 -0.0883545 0.20163773 0.087108836
0.06192324 -0.07451407 -0.03769783 -0.028127512 -0.08106135 0.19022271 0.080889896 -0.049402956
0.07003601 -0.3501208 0.006988636 -0.062543266 0.08644863 0.17053053 -0.08527577 -0.12051334
0.28908786 0.16572838 0.37130612 0.21146226 -0.0681009 0.23084204 -0.30421102 0.007590051
0.04122305 -0.097280174 -0.25207746 -0.064056344 0.10978055 -0.058364578 0.19006911 0.22903368
0.17213702 -0.013541826 -0.0390188 -0.24090944 -0.037873782 0.26577768 -0.26295036 -0.30468357
0.19801651 -0.36817202 0.21755755 0.03213357 0.16536301 0.35894322 0.083292626 0.019711634
-0.04258179 -0.021641545 -0.104841985 0.13824679 -0.0011406477 -0.04342464 -0.024501437 -0.031391546
0.09192265 0.003582437 0.041413352 0.0072837314 -0.019291406 0.18250614 -0.0047466466 -0.19052242
0.029327193 0.0034925512 -0.10777102 -0.153362 -0.33456448 0.24878441 -0.0945872 -0.01656676
-0.20471194 -0.31380486 0.03786208 -0.09653745 0.20127186 0.016466316 -0.12687173 -0.18420209
0.35631606 0.14346464 0.1706862 0.014505442 -0.0967284 0.19837263 -0.060292635 -0.17447318
-0.16007395 -0.03952414 -0.06903167 0.069857895 -0.3212898 -0.08055432 -0.029336452 0.2640716
0.22143571 0.0705502 -0.035695862 -0.05016026 -0.13764927 0.105814174 -0.21479955 0.1399979
0.11652224 -0.3820167 0.08981381 0.087374315 0.094572805 0.0207268 -0.23410547 0.33488432
-0.10766039 -0.1658249 0.114589594 -0.1807848 0.07500735 -0.08475922 0.22511676 0.16327041
0.23734193 0.0860408 0.04130774 0.15936714 -0.17660794 -0.037318587 0.06538458 0.18321264
0.35341266 0.051495664 -0.05049616 0.003572175 0.07860225 0.16671938 -0.06541964 0.051200118
-0.08713222 -0.034671936 0.09332444 -0.20909844 0.05871413 0.35762015 0.049385272 -0.19716607
-0.13292094 -0.10886323 -0.016409745 0.018412499 0.093589276 -0.33824816 -0.16092259 -0.09051919
0.1027083 0.043422543 0.12652436 -0.126638 -0.025754232 -0.1570219 -0.030912712 -0.13636504
-0.3009978 -0.060418963 0.22886403 0.4887108 -0.06708579 0.030883422 -0.07076054 -0.11671954
-0.27881473 -0.20449854 -0.112382054 -0.042534962 -0.07433596 0.22003016 0.22341426 -0.28429884
0.118641645 -0.030932825 -0.11092105 -0.1699881 -0.025275817 -0.1963439 0.033794556 -0.12721698
-0.15736564 0.010857067 -0.021915043 0.0639804 -0.049193442 -0.15165775 0.022229647 -0.17806856
-0.025549196 0.14994153 0.16992265 0.1879075 -0.26825833 -0.21080834 0.056866493 -0.16757877
-0.12124458 -0.15440002 -0.20065145 0.14568184 -0.11380605 0.3409644 -0.11462428 0.015150359
-0.24375142 0.20863526 0.019061474 0.0594656 0.21615882 -0.14067498 0.05327481 0.26672193
-0.047876246 0.035285264 0.09363286 -0.042340092 0.17703925 -0.21514174 -0.15569526 -0.055240665
00000000: 72ef 223c b738 98be 1f51 cebd 7a96 413e
00000010: 556c 54be df5f 06bf a09e 32bd 98d8 d8bc
00000020: 1842 013f 4dfc a8bd 9145 593c 3266 243e
00000030: 0aa2 283e 5f1f 213d c896 0b3c 20e5 e0be
00000040: 7ab9 2e3d 587a 9b3e 3134 2a3d 365d 443e
00000050: cc45 00bc ca1d 893c a871 84bc 8003 4b3e
00000060: bbe9 283e 0e02 c7bd c2bb b7be 749a 7e3e
00000070: 1e00 493d 34f3 b4bd 1f7a 4e3e 1e66 b23d
00000080: 39a3 7d3d d59a 98bd 0a69 1abd ab6b e6bc
00000090: 7e03 a6bd bec9 423e 9aa9 a53d c15a 4abd
000000a0: 0a6f 8f3d 0943 b3be ee00 e53b af16 80bd
000000b0: fb0b b13d 8e9f 2e3e 10a5 aebd b3cf f6bd
000000c0: 5303 943e b3b4 293e d61b be3e 9089 583e
000000d0: 7c78 8bbd db61 6c3e 8cc1 9bbe f6b5 f83b
000000e0: 80d9 283d d43a c7bd 4c10 81be f92f 83bd
000000f0: a0d4 e03d b20f 6fbd 7aa1 423e ce87 6a3e
00000100: b044 303e 89de 5dbc 2dd2 1fbd f7b0 76be
00000110: 8a21 1bbd 0314 883e 6ea1 86be 7cff 9bbe
00000120: d7c4 4a3e 0b81 bcbe 68c7 5e3e 7e9e 033d
00000130: ec54 293e 68c7 b73e 5395 aa3d 4b7a a13c
00000140: 3e6a 2ebd 9c49 b1bc 65b7 d6bd 9190 0d3e
00000150: c981 95ba 09de 31bd 3db7 c8bc 6c94 00bd
00000160: f141 bc3d 52c7 6a3b 0ca1 293d 5eac ee3b
00000170: 0309 9ebc e4e2 3a3e c289 9bbb 4f18 43be
00000180: 953f f03c 49e3 643b 0db7 dcbd ee0a 1dbe
00000190: 094c abbe 57c1 7e3e efb6 c1bd 04b7 87bc
000001a0: 02a0 51be 08ab a0be 4515 1b3d 6db5 c5bd
000001b0: 361a 4e3e 5ee4 863c aaea 01be 799f 3cbe
000001c0: 0f6f b63e 65e8 123e 5dc8 2e3e 3ca8 6d3c
000001d0: 8a19 c6bd 3222 4b3e 69f5 76bd 19a9 32be
000001e0: 6dea 23be 11e4 21bd 7a60 8dbd a811 8f3d
000001f0: 1980 a4be aaf9 a4bd 0053 f0bc 6534 873e
00000200: 0bc0 623e a07c 903d d335 12bd d874 4dbd
00000210: eef3 0cbe 1ab5 d83d 6af4 5bbe 9c5b 0f3e
00000220: 36a3 ee3d b197 c3be 4ef0 b73d 4ef1 b23d
00000230: 63af c13d 40cb a93c 58b9 6fbe f575 ab3e
00000240: 0d7d dcbd 01ce 29be f3ad ea3d a71f 39be
00000250: 749d 993d 3e96 adbd 0285 663e 5c30 273e
00000260: c309 733e 2936 b03d 4e32 293d 2431 233e
00000270: b6d8 34be 60db 18bd 5ae8 853d 189c 3b3e
00000280: 81f2 b43e 1eed 523d 10d5 4ebd 271b 6a3b
00000290: 37fa a03d 7cb8 2a3e bbfa 85bd 37b7 513d
000002a0: 6172 b2bd 2904 0ebd e220 bf3d e71d 56be
000002b0: 3a7e 703d fd19 b73e 3648 4a3d e7e5 49be
000002c0: 6d1c 08be aff3 debd bb6d 86bc cfd5 963c
000002d0: bcab bf3d dd2e adbe e4c8 24be 2062 b9bd
000002e0: bb58 d23d d6db 313d 9a8f 013e 64ad 01be
000002f0: 8afa d2bc 59ca 20be a83c fdbc 47a3 0bbe
00000300: 621c 9abe e079 77bd 555b 6a3e 4d38 fa3e
00000310: 4664 89bd 3bff fc3c e7ea 90bd a70a efbd
00000320: cec0 8ebe 1168 51be 9028 e6bd 2439 2ebd
00000330: 743d 98bd 964f 613e b5c6 643e 9e8f 91be
00000340: 64fa f23d d666 fdbc 932a e3bd 5c11 2ebe
00000350: 3b0f cfbc 600e 49be 296c 0a3d 2b45 02be
00000360: 7524 21be d7e1 313c 2d87 b3bc 2808 833d
00000370: 107f 49bd 2b4c 1bbe f31a b63c 9b57 36be
00000380: 8c4c d1bc 468a 193e 3400 2e3e d36a 403e
00000390: 2859 89be 24de 57be d7ec 683d c599 2bbe
000003a0: 144f f8bd 0a1b 1ebe 9377 4dbe 9f2d 153e
000003b0: 2513 e9bd e392 ae3e 22c0 eabd 3639 783c
000003c0: f999 79be 7ba4 553e cf26 9c3c 3392 733d
000003d0: bd58 5d3e 1a0d 10be b036 5a3d c78f 883e
000003e0: e219 44bd 4887 103d 96c2 bf3d ce6c 2dbd
000003f0: c749 353e 1e4e 5cbe 946e 1fbe 0944 62bd

bias f4 [20]
-0.02426769 -0.2520812 0.15655406 -0.5131847 0.38481462 -0.74373484 -0.75892466 0.32111844
0.047936015 -0.37203297 0.26521492 -0.15417351 0.71761775 -1.0563029 -0.5508239 -0.20446303
-0.021115124 -0.23644777 -0.82479286 -0.48266214
00000000: 09cd c6bc c910 81be b54f 203e 1360 03bf
00000010: 6c06 c53e 6865 3ebf e348 42bf a369 a43e
00000020: 8e58 443d 1b7b bebe 40ca 873e a9df 1dbe
00000030: ccb5 373f ef34 87bf cc02 0dbf c25e 51be
00000040: a0f9 acbc 5d1f 72be a025 53bf 7e1f f7be

weight f4 [20, 20]
0.16761158 -0.052164644 -0.31357405 0.5631806 0.183122 0.072266765 0.17790583 -0.018359918
-0.17312787 0.283115 0.40808675 -0.025060555 -0.20210375 -0.069574915 0.16056523 0.3823074
-0.1683216 -0.28666735 0.024597364 0.17226548 -0.0059537864 -0.121780425 0.035875015 0.22624297
-0.21621107 0.056383498 0.20028894 -0.16901763 -0.0654794 0.28360778 -0.00014710725 -0.07625811
-0.33494726 0.12867442 0.15811041 0.16226469 0.111438006 -0.19750477 -0.03831474 -0.09078041
0.21995759 0.15037473 -0.27663514 -0.09050728 -0.20265315 0.055789426 -0.051735647 0.3137139
-0.28468195 -0.14700246 -0.19508733 -0.20550928 0.020659233 0.070036665 0.14760469 -0.24906969
-0.24957469 0.21038553 -0.19533893 0.048149582 -0.06554667 -0.017450657 -0.21373026 0.50974274
-0.15609975 0.34642306 -0.08474458 0.12645327 0.00030008433 0.010068216 0.005208987 0.46217328
-0.10155437 0.24233288 0.09154157 0.3059107 -0.15892477 -0.44112608 0.07393546 -0.21552007
-0.027365163 -0.052751955 -0.28665844 -0.10493109 -0.05001726 -0.112177745 -0.06187231 -0.15041254
0.14008275 0.026486712 0.16475685 -0.084645584 -0.0066748224 -0.017081676 0.11411496 -0.057849653
0.022715244 0.15093052 0.02375295 -0.0057414514 0.4478336 0.14132835 0.42680466 0.5950207
-0.085088365 0.14007682 0.35360765 -0.039728086 0.086379744 0.10027166 -0.060452692 0.121998556
-0.29519835 -0.1690004 -0.226299 0.09907746 0.27419445 -0.5216861 0.121618 0.04347592
0.315216 0.05664981 0.66458946 0.6341978 0.01690189 0.23338644 0.020079669 -0.041222576
-0.17729469 0.09568097 0.035616294 0.21324266 -0.1280292 0.12041142 0.22208492 -0.18596485
0.10096981 0.02602056 -0.21182485 0.08356023 -0.25835377 -0.012553015 -0.31566712 0.32913134
0.017186565 -0.19619668 -0.12891403 -0.2813204 0.35088325 0.19381468 -0.082195245 -0.021671265
-0.2056361 -0.009927877 -0.030517861 -0.25575763 0.14238928 0.21192695 0.02099441 0.34606025
-0.10910316 0.2230935 0.051673602 -0.44800663 -0.023852212 0.09179435 -0.009623638 0.05794466
0.08062143 -0.03168431 -0.03621053 -0.035278503 0.01789684 -0.18962087 0.18300976 0.036517084
0.24670644 0.29067466 0.023167118 -0.08924788 0.09997229 0.19093098 0.31695473 0.38255313
-0.102557436 -0.08976009 -0.4047963 0.23176119 -0.030345792 -0.054418713 0.19562964 0.17027558
-0.32454053 0.40656462 -0.11858279 -0.15864491 0.26252636 0.026153421 -0.10085121 -0.104557104
-0.014530055 0.104844905 -0.14567037 -0.083260246 -0.048238583 -0.20940088 -0.024045436 0.13363259
-0.2416499 0.03742546 -0.042060483 0.2396352 0.48592868 -0.028612118 -0.31450114 -0.052713368
-0.06643485 -0.19011012 -0.06699799 0.07125869 0.21746899 -0.09001171 0.11756416 -0.16338767
-0.013765477 0.11284385 -0.32656968 0.11853474 -0.1390124 0.247625 -0.07495895 0.21285716
0.02375961 0.25459296 0.20191047 0.029265348 0.17773163 -0.20942125 0.03939441 -0.12991078
0.008095674 -0.3061617 -0.425486 -0.40516585 -0.12927045 0.12303203 0.05041825 -0.43994406
0.27903903 0.08973307 0.040179506 0.12787174 0.29191068 0.091145575 0.11165047 -0.0626785
00000000: 5fa2 2b3e 98aa 55bd c78c a0be 9b2c 103f
00000010: 5584 3b3e 9900 943d f22c 363e 8a67 96bc
00000020: 6f48 31be 73f4 903e bff0 d03e cb4b cdbc
00000030: 49f4 4ebe 4b7d 8ebd 366b 243e ccbd c33e
00000040: 7f5c 2cbe 10c6 92be 6980 c93c 5d66 303e
00000050: fb17 c3bb 0468 f9bd aef1 123d 3dac 673e
00000060: 6f66 5dbe 62f2 663d 8b18 4d3e f512 2dbe
00000070: 101a 86bd 0a35 913e cd40 1ab9 362d 9cbd
00000080: 357e abbe 3ac3 033e b2e7 213e b728 263e
00000090: 9c39 e43d b13e 4abe ebef 1cbd 14eb b9bd
000000a0: 903c 613e d5fb 193e 1fa3 8dbe e15b b9bd
000000b0: 4f84 4fbe 7483 643d c2e8 53bd 1c9f a03e
000000c0: d5c1 91be d087 16be f9c4 47be 0671 52be
000000d0: 8d3d a93c 626f 8f3d af25 173e 200c 7fbe
000000e0: 8290 7fbe 4e6f 573e ee06 48be 7f38 453d
000000f0: 553d 86bd aef4 8ebc 1bdc 5abe 807e 023f
00000100: 9dd8 1fbe 5d5e b13e 918e adbd f77c 013e
00000110: a354 9d39 29f5 243c 26b0 aa3b faa1 ec3e
00000120: bdfb cfbd 1c26 783e 267a bb3d 54a0 9c3e
00000130: 2dbd 22be 47db e1be 796b 973d 4bb1 5cbe
00000140: e82c e0bc 6f12 58bd e5c4 92be 1ce6 d6bd
00000150: e6de 4cbd 72bd e5bd d26d 7dbd bf05 1abe
00000160: da71 0f3e a9fa d83c 05b6 283e aa5a adbd
00000170: 78b8 dabb dfee 8bbc 1bb5 e93d c2f3 6cbd
00000180: 5215 ba3c 888d 1a3e 8c95 c23c c922 bcbb
00000190: 724a e53e 61b8 103e 2486 da3e 4753 183f
000001a0: cf42 aebd 4c70 0f3e 100c b53e ebb9 22bd
000001b0: dde7 b03d 3a5b cd3d 3e9d 77bd 61da f93d
000001c0: 3d24 97be 710e 2dbe edba 67be 20e9 ca3d
000001d0: 3763 8c3e 388d 05bf dc12 f93d ce13 323d
000001e0: fe63 a13e a209 683d 8922 2a3f c95a 223f
000001f0: d575 8a3c dbfc 6e3e 1e7e a43c 01d9 28bd
00000200: bd8c 35be 62f4 c33d 64e2 113d 495c 5a3e
00000210: 161a 03be 439a f63d 3b6a 633e 926d 3ebe
00000220: 42c9 ce3d 1229 d53c 9de8 58be a021 ab3d
00000230: f246 84be 29ab 4dbc 1f9f a1be e783 a83e
00000240: d7ca 8c3c c8e7 48be 0a02 04be 3a09 90be
00000250: f8a6 b33e 5b77 463e fb55 a8bd f087 b1bc
00000260: 4592 52be 89a8 22bc 9800 fabc aaf2 82be
00000270: 7fce 113e 6103 593e 78fc ab3c cf2e b13e
00000280: 7a71 dfbd 9f72 643e b3a7 533d 2061 e5be
00000290: b765 c3bc adfe bb3d 77ac 1dbc 6157 6d3d
000002a0: d91c a53d 68c7 01bd 7e51 14bd 3180 10bd
000002b0: 659c 923c f92b 42be e966 3b3e f092 153d
000002c0: 9da0 7c3e 4fd3 943e f8c8 bd3c 98c7 b6bd
000002d0: 46be cc3d 6983 433e e447 a23e 01de c33e
000002e0: a209 d2bd 23d4 b7bd 7641 cfbe ce52 6d3e
000002f0: bd97 f8bc 28e6 5ebd 2353 483e b95c 2e3e
00000300: 2d2a a6be 3d29 d03e 89db f2bd d073 22be
00000310: db69 863e b33f d63c 148b cebd 0922 d6bd
00000320: 780f 6ebc edb8 d63d 9d2a 15be 5984 aabd
00000330: d295 45bd 2f6d 56be effa c4bc fbd6 083e
00000340: 1273 77be 704b 193d 9d47 2cbd ee62 753e
00000350: a5cb f83e f663 eabc 4b06 a1be f9e9 57bd
00000360: ff0e 88bd 3aac 42be 3e36 89bd 13f0 913d
00000370: 31b0 5e3e 0f58 b8bd 7ac5 f03d 194f 27be
00000380: 9888 61bc ad1a e73d 2434 a7be 57c2 f23d
00000390: 4459 0ebe 6891 7d3e 1484 99bd 3af7 593e
000003a0: 83a3 c23c 025a 823e 9ec1 4e3e e2bd ef3c
000003b0: 48ff 353e 8672 56be 085c 213d 5507 05be
000003c0: b8a3 043c 3ac1 9cbe 4dd9 d9be e671 cfbe
000003d0: 795f 04be 38f8 fb3d 5e83 4e3d 5940 e1be
000003e0: 34de 8e3e f9c5 b73d 4493 243d cff0 023e
000003f0: 5175 953e 88aa ba3d 00a9 e43d 965d 80bd

bias f4 [20]
-0.1050175 -0.011409444 0.10432811 -0.11072522 0.18734258 0.037874267 -0.017814726 -0.16803268
-0.24359173 0.2505749 0.10911689 0.15731566 0.04382023 -0.19798669 0.09904673 0.18270995
-0.2980202 -0.2784297 -0.052364666 -0.13140765
00000000: 6a13 d7bd adee 3abc faa9 d53d e7c3 e2bd
00000010: bcd6 3f3e 0c22 1b3d 30f0 91bc c210 2cbe
00000020: 1c70 79be 5a4b 803e ad78 df3d 5b17 213e
00000030: d77c 333d 06bd 4abe 03d9 ca3d 5118 3b3e
00000040: 1b96 98be 568e 8ebe 557c 56bd ba8f 06be

weight f4 [20, 20]
-0.35317093 0.23990944 0.0016090877 -0.16667907 0.11955087 0.064065315 -0.027186671 -0.32677594
-0.06490287 -0.05279561 0.02310706 -0.05620276 -0.013068933 0.036805943 -0.11737403 -0.25360516
-0.25911433 0.19403005 -0.29589593 -0.13570413 -0.35091057 -0.32235914 0.06678828 -0.019601917
-0.18814483 0.14927812 -0.0073377513 0.08974479 -0.0113015985 -0.037274785 0.18399972 0.32209694
-0.05900367 0.031365547 0.112070054 -0.07882033 -0.038604982 0.15939981 0.066704966 -0.027371405
0.21140663 0.097115174 0.02752675 0.30840915 -0.07325002 0.18838383 0.34419775 -0.18827966
-0.08024887 -0.044010162 0.017996958 0.04538322 0.16427492 -0.3382819 0.34936762 0.02367666
0.19736819 0.12135928 -0.13051553 -0.2348429 -0.013841667 0.31292403 -0.055301175 0.18500249
0.048814647 -0.23273759 0.17795031 -0.02670343 -0.19898379 0.109412976 0.034579795 -0.07684163
-0.31638744 0.07183568 0.17969365 0.07308446 0.024079174 -0.023694176 0.09345 0.12040815
0.17175692 0.16915622 0.007170464 0.16596623 0.045104396 -0.08474822 -0.25247955 -0.06286184
-0.2586236 0.2095946 -0.02140048 -0.46674475 -0.0048807003 0.0405584 -0.23559985 0.109957084
-0.22192845 0.20125657 -0.08167568 0.21324894 0.067598425 -0.3720483 0.16173273 -0.16535032
0.008172476 -0.44025165 0.16541418 -0.024018312 0.05305725 -0.22250775 -0.14300078 0.21555293
-0.37432647 -0.093477435 0.25070605 -0.013869159 0.13677655 0.0033935024 0.28649065 -0.039701853
-0.15878625 -0.10801796 0.22611767 -0.13464579 -0.117192194 0.037368853 0.17765106 -0.2019629
-0.3338145 0.09346273 -0.17996047 -0.15664762 0.06509934 0.09115979 -0.11852047 -0.13242273
-0.0087078195 -0.24178894 -0.0557067 -0.12651734 0.04331724 0.041380394 0.018741203 0.1762163
0.41320246 0.25956333 0.24920626 -0.042896017 0.23042327 0.048523 0.0060156775 0.23542419
0.1237621 -0.16006806 -0.017295932 -0.19929944 -0.06455387 -0.49948442 -0.06132028 -0.32845923
-0.25518286 0.05984396 0.109473184 -0.15829387 0.4538495 0.08318119 -0.2411825 -0.17935352
-0.11210672 0.19066797 -0.103970535 -0.13902761 0.31297153 0.06012299 -0.08084442 -0.10180016
0.17676732 0.2099279 -0.024413653 -0.34635913 -0.30535412 -0.21010198 0.08272071 0.043095484
0.102052316 0.048598196 -0.6101668 0.15662433 -0.22527793 -0.0397598 -0.16267307 -0.11825787
-0.15547715 0.11242232 0.017954556 -0.40275025 -0.2953727 -0.07092449 -0.2307878 -0.051264487
0.046374235 0.005285213 0.26857892 -0.05961844 0.06427588 -0.25832266 0.12382482 0.06376176
-0.16903955 -0.13859102 -0.15347831 0.1448748 0.37500843 -0.0017699001 -0.18022378 0.14860919
-0.18548752 0.014136876 -0.15706617 0.10862813 0.3461395 0.22246662 0.19054899 -0.14811383
-0.04759111 -0.104209624 -0.1839596 -0.12342084 -0.22002202 0.037430137 0.07736753 -0.024577377
-0.13724838 0.0835683 -0.17090516 -0.21884787 0.014261974 0.036400758 0.07855597 -0.24769254
0.16754055 -0.16017897 0.33274347 0.104336634 0.12652041 0.06465834 -0.13716656 0.25202665
-0.30085468 -0.026454424 -0.13297045 0.026672184 -0.076152414 0.0058325776 0.12288396 -0.21555792
00000000: d2d2 b4be d2aa 753e 06e8 d23a ebad 2abe
00000010: 16d7 f43d ad34 833d 95b6 debc 2d4f a7be
00000020: cceb 84bd 3640 58bd 044b bd3c de34 66bd
00000030: 141f 56bc d4c1 163d cc61 f0bd 89d8 81be
00000040: a2aa 84be d0af 463e ac7f 97be 06f6 0abe
00000050: 8daa b3be 420c a5be 4bc8 883d 3394 a0bc
00000060: 0aa9 40be 5ddc 183e 8571 f0bb 1ecc b73d
00000070: 572a 39bc 72ad 18bd 6c6a 3c3e e4e9 a43e
00000080: d5ad 71bd 2979 003d fc84 e53d 8e6c a1bd
00000090: 4220 1ebd b439 233e 9d9c 883d ff39 e0bc
000000a0: fb7a 583e 52e4 c63d c77f e13c cee7 9d3e
000000b0: 1b04 96bd b1e7 403e b03a b03e 62cc 40be
000000c0: 8559 a4bd 0044 34bd 5b6e 933c c1e3 393d
000000d0: af37 283e 4933 adbe 50e0 b23e 8ef5 c13c
000000e0: e31a 4a3e 378b f83d dda5 05be a87a 70be
000000f0: 29c8 62bc 9437 a03e 7c83 62bd 4b71 3d3e
00000100: def1 473d c352 6ebe 9b38 363e 27c1 dabc
00000110: 68c2 4bbe e913 e03d 8ba3 0d3d 255f 9dbd
00000120: 89fd a1be 961e 933d 9d01 383e 4ead 953d
00000130: b041 c53c 4a1a c2bc b762 bf3d 8c98 f63d
00000140: 0ce1 2f3e 4a37 2d3e 36f6 ea3b 0df3 293e
00000150: 63bf 383d 7a90 adbd 0045 81be b5bd 80bd
00000160: 506a 84be f89f 563e 0f50 afbc 2bf9 eebe
00000170: 48ee 9fbb 9120 263d 1641 71be 2e31 e13d
00000180: 3641 63be 3416 4e3e 9445 a7bd ee5d 5a3e
00000190: 0b71 8a3d 1d7d bebe 449d 253e 9851 29be
000001a0: d9e5 053c aa68 e1be 5662 293e 0dc2 c4bc
000001b0: 8f52 593d 12d9 63be cc6e 12be e8b9 5c3e
000001c0: b8a7 bfbe 1971 bfbd 8b5c 803e 783b 63bc
000001d0: 270f 0c3e 8665 5e3b e7ae 923e 699e 22bd
000001e0: dd98 22be 8538 ddbd 648b 673e 96e0 09be
000001f0: 7602 f0bd 1510 193d 29ea 353e 5dcf 4ebe
00000200: bce9 aabe 6369 bf3d 8f47 38be 3c68 20be
00000210: ce52 853d fcb1 ba3d dcba f2bd d399 07be
00000220: 3eab 0ebc 8597 77be b52c 64bd c38d 01be
00000230: 6b6d 313d 7d7e 293d 2787 993c 0c72 343e
00000240: 468f d33e 7ce5 843e ed2f 7f3e bcb3 2fbd
00000250: 14f4 6b3e 0ec0 463d 291f c53b 0a13 713e
00000260: fc76 fd3d e2e8 23be 33b0 8dbc 2715 4cbe
00000270: d234 84bd 6cbc ffbe f92a 7bbd cf2b a8be
00000280: 54a7 82be f11e 753d 7a33 e03d ca17 22be
00000290: f65e e83e e65a aa3d 8cf8 76be 73a8 37be
000002a0: 3598 e5bd 773e 433e 81ee d4bd 415d 0ebe
000002b0: ce3d a03e 8643 763d c291 a5bd 9a7c d0bd
000002c0: 7e02 353e 57f7 563e 24ff c7bc fc55 b1be
000002d0: 6057 9cbe f924 57be 7a69 a93d e484 303d
000002e0: ce00 d13d e70e 473d e433 1cbf 2162 203e
000002f0: 42af 66be 2cdb 22bd c593 26be 2f31 f2bd
00000300: 6735 1fbe ac3d e63d 6f15 933c 4835 cebe
00000310: 173b 97be dc40 91bd a353 6cbe b6fa 51bd
00000320: e9f2 3d3d 942f ad3b 2d83 893e 7732 74bd
00000330: 13a3 833d de42 84be de97 fd3d 8795 823d
00000340: b418 2dbe ceea 0dbe 6b29 1dbe 0f5a 143e
00000350: 1b01 c03e fefb e7ba 958c 38be 022d 183e
00000360: 71f0 3dbe 5b9e 673c f4d5 20be 6d78 de3d
00000370: 3239 b13e 4ace 633e 461f 433e 27ab 17be
00000380: e5ee 42bd db6b d5bd e85f 3cbe 11c4 fcbd
00000390: 744d 61be 5850 193d de72 9e3d 7f56 c9bc
000003a0: d78a 0cbe db25 ab3d c301 2fbe a819 60be
000003b0: 0eab 693c f618 153d f4e1 a03d 1da3 7dbe
000003c0: c08f 2b3e f505 24be 5a5d aa3e 72ae d53d
000003d0: 918e 013e 976b 843d 6475 0cbe a309 813e
000003e0: a009 9abe f3b6 d8bc 6829 08be a07f da3c
000003f0: ccf5 9bbd 351f bf3b 96aa fb3d 37bb 5cbe

bias f4 [20]
-0.099730134 -0.06589576 -0.1639916 -0.36499673 -0.3126708 -0.17096525 -0.22795314 -0.30375254
-0.09901132 -0.464926 0.19025578 0.011685398 -0.1583795 -0.09822165 -0.05942058 -0.16584282
0.04143461 -0.098904654 0.043416373 -0.28514925
00000000: 503f ccbd 5bf4 86bd 6aed 27be dae0 babe
00000010: 6316 a0be 8411 2fbe 8c6c 69be 7485 9bbe
00000020: 72c6 cabd c80a eebe 69d2 423e 1d74 3f3c
00000030: 3c2e 22be 6f28 c9bd fe62 73bd b3d2 29be
00000040: 56b7 293d 868e cabd 5ed5 313d 15ff 91be
