programming_homework/03/code/part_3_1/encoder.pt (torch, 116038 bytes, 26 tensors)

weight f4 [29, 20]
00000000: df1a 60bf c0a7 31c0 ce2c 6c3e c2b9 883e
00000010: f823 f33d 1d75 673f d805 f03e e9bb 06bf
00000020: 3ad4 5fbf 3bbd 443f 6bde 81bf 4420 69bf
00000030: 8030 933e 71f6 423f e90a 72be 2d51 fb3e
00000040: 33a1 f2bd ed65 00bf e98f dbbd 7121 0cc0
00000050: 8287 75be 0a24 0f3f 9117 6f3f 96db 033f
00000060: 7ab4 0d3f d2ff f2bd d6b4 243f 7363 593f
00000070: b55f 613e f958 063f 28d8 88be 952d 7ebd
00000080: e92a 433c a2bb 75be 5461 823f 5856 86bf
00000090: af9e a9be 87e8 92bf bcfe 1a3f 0bf6 b8bf
000000a0: d4e2 78bd a7e4 123d 81b9 743d e876 49bc
000000b0: 0c5d 8fbe de34 0cbf 7b34 32bf c850 27bf
000000c0: bec8 87bf ecf8 16bf 8b85 6ebd 1c10 3ebf
000000d0: 9df8 20bf dc1d 32bf 9258 c8bf 5d45 ec3f
000000e0: 56f8 103d fdeb 453e a829 593f d560 86bf
000000f0: 3d42 15be 036b bebe 25e4 fabe 33f4 973c
00000100: 503e 0bbf 3aa2 933f 136a 063f abd2 86bf
00000110: 266b 9d3f c57a 9f3d d1d7 6d3f fb58 4cbe
00000120: e2df 2fbf 4295 86bf 7a10 56bf 8ef3 25bf
00000130: 18cf 7b3f c476 7f3f f429 dbbd f93c 40bf
00000140: 4fe1 d63e db53 2c3e ea45 be3e ed23 74bf
00000150: bbda c23d 6c1d 9abe 1d07 c9bd 2429 d6bf
00000160: 0881 1d3f 41f9 153f b74a acbe 2e70 443f
00000170: 3341 1bbf 6abb 11bf 5cb2 d13f 84ba 483f
00000180: 7fea 74be b51b 853e e0bf 203e f197 6abf
00000190: 91af cdbe 3ea9 acbe 806e 033f a2a8 113f
000001a0: 403e 073f faeb 83bd c3e9 f13e 6438 7d3e
000001b0: 2bb8 17bf 75af 42bf 4677 62bf 0b0d c9be
000001c0: 9863 dc3c efc7 24bf 9f82 84bf 8af0 26bf
000001d0: 394e 4e3f 4943 a0bf 92e4 403e ca79 53bf
000001e0: f95d 5d3d ff85 2fbf eaed 2c3f 5d2f 9abe
000001f0: ef98 86bf 7ff5 63bf d615 12bf cb4d 67bf
00000200: 40f1 30bf 5c29 10bf 97f9 d5bf a135 dcbe
00000210: e9a9 f33f 4e7b 4dbf cb54 93bd 2af5 abbe
00000220: de17 183e c5b5 22bf 861f 50bf 47e2 cabe
00000230: d4c4 e0be 16a2 dabe 3e8e 27bf c787 933d
00000240: 7d04 a3bc 214e 523f 6b41 4c3d 0500 68bf
00000250: 0725 36be 9935 08bf 764a c73e cc60 14bf
00000260: 5dc4 a53f 7f43 12c0 dc5f 073e 5852 fc3e
00000270: c28a b03f 1f50 00bf 9616 c7be d30b 97be
00000280: ccfd 0d3f 9ebf 593e 08fa 293f fdf9 9e3c
00000290: 962d 6dbe 6631 33bd 7aef f1be 384c e9bf
000002a0: 7e94 3ebf a893 973f b830 f33e 22c7 aabf
000002b0: 7a88 b63f 2940 98bf 2950 663f 251d 14be
000002c0: bdf1 393d f36f 61bf bdcb f13f ef98 aa3e
000002d0: 3adb bc3b f62c d43e 9b88 b53f 7b95 823e
000002e0: 2020 eebe 6ff6 4cbf 9fe3 1c3e 85ce 7abe
000002f0: f92d 72be 6d1d 51bd 9ffc a5bd 7d54 d5be
00000300: 1589 943d eb43 9a3e d8ed cbbe 0ecf 51bf
00000310: 40bd 2d3f 7ef4 923e ca91 d23f 0b8e eabf
00000320: b55b 36bd 87a3 08bf e667 0cbf 5b13 81be
00000330: a440 dfbd 78ca 1abf ef3f e2bf a158 c5bf
00000340: 1df5 f5bd efa9 2ac0 2547 a73f c263 c03e
00000350: 59ad 9c3e 158a 27bf c95a 3cbf e5f7 033f
00000360: 10bb f03e 5e73 043f 3f08 c4be ac3d f6bf
00000370: 24ac 21be e224 14bf 0b90 a6bc 5dab 95be
00000380: 9623 5dbf c619 46bf 0efe 0fbf 1aa3 88bf
00000390: c5a1 bebe 700e f83f 7d37 873f 397a 1fbf
000003a0: c078 c83e f222 d1bf 59c2 fd3e bf23 e0be
000003b0: e31b 3cbf aedb 7b3e 715b a33d 84c2 fcbe
000003c0: 0c7c 4ebe bce9 65be 52b1 7d3e 949b 01be
000003d0: 931b 11bf b36d 74bf c869 88bf b148 803f
000003e0: 8bbd a73e d370 a7bf d18f 6ebf 7d27 e2bf
000003f0: 0f51 95bd d88f 60be 7e85 813e f14b ea3e
-0.87541 -2.7758636 0.23063967 0.26704222 0.11872095 0.90413076 0.46879458 -0.5263048
-0.8743321 0.7685124 -1.0146002 -0.9106486 0.2874794 0.7615729 -0.23636974 0.4908537
-0.118471526 -0.50155526 -0.10720808 -2.189541 -0.23977473 0.55914366 0.93395334 0.51506937
0.5535351 -0.118652 0.64338434 0.8491737 0.22009166 0.5247951 -0.26727414 -0.06205519
0.011912086 -0.23997357 1.0185952 -1.04951 -0.33128878 -1.1477212 0.60544944 -1.4450086
-0.060763195 0.03586259 0.059747223 -0.012296416 -0.28000677 -0.5476817 -0.6961133 -0.6535764
-1.0608137 -0.58973575 -0.058232825 -0.7424333 -0.62879354 -0.6957681 -1.565203 1.8458668
0.03539308 0.19328304 0.8482919 -1.0498301 -0.14576049 -0.37191018 -0.49002185 0.01854906
-0.54391956 1.1533883 0.52505606 -1.0533041 1.2298324 0.07787088 0.92907435 -0.19955818
-0.68700993 -1.05143 -0.8361889 -0.6482476 0.98362875 0.99790597 -0.10701361 -0.75093037
0.41968772 0.16828863 0.37162715 -0.9536732 0.09514376 -0.30100572 -0.0981581 -1.6731305
0.6152501 0.58583456 -0.33650753 0.7673367 -0.6064636 -0.56926596 1.6382556 0.784096
-0.23917578 0.259977 0.15698195 -0.91638094 -0.4017301 -0.33722872 0.51340485 0.5689794
0.5282936 -0.06441493 0.4724866 0.24728543 -0.59265393 -0.76048976 -0.88463247 -0.39267763
0.026902959 -0.64367574 -1.0352362 -0.65210783 0.8058811 -1.2520534 0.18837193 -0.8260771
0.054044697 -0.68563837 0.6755053 -0.3011426 -1.0515422 -0.8904647 -0.5706457 -0.9035308
-0.6911812 -0.5631311 -1.6716794 -0.43009666 1.9036227 -0.80266273 -0.07193907 -0.33585483
0.14852855 -0.6355861 -0.812981 -0.3962576 -0.43900168 -0.42701787 -0.6545142 0.07203632
-0.019899601 0.82150465 0.049867075 -0.9062503 -0.17787562 -0.53206784 0.38923997 -0.579602
1.295055 -2.2853696 0.13220161 0.49281573 1.3792346 -0.50122255 -0.3888442 -0.2950121
0.5546539 0.21264502 0.6639714 0.019406313 -0.23161921 -0.043748282 -0.4725302 -1.8226385
-0.7444533 1.1841936 0.47498107 -1.334202 1.4260399 -1.189458 0.89966065 -0.14464243
0.045396555 -0.88061446 1.8890301 0.33319804 0.0057634385 0.41440552 1.4182314 0.2550467
-0.46508884 -0.8006353 0.15321206 -0.24492843 -0.2365035 -0.051053453 -0.08104824 -0.41666022
0.07252709 0.30129942 -0.39829898 -0.81956565 0.678669 0.28702158 1.6450741 -1.8324598
-0.044521052 -0.5337452 -0.54846036 -0.2521008 -0.10901001 -0.6046519 -1.7675761 -1.5417672
-0.12009642 -2.666622 1.3068587 0.3757611 0.30601004 -0.6544507 -0.7357603 0.5155013
0.47017717 0.51738536 -0.3828754 -1.9237571 -0.15788323 -0.5786878 -0.020332357 -0.29232302
-0.86382425 -0.7738308 -0.5624703 -1.0674775 -0.37232795 1.9379406 1.0563809 -0.6229587
0.39154625 -1.633879 0.49562338 -0.43777272 -0.7348005 0.2459552 0.079764254 -0.49367154
-0.20164508 -0.22452444 0.24774674 -0.12657005 -0.566827 -0.9547989 -1.0657282 1.0022184
0.32761797 -1.3081306 -0.93188196 -1.7668301 -0.07290851 -0.21929872 0.2529716 0.45761064

weight f4 [20, 20]
00000000: ef25 933d 3e31 bcbd bf5c 07be eca5 523d
00000010: 72e1 38be ce1a 003e 9a02 1cbc 2024 653e
00000020: c075 333e 9ec7 b13d c5c6 7cbd 173a aebd
00000030: 3e44 6ebe 98e9 933c 62f2 01be bf0c e2bc
00000040: 818c 783e ce7a a43d 7ca1 a53a 005f 4f3c
00000050: ba3c 963e c555 1ebd b396 143e 9e86 923e
00000060: 7b6b 8c3e 0b36 253e 070b d2bd 9a1a ef3d
00000070: 7ca9 b9bb c4f0 e4bd c04d e23d 229b a73e
00000080: 4695 623e 6ca2 a0bd bd62 053d cf8a 5cbd
00000090: cf17 0b3d 71a7 253e a4b5 64be aa92 e1bd
000000a0: ce00 d9bb f6b2 0ebf e891 c23e 28d8 de3d
000000b0: 1c70 17bd 7dd7 9fbd a169 72bd 3881 d73d
000000c0: 67c4 de3e 2d18 4bbd 6bd6 7d3e b558 83bd
000000d0: bc34 d4bd df8a 87be 010e a7bd 65c6 3ebe
000000e0: 6cc3 24bd c368 45be e278 4d3e 8e86 843e
000000f0: bef6 98bb 5176 18bc d32e 13be 89bf 81bd
00000100: f844 99bb db2e 35be 1472 ba3d 7dae b23c
00000110: a629 04be 8028 03bd deb8 2e3d 0d10 32bd
00000120: 4d28 2b3d a9ff 9e3d 8b81 063e 9eca c03d
00000130: 4bb8 d83c a2ca 4c3e f2c4 d43d f4fd a53d
00000140: 0efe 843d d350 7e3d a639 633d 76c3 e73c
00000150: 71b6 35bc 6720 df3d 2679 933d 0e53 e2bd
00000160: 5c1d 21be a188 173d e033 32bc 220e b83d
00000170: e762 153c a3c0 c83d 25f8 87bc 36fd 6bbd
00000180: b791 afbd 27cd dc3c 12f9 843c 7b24 a23d
00000190: e362 acbd 155c 8bbe e9c1 493e e950 1a3e
000001a0: bf01 29bc d616 54be 56f6 a83d 3090 893d
000001b0: 2dac 0e3e 7941 0abe d7a9 463e 4ed1 923d
000001c0: 7f22 debd 31ee 8dbc 796f e2bd 163e a93c
000001d0: da7f cbbd 88bb 233d f16f 593d e6b8 803e
000001e0: c5e8 a63d 6c73 593e eb21 01be a72b dabe
000001f0: ec32 683e 5ea1 89be 2f0e 1a3e 4085 b3bd
00000200: 97d1 68be 38d7 8fbc f627 363e cc48 4f3d
00000210: 418d 8fba 770e a53e d496 45be e284 4dbd
00000220: c859 33bd 5ffd 8ebd ea87 5bbe 6f51 4ebe
00000230: d2db 71bd 0294 883e 87b8 aabe 57a2 acbe
00000240: f5d7 0dbe 82e1 b83e 46af 203e 81e7 d5bd
00000250: c38d adbe 0176 193e db0e 2ebe 9d4b bebd
00000260: f52e 993d 6f7c 55bd 2374 99bc 5658 6bbc
00000270: 9ca4 553d af48 b03d 944b 3ebd 3616 77be
00000280: fe09 df3d c5a3 103e f95d b0bd 9cc9 8fbd
00000290: a9bd 64bc d25f 843e b47d 27bd d5ee 85bd
000002a0: bf32 1e3e 1a48 203d 370d d5bd 4da3 3e3d
000002b0: 936a c13d d4b8 083e 982c 97be 5b36 91bd
000002c0: ceb8 893d 0f80 2cbe e9e7 05bc 162f 58be
000002d0: 288c 363e 7141 893d 77e3 45be dfd4 76be
000002e0: 719a a7bd 5331 68be 027f 213e 5ace ff3d
000002f0: c443 eebe f593 20be bc6e d13d be20 813c
00000300: fff6 a83e cdb8 99bd 74fe b93d 29b4 1f3e
00000310: d6d7 273e f38c be3c 18d2 46bd 9c8c 5bbe
00000320: 0395 b3bd 94b6 3fba f00f 933e 1762 e5be
00000330: 14cd 1e3f 0cdd 50be e1df 3d3e 3b5f ac3c
00000340: f0a9 883e 4032 1abe 825a 783e 54a7 31bd
00000350: 16aa 7a3e ddab 6fbd e9a6 953c 5dba 5c3d
00000360: 618d a9bd ae03 633e 1d02 5fbd 33ca 063e
00000370: 9794 92be bfb1 6fbd 3c97 91bd 659a f1bd
00000380: e51c ffbd 7508 053e cb90 e73b 2877 043c
00000390: b625 83be 501a c4bd 66b3 9cbd cb3a 383e
000003a0: de50 0bbe 1fd6 85be 6622 1a3e da89 44be
000003b0: 0853 403e 89d2 ec3c a749 3abe 04dd 78be
000003c0: f754 903e a79a e33d 92ef 43be eaf5 65bd
000003d0: 140b fdbd 3932 cf3c c480 073e 79bf bf3d
000003e0: b814 063d ef9f c03c f40d 17be 7528 c93c
000003f0: 2393 fd3c 9875 453e 2396 bfbb 7c3a 443e
0.0718497 -0.0918908 -0.13218974 0.051427767 -0.1805475 0.12510225 -0.009522105 0.22377062
0.17525387 0.08680652 -0.061713 -0.085071735 -0.2326822 0.018055722 -0.12690118 -0.027593968
0.24272348 0.08031236 0.0012636627 0.012656927 0.29343206 -0.038656015 0.14510612 0.2861833
0.2742575 0.16133897 -0.102560095 0.11674996 -0.005665956 -0.11178735 0.11049986 0.32735544
0.22127256 -0.078434795 0.032564867 -0.053843316 0.033958253 0.16177155 -0.22334915 -0.11014302
-0.0066224104 -0.5574182 0.38001943 0.10881072 -0.03697215 -0.07804773 -0.059182767 0.105226934
0.43509218 -0.049583603 0.24788825 -0.06413404 -0.10361621 -0.26473138 -0.08156968 -0.18630369
-0.04022543 -0.19278245 0.20065644 0.25883907 -0.004668086 -0.009305553 -0.14373331 -0.063353606
-0.004677411 -0.17693655 0.0910379 0.021811718 -0.12906513 -0.032021046 0.04265677 -0.04347234
0.04178648 0.07763607 0.13135354 0.09413646 0.026455065 0.19999173 0.10389127 0.08105078
0.064937696 0.0620888 0.0554749 0.028291445 -0.011090861 0.10894852 0.072008416 -0.11050998
-0.15733856 0.036995534 -0.010876626 0.089870706 0.009117818 0.098023675 -0.016597817 -0.057614528
-0.08572715 0.026953293 0.016232047 0.07917114 -0.08417299 -0.2721869 0.19702877 0.15069927
-0.010315358 -0.20711836 0.0825011 0.06716955 0.13932867 -0.13501538 0.19400726 0.07168828
-0.10846423 -0.017325493 -0.11056418 0.020659488 -0.09936495 0.039973766 0.05308527 0.25141066
0.08149866 0.21235436 -0.12610595 -0.4261143 0.22675675 -0.26880926 0.15044473 -0.0876565
-0.22736202 -0.017558679 0.17788681 0.050606534 -0.0010952131 0.32237598 -0.19295818 -0.050175555
-0.043786794 -0.069819205 -0.21438566 -0.20148252 -0.059047528 0.2667542 -0.33343908 -0.33717605
-0.13851912 0.3610955 0.15691862 -0.104445465 -0.33897218 0.14986421 -0.16997854 -0.09291766
0.074796595 -0.052120622 -0.018732136 -0.014364323 0.052158937 0.08607613 -0.046458796 -0.24129567
0.10890578 0.14124973 -0.08611674 -0.07020876 -0.013961234 0.25854355 -0.040891364 -0.06539694
0.15449046 0.03913126 -0.10402911 0.046542455 0.094441555 0.13351756 -0.2952621 -0.070904456
0.06724702 -0.16845725 -0.0081729675 -0.21111712 0.17826903 0.06701935 -0.19325052 -0.24104641
-0.08183754 -0.22675066 0.15771106 0.1249053 -0.46536076 -0.15681441 0.10226199 0.015762683
0.33000943 -0.07505951 0.09081736 0.1559607 0.16390929 0.02326057 -0.048540205 -0.21440357
-0.08768656 -0.0007313278 0.28723097 -0.448014 0.62031674 -0.20396823 0.18542434 0.021041503
0.26692152 -0.15058231 0.24253276 -0.043372467 0.24478945 -0.05851351 0.018268066 0.053888667
-0.08278919 0.22169372 -0.054445375 0.1316307 -0.2862899 -0.05851912 -0.07108924 -0.117970265
-0.12456683 0.12991507 0.007066821 0.00808505 -0.2561471 -0.09575331 -0.07651405 0.17991178
-0.13605067 -0.26139924 0.15052184 -0.19193211 0.18781674 0.028908985 -0.18192159 -0.24303061
0.28189823 0.11113482 -0.19134358 -0.056142725 -0.123556286 0.025292503 0.13232714 0.093626924
0.032734603 0.023513762 -0.14751416 0.024555424 0.03095395 0.1928314 -0.005846755 0.19162935

bias f4 [20]
00000000: deb9 63bd 105d a0bd 37a5 5c3c 9bf5 28bd
00000010: 015c 1cbe 93a8 98be 8134 09bf 40e1 233e
00000020: 29c0 c03d 1c24 aebd 4013 37be 227a 893e
00000030: 4fc3 3cbe b643 8e3d 73b4 cfbd b55b 753c
00000040: 47b3 91bd f3d0 47be 8dc9 2b3e a717 b93b
-0.05559718 -0.0783025 0.013467125 -0.041249853 -0.15269472 -0.29816112 -0.5359574 0.16003895
0.09411652 -0.08502981 -0.17878437 0.26850992 -0.1843388 0.069465086 -0.1014184 0.014975478
-0.071142726 -0.19513302 0.16776104 0.0056485715

weight f4 [20, 20]
00000000: e1aa d23d d24a 8e3d 28aa 29be 4054 5c3e
00000010: 5107 cf3b 1e4c e0bc 4d9c 503d 4516 0fbe
00000020: ffcd a13b 7372 713d 6e37 4cbd 265d 343c
00000030: d31a 0e3d c64b e53c ebfa ae3d 14ee a13d
00000040: 8ae7 d1bc c605 9fbe 3d6c 14be 9325 47be
00000050: f0fa 87bd 3347 a73d cd26 09be b2dd 263e
00000060: 25d7 b73d 1532 0e3e 59af babd de6b 64bd
00000070: ad9b b2bd 040a 09be a3b8 00be 45f0 89bd
00000080: 95c5 8b3c b5e3 9b3e fe0a debd 0b4c 263e
00000090: b340 333e eeef 9c3d eb61 883d e000 b63e
000000a0: 3313 ce3e af1a 69be bf59 b03e d5c8 1f3e
000000b0: 580c 88bd f15f 973d b923 a1bd eb63 23be
000000c0: f608 fd3d 39ec b93e 80d3 1dbe 72db 3cbe
000000d0: 5f58 9e3c d829 c33d 2dcb 9f3d 7b7d 7e3e
000000e0: 16f4 f4bd 10a0 46be e338 6bbe 0573 883c
000000f0: 29cf 133e ade7 a4bc 6684 dc3d dde3 9dbc
00000100: 8715 a03e 4c5e 57bd 620a 13be 9391 a43d
00000110: f4f1 f03d 35a7 1bbe 168a 803d 99bd 2a3d
00000120: adac 793d 8e27 edbd ea39 bcbd a717 833d
00000130: 588c 3fbd 0422 253e 7e28 f83d 5385 143d
00000140: cd66 f5bd 9946 b03d b3e5 82bc c88e 183e
00000150: 8ffe b6bc 09db 4fbd 201c 60bd ee5f cfbd
00000160: c50b a03d 7728 fd3b e392 e4bd 1d0c 1b3e
00000170: cb8e 5e3e 3bde 963e 6a60 24be bb5b 38bd
00000180: 0857 acbd f162 de3c 38da 433c a675 543d
00000190: f7aa 8f3e 0f3b 5dbe 7ce9 503d e51f 723e
000001a0: a4d9 0b3c ae8e 79bc e8d3 b8bd 2f71 4fbe
000001b0: 1f49 fa3d 11e4 0f3e 668f 2bbe 86cb 783e
000001c0: 27c7 b7bd d1f4 c83d 436b 33bd 8e76 febc
000001d0: f96b fcbc f2fc 2dbe 29fd 6bbd 1d74 ccbd
000001e0: 770f 133e 2fb8 9abe bb4c 20be 754b d8be
000001f0: aabd 09bd 0aae 3cbe 21b1 823d 7cb1 753d
00000200: 64d2 663c 00c2 d93c c258 84be 852b 0f3f
00000210: 88d9 9bbd 40e4 f13d 941e a33d f576 a939
00000220: cb4d 993d 4c03 8abe e1f9 993e 93d5 11be
00000230: b064 a5be b47b 5c3e 8291 11bd 5862 22be
00000240: c8a3 e63d 2540 33bd 7ff0 073e 6a51 8b3d
00000250: dc43 c4bd c5bf 52bd f593 3abd 543d 7a3e
00000260: 98d1 dd3d c582 c1bd 5b7d a3bd 3971 94bd
00000270: fca6 99be 6686 c5bd a14a f5bd 4ea6 cbbc
00000280: 56a6 c9bc 27b4 403e 6180 69be 89d7 68be
00000290: bd5a febd 2cd6 183e 41b7 d73d dd34 a43d
000002a0: 59fa 8bbe 90fe fb3d 8b2d ca3c a6d0 20be
000002b0: f63c 9e3d a6e5 573e a61b f03d 6229 72bd
000002c0: df36 2c3e 848d 0fbe eccb 853c 152f 7abc
000002d0: af39 d83d de7d 5dbc 996e 39bd eb45 32be
000002e0: d135 01bd bff8 9ebe e82e 003e b3ce 813e
000002f0: 0da0 2f3c f86f 153e 21bb 38be ec54 b1bd
00000300: 6e90 3abe 9cb7 39bd dd61 393d 9ef8 0fbe
00000310: 95ce dfbd 43e9 c8bd 8873 663e 607f 903e
00000320: fc2f 503c 35d3 90be 680b 623e 6ee8 0bbf
00000330: 4700 dd3e 9d4a 4e3e 5c44 c73c fc0f a43e
00000340: 91a3 803e 93ec ffbc feba c13d 6f1e 64be
00000350: 2500 113e be33 a5bd 04ff 41be 32f5 de3d
00000360: d55b 7a3e 6bc1 c63d ad0b 043e 8853 bb3d
00000370: c0ea 5bbe 443e e43b ac17 103e 5ed1 013e
00000380: 2fc4 d4bc 35cd 6e3d 37e1 3c3e 5c7a 343e
00000390: 7092 f53a ffd9 adbd 6856 28be 2ad9 e23d
000003a0: ee0c 74be df0b b8bc ce0a dcbc 5504 d33c
000003b0: 7c05 b7bd f97b 0e3d 52e6 a7bd 0021 373d
000003c0: 79d8 9e3d e1a7 2e3e 8e26 81be 3782 24bd
000003d0: fca6 84bd 9ec5 27be 7f00 bd3b 7cd8 48bd
000003e0: 1cc5 3dbd d000 173e 0669 6cbd e983 dcbd
000003f0: cedf 1f3d 963c b73c 4f24 41bd 1452 84bd
0.10286499 0.069478646 -0.16568816 0.21516514 0.006318011 -0.027380046 0.05093031 -0.13973339
0.0049378867 0.058947038 -0.04985755 0.011008536 0.03469355 0.027990233 0.085439526 0.07906738
-0.025623102 -0.31059092 -0.14494415 -0.19447927 -0.066396594 0.08167877 -0.13393708 0.16295508
0.089765824 0.13886292 -0.09115476 -0.055766933 -0.08721099 -0.13382727 -0.12570433 -0.06735281
0.017061988 0.30447164 -0.1084194 0.16239946 0.1750515 0.076629505 0.06659301 0.35547543
0.40249023 -0.22764085 0.3444347 0.15603955 -0.066429794 0.07391346 -0.07868142 -0.15956084
0.12355225 0.36313036 -0.15412712 -0.18443087 0.019329248 0.095294654 0.078024246 0.24852555
-0.11960618 -0.19396996 -0.2297092 0.016656408 0.14434494 -0.020130003 0.107674405 -0.019273693
0.31266424 -0.052580163 -0.1435943 0.080355786 0.11764899 -0.15200503 0.06276338 0.04168472
0.060955692 -0.1157981 -0.09190734 0.06400996 -0.0467647 0.16126257 0.12117098 0.03625996
-0.11982498 0.086072154 -0.01597867 0.14898217 -0.02233818 -0.050745998 -0.054714322 -0.10125719
0.07814745 0.007725771 -0.11160829 0.1514134 0.21734159 0.29466423 -0.16052404 -0.045009356
-0.084150374 0.027146788 0.011953883 0.05187001 0.28060123 -0.2160456 0.051003918 0.2364498
0.008535776 -0.015231771 -0.09024793 -0.2025802 0.12220978 0.14051844 -0.16753921 0.24296388
-0.08973532 0.0981232 -0.043803465 -0.03106239 -0.030813204 -0.16991022 -0.05761448 -0.09983084
0.14361368 -0.30218646 -0.1565427 -0.4224507 -0.033628143 -0.18425766 0.06381441 0.059983715
0.014088247 0.026581764 -0.25848967 0.5592578 -0.0760985 0.11811113 0.07964817 0.00032322822
0.07485541 -0.2695564 0.30073455 -0.14241628 -0.3230338 0.21531564 -0.035539158 -0.15857828
0.112617075 -0.043762345 0.13275336 0.06802638 -0.09583256 -0.051452417 -0.04555126 0.24437457
0.108309925 -0.094487704 -0.07982894 -0.07248158 -0.3001021 -0.09644775 -0.11977125 -0.024859574
-0.024615448 0.18818723 -0.22802879 -0.2273847 -0.12419651 0.1492545 0.10533 0.08017895
-0.27339438 0.12304413 0.02467992 -0.15704593 0.07726471 0.21083698 0.117240235 -0.059121497
0.16817807 -0.14018828 0.01633259 -0.015270014 0.10557877 -0.013518779 -0.04527149 -0.17409484
-0.031545464 -0.31049153 0.12517893 0.2535301 0.010719311 0.14593494 -0.18040134 -0.08658776
-0.18219158 -0.04534112 0.045259345 -0.14059684 -0.10928074 -0.09810116 0.22505009 0.2822218
0.012706753 -0.28286138 0.22074664 -0.54651535 0.43164274 0.2014565 0.024324588 0.32043445
0.2512479 -0.031240737 0.09459494 -0.22277234 0.14160211 -0.0806651 -0.18944937 0.10886611
0.24449094 0.0970486 0.12895079 0.09146792 -0.21476269 0.0069654305 0.1407153 0.12677523
-0.025972454 0.05830117 0.18445288 0.17624801 0.0018735658 -0.08488845 -0.16439211 0.11076577
-0.23833057 -0.022466598 -0.02686062 0.025758902 -0.08936593 0.0347862 -0.08198227 0.044709206
0.07756133 0.17056228 -0.25224727 -0.040163245 -0.06477162 -0.16383979 0.0057678814 -0.04903458
-0.046330556 0.14746404 -0.057717346 -0.10767347 0.039031796 0.022367757 -0.047153767 -0.06460968

bias f4 [20]
00000000: c2fc 32be ed09 34be 50a9 0c3e 694b 9a3b
00000010: 4bdf 4c3e 27bb c03d 7f86 bd3e 7045 9d3d
00000020: 8cbd fa3b 33ab 233e 84a7 8e3d 7162 8bbe
00000030: c5fa acbd d929 1c3e 26b3 863c ee59 8ebe
00000040: 36b1 153e 159e 7e3d 7d57 73bc 18b7 e13d
-0.17479232 -0.17581911 0.13736463 0.0047086966 0.20007055 0.094106965 0.37016675 0.0767926
0.0076519903 0.15983276 0.06965545 -0.27223542 -0.08446268 0.15250339 0.016442847 -0.27802986
0.14618382 0.062162478 -0.014852402 0.110212505

weight f4 [20, 20]
00000000: 6f74 e0bd 073a 773d cf37 413d 1b02 32bd
00000010: cbe7 123d 3c01 18be 524b 41bd b7b2 4f3c
00000020: a538 423e b547 50bd be2b cbbd 95c6 84bd
00000030: edc3 11be b505 193e d9ed 9d3d b888 f93d
00000040: f0a9 31bd e60f a0bd 98d6 623d 7e02 6d3e
00000050: b19d ecbd 2f52 7b3d 9159 6fbd 8d0e d73d
00000060: a983 d9bc aa8d 18be a4ba 303e b5c0 86bd
00000070: 2217 febd cd3f 683d 386d e03d 48bc cbbd
00000080: 5c4b 233d f70d 773d 1893 313e e3b3 0c3e
00000090: dc7b 34be b590 a2bb bc13 80be d192 823d
000000a0: 5645 aebd b413 d53d 0dda bcbd 0394 a53d
000000b0: 7f9e 46be 6fd3 5ebe 520d 3d3e 2c22 513e
000000c0: a2af 91be 881c b93c e41f 9c3c 9dab a63c
000000d0: e0aa 54bd 9149 54bd 6b4f c33d d74b 62be
000000e0: 718e 613d db8f 43bd 2126 3a3c fe9a febd
000000f0: c84c 73bd ee68 6c3d 83d2 94bd ab13 a63d
00000100: 987d 57be 9411 c53d d075 9f3d 6351 9d3d
00000110: 46a7 26be 1994 1abd 127a 42bc 0789 24bd
00000120: 44ce 03be 567d 0ebe feb9 4f3d fe36 5dbe
00000130: ad68 333e 0dd0 2cbe 0c1a 733c 6736 c3bd
00000140: 7742 e8bd adca 85bd 3c4d 6bbd 6b52 203e
00000150: 61fd 603e 08ac 54bd 277d e23d 1273 8cbd
00000160: f385 07bf 6d39 86bd 9470 e43d 2d1f e53c
00000170: 44d3 68be 3573 9e3c fb66 a83d f0ed 1fbe
00000180: 63eb 53be 6970 a0bd 4af5 833d e71d abbd
00000190: e6b4 f53c 1942 f93d 9317 3dbc 48ac 4abe
000001a0: 2c8e 553e 1dc0 bcbe a8a2 1f3e 5bcc 83be
000001b0: 310b 7b3e 42e8 31be 9296 b0bd 7050 8c3d
000001c0: beee b5bb 7c85 b53d 3828 35be fd93 24be
000001d0: b96f b03b 3492 dfbd 0623 ff3d e7c3 303d
000001e0: a492 363e 19d3 1b3e 0f21 163a fe1b ecbd
000001f0: 0739 95be 875a 203e 845a 0e3e 4aba 4c3e
00000200: 5be1 71ba 4306 c33d e93d 583e caa8 76bc
00000210: 702d 3fbe f6ff 58be b224 12be d530 96be
00000220: ba14 00be 4bef 06be c31e 773d e82f 05be
00000230: 51d3 8f3e 57fc 843e de16 b5be 8f3f ebbd
00000240: 5855 10be 5ed6 263e 5bb7 9abe 6e05 b43d
00000250: c8bf 56be ebde 153e 9d99 1c3e f9d9 26be
00000260: 50b9 383d 8c8d b8bd dd1c 84be decf a9be
00000270: 20ae 92bc 0cf3 b1be e3cb 9d3d af3e 9b3d
00000280: 36f9 abbd 5983 2abe 1fd4 5d3c 8407 27be
00000290: 83fa 323d be96 0ebe 4b39 8bbd b71f 45bc
000002a0: 2141 ab3e 2088 8e3a 2133 d5bc 11a5 033d
000002b0: 0cd3 11be b91a 633d 4432 2f3e e717 57bd
000002c0: 7ceb 26be b51c 7a3d f660 b93d 7afe 273e
000002d0: 740b 7f3d 1867 833d 7a82 48be 5fdf 923d
000002e0: 4e82 92be 8b7d 17bd 4c7f cdbe 9f18 83be
000002f0: 9eec bd3e 438f 863e 25a9 d0bd 7bee e8bd
00000300: 2000 e5bd 7572 21be eaa3 993e 35de 66be
00000310: 70cf af3c cbbd 713a 37dc a3be fdee e4bd
00000320: 8653 143e e074 89bd be66 3fbe ebf9 a43d
00000330: 9ad0 0bbd 3a7d a3bc d874 9dbb ebbb 49be
00000340: 7a49 c93c a3ab 3b3d ce6b 8e3e f866 ae3d
00000350: 5958 b93e 68e9 013e ad3b e7bd 5332 f03c
00000360: 151b b73d da7b bd3d 89bf 6bbe 7d46 e6bd
00000370: 3ae8 583d 7fe5 b83c 7c46 8ebc 7347 90bb
00000380: 7162 8a3b c01a 0f3e 2396 993d 38ba ac3d
00000390: 1b6c bebd 7dfe 4cbe 5a7d 5b3e 16d4 563b
000003a0: 19ba 87bd 086d 61be b078 6ebd ea78 963a
000003b0: 7313 c9bd 8c0e 06be c63c 613e 1dea 21be
000003c0: 52fc 65be a46d 44be adb0 e6be ca53 51be
000003d0: 71d0 023e c2e6 963b e3ae dbbd c0f6 3ebd
000003e0: 7482 04be 5dcc 8cbc 07f8 f73d 80aa c83c
000003f0: bf86 953e 41fb c73d 8e31 d03e 84ae 073e
-0.10959708 0.060358074 0.047172364 -0.04345904 0.035865586 -0.14844221 -0.04719097 0.012676886
0.1896692 -0.050849635 -0.099204525 -0.06483189 -0.14234896 0.14943583 0.077113815 0.1218428
-0.043374956 -0.078155324 0.055380434 0.23145482 -0.11553515 0.061357673 -0.058435027 0.10500822
-0.026552038 -0.1489779 0.17258698 -0.06579725 -0.12406756 0.05670147 0.10958332 -0.09948021
0.03986679 0.060316052 0.17341268 0.13740496 -0.17625374 -0.004961098 -0.25015056 0.06375659
-0.085093185 0.10404149 -0.092212774 0.080848716 -0.19396399 -0.21760343 0.18462113 0.20423192
-0.2845431 0.022596613 0.019058175 0.020345503 -0.05192077 -0.05182797 0.09536632 -0.22099243
0.055067483 -0.047744613 0.01136163 -0.12431906 -0.059399396 0.057717256 -0.072667144 0.0810922
-0.21044004 0.096224934 0.07786143 0.07681539 -0.16274747 -0.037738893 -0.011869924 -0.040169742
-0.12871653 -0.13915 0.050714485 -0.21603009 0.175204 -0.1687624 0.014837753 -0.09531861
-0.11340802 -0.06532798 -0.057446703 0.1565644 0.21971656 -0.051921874 0.11059027 -0.068578854
-0.52938765 -0.06553922 0.11154285 0.027968967 -0.22736841 0.019342044 0.08222767 -0.1561811
-0.20695262 -0.078339405 0.064432696 -0.08355313 0.029993486 0.1217081 -0.011541265 -0.19792283
0.20855016 -0.3686532 0.15589392 -0.25741848 0.24515988 -0.17373756 -0.08622469 0.0685128
-0.005552142 0.08863351 -0.17691123 -0.16072078 0.005384412 -0.10916558 0.12457852 0.043155577
0.17829376 0.15217246 0.0005726972 -0.115287766 -0.2914507 0.15659533 0.13901716 0.19992939
-0.0009227001 0.09522679 0.21117367 -0.015054891 -0.18669677 -0.21191391 -0.1427181 -0.2933413
-0.12507907 -0.1317722 0.06033207 -0.13006556 0.2809091 0.2597377 -0.3536901 -0.11486732
-0.14095056 0.16292712 -0.30218014 0.08790098 -0.20971596 0.14635818 0.15292974 -0.16294087
0.045098603 -0.09011373 -0.2580327 -0.33166403 -0.017905295 -0.34755743 0.07704904 0.07580315
-0.083971426 -0.16651668 0.013539343 -0.1631146 0.043695938 -0.13924691 -0.06798037 -0.012031487
0.33448127 0.0010874309 -0.026025357 0.03213984 -0.14240664 0.055445407 0.17109019 -0.05251303
-0.16300768 0.061062533 0.09051697 0.16405669 0.062266782 0.06416148 -0.19581023 0.07171511
-0.2861504 -0.03698496 -0.40136182 -0.25604722 0.37094587 0.26281175 -0.10188512 -0.113736115
-0.111816645 -0.15766318 0.3000787 -0.22545703 0.021461219 0.0009221702 -0.32003948 -0.11178396
0.14484987 -0.06711745 -0.18691537 0.080554806 -0.034134485 -0.019957174 -0.0048051886 -0.19700591
0.02457117 0.045817982 0.27816623 0.085157335 0.36200216 0.12686694 -0.11290679 0.029320871
0.08940712 0.092521384 -0.23022284 -0.11243913 0.052955844 0.02257037 -0.017367594 -0.0044030487
0.004223161 0.13975048 0.074993394 0.08433956 -0.09297963 -0.20018955 0.21434537 0.0032780222
-0.06627292 -0.22014248 -0.058220565 0.0011480127 -0.09818163 -0.13091487 0.2199584 -0.15811963
-0.22459534 -0.1918245 -0.45056668 -0.20442119 0.12774827 0.004605145 -0.10726716 -0.046622038
-0.12940389 -0.017187292 0.12107854 0.024495363 0.29204366 0.0976472 0.40662807 0.13250166

bias f4 [20]
00000000: 3fcf 44bc 5145 a6bd 9402 09bb f57d 22be
00000010: 0a66 5abe 35e8 2cbe ac38 9d3d a7b1 633c
00000020: 2066 4b3b 6c7d 7fbd 7c4f c9bd 3fc1 1fbe
00000030: 1aef f4bd e454 e0be 2f91 f3bc ef2e 8abe
00000040: 94d7 ff3b 0d42 a0bc 07f4 613d 5268 0e3e
-0.012012302 -0.0811869 -0.0020906078 -0.15868361 -0.21327987 -0.16885455 0.07676825 0.013897336
0.0031036213 -0.06237547 -0.098296136 -0.15601061 -0.119596675 -0.43814766 -0.029732315 -0.26988932
0.0078076813 -0.019562745 0.055164363 0.13906983

weight f4 [20, 20]
00000000: 843d 68bf 9ae6 c3be b530 ea3e 290b 81be
00000010: 575a 0e3e d17a 9fbe 99af 413e 4d55 a5be
00000020: ef5e 943e b9a6 f0bd 47bb 883d 9104 8b3e
00000030: 12d1 8bbd 9af1 13be 6029 9abd 7f64 163e
00000040: d16d 403d 5ad9 853c 6460 d83d 8420 a43e
00000050: c506 05bf 4c36 883e 37cb 173e 4f38 6ebe
00000060: e705 1fbc ac71 8d3e da11 53be 90af e73d
00000070: 9dfb 1abe d154 973c e6c1 6d3e e207 f2bd
00000080: e087 96bd 8062 f43c 524a 493d 3861 83bd
00000090: 245e 793b d030 443e 1c59 47bb f3ad 863e
000000a0: e2c1 cdbe 3511 0e3e f847 023e 37c4 29be
000000b0: dfb2 6b3e efd8 f53c 8873 8e3d f846 33bd
000000c0: c951 363e 5b28 1dbe 4171 1bbe 7620 b23d
000000d0: 6afe 183e 4b68 723e b85a d43d c055 823d
000000e0: 8161 67be 1195 15bd 9bcb 73be 1bc6 833c
000000f0: bc9d 6cbe 8b96 d4bd d346 bfbd 1d34 febd
00000100: 3169 abbd 1202 acbd 08d8 7f3e a70a 24bd
00000110: 1cde 143e dd44 4bbd 4332 d63d 8b5f 5bbe
00000120: fa4c 8d3d 49b3 4f3e 7325 223e daca 92bd
00000130: 54d3 bfbc 37eb 7dbd 7762 11be 1b5a 7fbd
00000140: 47f9 d23e 7e0c 22be a1d3 a2be 4505 0c3f
00000150: 13db b23d 792e a7be 3793 863e da09 2a3e
00000160: c24f 953d 99e7 c63c e6e8 403e e35b 20be
00000170: c67b 183e 2601 d13d 714c 23be 8d98 a0bd
00000180: d3bd 13bd d0b0 273d ed13 39be 8e3b ab3d
00000190: 9497 be3d ef44 6bbe c76b c03e e1fe c43e
000001a0: 0813 20be cae4 a43e dfeb d3bd d62f 533e
000001b0: cbcd bfbd 9ba7 8a3e bc09 7cbb 84b5 95bd
000001c0: 1899 803c 91f5 293d 53f3 25be 5dcf 80bd
000001d0: 7697 4abe c11e bbbe 5950 e7bd 693a 8c3d
000001e0: 4080 783e 6889 63be 7089 f5bd 28d3 023e
000001f0: 269b dc3d b4d5 7fbe 4890 bb3d fbc8 38be
00000200: acdd 3ebd 96f4 ff3d 6099 55be ef25 b5bd
00000210: f30b 0dbe 1790 b2bc 5073 45bd 4709 3fbe
00000220: cb6b 0b3e 2d47 73bd e70f 3ebd 33e6 dabb
00000230: 5be2 d8be dc11 89bd 6c2a 1f3e c51f a3be
00000240: 58ad e63d 6569 b4be 10d7 943e 8b3b 82bc
00000250: bc4f 823e ce5b 583d b83f c53d 7784 3a3d
00000260: 1431 d93c 2575 723e caa7 30bd 28ed 8dbd
00000270: 9314 173e 1cc7 ba3c 3fc5 abbc e1f2 f33d
00000280: 1108 d13d bb7e 433c 239f 12bd 3867 62bd
00000290: 82d0 173e 7402 adbd 2355 1b3e 165e 6abc
000002a0: 20bd 64bd 723d e03c e59c 043d 3c72 293d
000002b0: 0fe5 c1bc e8f5 713d 2496 203e 3d8d 3dbb
000002c0: dc0f fe3c 1694 e23c b695 d53d 9e77 eabc
000002d0: 0596 393f 11a6 74be e05d 443c 689d c83d
000002e0: a4d4 ebbd c42b 583d 0962 a5bd cc8e d13d
000002f0: ca2f 423e 0c09 0e3e 4869 0fbd 3be3 ac3c
00000300: 497c c5bc de43 3dbe d74f 3dbe dca2 aa3d
00000310: 5ab1 3b3e 691a 2f3d 89ff 923d e214 823d
00000320: 831c 293f 1f12 cdbe 3d43 403e 61a5 ea3e
00000330: efd1 abbe c32c c53e 8265 07bd 35f2 c93d
00000340: 6204 903d e3d3 4f3d 227d ff3d 55ed aa3d
00000350: 5ec4 1abe b58d cbbb 8cb1 5c3d 5c01 c93c
00000360: a88e 2d3e 0cf1 f8bd c420 15be c1bc 9ebe
00000370: 7428 a23d 9578 153d 6d02 723d 961d d23d
00000380: 8f14 e83d 1701 81be 583a 4a3d 8353 37be
00000390: b88f 333c ceb6 dfbd e524 e13d 5d9f 22bd
000003a0: 0b34 22be 303d c9bc 99d1 393e 98ab 5d3e
000003b0: 225e 823e 7ef5 863d 570c 6bbe b57e 613d
000003c0: c4f4 923e 76c1 2fbe 9848 fcbe 0853 7d3e
000003d0: 29a7 523e 560d a7be 0832 0b3f d6e3 d43d
000003e0: 8423 473d 678e a83d 598d e23d 1ad6 39bd
000003f0: c5d2 cc3d abd2 a13e 78d7 86bd 81d5 d03d
-0.90718865 -0.38261873 0.45740286 -0.25203827 0.1390165 -0.3114839 0.18914641 -0.32291642
0.2897868 -0.1175055 0.06676345 0.2715192 -0.06826986 -0.14447632 -0.07527423 0.14686774
0.04697973 0.016338993 0.1056526 0.32056057 -0.51963454 0.26603925 0.14823614 -0.23263668
-0.009705997 0.27625787 -0.20612279 0.11312783 -0.15135045 0.01847306 0.23218498 -0.1181791
-0.07350135 0.029832125 0.049143143 -0.064150274 0.0038050497 0.19159245 -0.0030418104 0.26304588
-0.40186983 0.13873751 0.12722766 -0.16578756 0.23017453 0.030010669 0.069556296 -0.043768853
0.17804636 -0.15347426 -0.15179922 0.08697598 0.14940801 0.23672597 0.10368866 0.06364012
-0.22595789 -0.036519114 -0.23808138 0.016085675 -0.23107046 -0.10380276 -0.093396805 -0.124122836
-0.08369673 -0.083988324 0.24984753 -0.04004922 0.14537853 -0.04962622 0.104588054 -0.21423166
0.06899448 0.20283236 0.15834598 -0.07167597 -0.023416199 -0.061991896 -0.14197718 -0.06234179
0.4120581 -0.15825078 -0.31802085 0.5469554 0.08733191 -0.32652643 0.2628419 0.1660532
0.07290603 0.024280356 0.18838844 -0.15660052 0.14890966 0.10205297 -0.15947129 -0.07841597
-0.036069702 0.040940106 -0.18074007 0.083609685 0.09306255 -0.22975515 0.37582228 0.38475707
-0.1563226 0.32205802 -0.10347723 0.20623717 -0.09365424 0.27080998 -0.003845795 -0.07310012
0.015698 0.041493956 -0.16206102 -0.062895514 -0.1978434 -0.365469 -0.11294622 0.06847078
0.24267673 -0.22220385 -0.11989105 0.12775862 0.1077178 -0.24983865 0.09158379 -0.18045418
-0.04659812 0.12497823 -0.20859289 -0.08845126 -0.1377409 -0.021797223 -0.048205674 -0.18655883
0.13615339 -0.05939405 -0.046401884 -0.006680274 -0.42360196 -0.066928595 0.15543526 -0.31860176
0.112635314 -0.3523666 0.2907033 -0.015897533 0.25451458 0.052821927 0.09631294 0.045536485
0.02651266 0.236775 -0.043128766 -0.069299996 0.14753942 0.02280002 -0.020968078 0.1191156
0.10206617 0.01193207 -0.035796296 -0.05527422 0.14825633 -0.084477335 0.15169196 -0.014304658
-0.055844426 0.02737305 0.03237619 0.041368708 -0.023668794 0.059072405 0.15682274 -0.0028923296
0.031013422 0.027658504 0.10428946 -0.028621491 0.72494537 -0.23891474 0.011985272 0.09795648
-0.11515167 0.052776113 -0.08075339 0.102323145 0.18963543 0.13870639 -0.035012513 0.021104446
-0.024107115 -0.1848292 -0.18487488 0.08331844 0.18329373 0.042749796 0.07177646 0.06351639
0.6605913 -0.40052888 0.1877565 0.458293 -0.33558604 0.38510713 -0.03305579 0.098606504
0.07032086 0.05073918 0.12475039 0.08346049 -0.1511397 -0.006211961 0.05388026 0.024536781
0.1694895 -0.12155351 -0.1456328 -0.31003383 0.07917872 0.03649195 0.059084345 0.10259549
0.11332046 -0.25196144 0.049372047 -0.17902951 0.010959558 -0.10923539 0.10993365 -0.039702762
-0.15840165 -0.02456531 0.18146361 0.21647489 0.25462443 0.06589793 -0.22953926 0.055052478
0.28702366 -0.17163643 -0.49274135 0.24738705 0.20571579 -0.32627362 0.54373217 0.10395019
0.048617855 0.08230286 0.11062116 -0.0453702 0.100011386 0.3160604 -0.06584066 0.10196973

bias f4 [20]
00000000: 9b0f 703d 6571 4bbf 7b2b 00be 18fa 603e
00000010: bf51 943e 99a6 613d 0bc0 023f f79e cb3e
00000020: fffc b8be 87d1 983f 7e38 213f ed94 8c3e
00000030: 64f2 ab3c 2395 31bf c048 e73e 7eff 57be
00000040: 75db 37bf 7c1e 023f 6467 703d 2d73 10bf
0.058608633 -0.794699 -0.12516586 0.21970403 0.28968617 0.05509052 0.51074284 0.39769718
-0.3613052 1.1938943 0.62976825 0.2745737 0.020989604 -0.6936819 0.4517269 -0.21093556
-0.7181924 0.50827765 0.05869235 -0.56425744

weight f4 [20, 20]
00000000: 80d0 df3d 9959 72be 4216 eb3d 519a 443e
00000010: 56b6 ed3c a22f 1b3f 541a 16be b582 09bf
00000020: 65e4 38bd 2be8 383e 4051 0f3e 71ad e0be
00000030: 59ac a33e 9d41 b23e 3748 0cbe 044b e93d
00000040: 904e d63a 826f 69bd 9527 8abe 3689 c0be
00000050: 0e8d afbe 45b0 46be 15d4 453e 35f2 36bf
00000060: 8852 f43c dc6b 403d 04b1 6fbd d2f1 29be
00000070: eb0a cb3e bddf bd3d 120e 0abd ea9d 593d
00000080: 7ec0 75bd a57f f73c e60f 1dbe 1cfd 95bc
00000090: 7ba0 ddbd 186a 4b3b 48ca 103e 72f4 ba3e
000000a0: c41c 51be 3be5 3d3e 563d 9bbd 04bd 63be
000000b0: dbf3 833b c21f 263c 89a0 cebd 02bd ddbd
000000c0: 8207 7cbd 7e63 cbbd a459 c23e 2dfb b7be
000000d0: 52f8 9d3d 4b71 3dbe ed03 28be 6a17 1a3d
000000e0: 186b 55bd 07e7 653c 3bd8 8bbe 9857 bdbd
000000f0: d90f 0abe c20c 963d dd90 c2bd e008 353d
00000100: 6300 103e 15e5 e33d 44e1 f4bc 47d5 9fbd
00000110: ed6c 69be e965 43be 3fe8 953d 66ff 14be
00000120: 34d4 6f3e ce7d c0bd 41dd 06be 26b9 1a3e
00000130: 6091 96be d864 da3e 54e7 a03d a9d2 89bd
00000140: f0f4 bc3c 9931 19bc 745c 88bd 8dfc e23d
00000150: b9e6 b83c 9f9a 58be 49b2 25be 2d1d eb3d
00000160: 0cbb dfbe 708d a9be 5c40 1dbd 79d7 88be
00000170: 04e2 673e 2c80 76be 4afd 9f3e 1a12 a4bd
00000180: a41d aabe 230d 18be 2ccc 733e 4c5e 38bd
00000190: 7352 6e3e 754a 593d 19b9 b73e 9839 5e3e
000001a0: ade2 19bc 20a5 603e 14c5 a8be 3bb9 9ebd
000001b0: e043 fe3c 1194 2fbd 6fac af3c 40e7 21bd
000001c0: a5f6 bfbd 912f 8bbe 1114 52be 3cfc 963e
000001d0: 4182 b7be 3d3b 463e 2b98 d13d 48e4 503e
000001e0: decd 653e 6f91 963d 8d57 80bd 9ad2 ba3e
000001f0: 5189 d7bd bf41 0f3e 5619 32bc c64f af3e
00000200: bfe6 7ebd 6ac8 08be bc0b 193e 9035 a7bc
00000210: db8e 0f3e 7e0c 483e f995 3b3e 465c 023e
00000220: cfbf 563d d9ae 55bd 8024 303e bafe 1dbe
00000230: a3b5 a2be 4f95 543d 89c9 6ebb 16dc c13e
00000240: d697 c2bd cce1 223e b55a 20bc ec25 6abe
00000250: 38c0 9bbe 5716 febd c97e a03d eac5 92be
00000260: c1f6 3f3e b9b9 133e f53e 433e 0d18 853e
00000270: 88f7 9e3c 55f8 193e eb24 19be 8663 2dbd
00000280: cd09 343d fdc8 5cbd 5f09 4fbe 6928 5cbd
00000290: 88e7 133e 562f 8ebe 0882 5cbd ee87 2b3e
000002a0: 15f0 733d 891b 833e 813c fb3b 248c 283e
000002b0: 8152 823c 76b4 113e 1a15 c8bd 3199 f53c
000002c0: 5708 ac3d 9b97 9f3d 41a4 a13d 9ff2 d23d
000002d0: 4842 43bd 93e3 543e a22c 723d e79a 843f
000002e0: db17 b0be 3b0c bc3e d76d c83e 45d0 453e
000002f0: f48f 16bf cb79 3bbe eba1 4bbe 0acd 05bd
00000300: 57cd 47be ea84 913e cfb4 7f3e 516d 0dbe
00000310: 0256 e9bd fd88 27be 7e6a 913e 715e 21be
00000320: 8132 b83e 7794 683e 7995 8a3c 3f88 113f
00000330: 6230 033e 483f c43e 43d1 8fbd 2608 8d3d
00000340: bc5e d2be 5008 953b e296 a4be 4828 eebd
00000350: e8fd e1bb c408 98be 26a3 c9bb 8fa7 d63d
00000360: 4240 a4be d500 08be 7496 c73e 327d f2bc
00000370: e6e5 19be 2990 993d 14f2 52be 6223 153d
00000380: 4c8f 15bc 2d9b 1cbc 00fc ff3c 9de9 28be
00000390: 1e41 8fbc 5038 193c aae5 9c3d e0d1 edbe
000003a0: 0ac8 4c3e db67 c83d 8eb7 30be 975d 3fbe
000003b0: 55a5 84be 913c bebe 3c74 bd3e a95b e0bd
000003c0: ec11 273e a35c b7bd d909 c9be 7054 4b3a
000003d0: ed0b 663e 3063 29be eff4 a43d 1bf4 e93d
000003e0: 4457 c1be 6947 61be de19 593d 4482 15be
000003f0: 90e0 3d3e fe18 1ebe 308c 8c3e e18d 49be
0.1092844 -0.23666991 0.11478855 0.19199492 0.029017609 0.60619557 -0.14658481 -0.5371507
-0.04513969 0.18057315 0.13995838 -0.43882325 0.31967428 0.34815684 -0.13699423 0.11391261
0.0016350318 -0.056991108 -0.26983324 -0.37604684 -0.34287304 -0.19403179 0.19319184 -0.7146333
0.02982451 0.046977863 -0.058518425 -0.16596153 0.39656767 0.0927119 -0.033704825 0.053129114
-0.059998028 0.030212233 -0.15338096 -0.018309169 -0.10821625 0.0031038579 0.14139664 0.36514622
-0.2042113 0.18544476 -0.07580058 -0.22240072 0.0040268726 0.010139408 -0.100892134 -0.10827066
-0.061530598 -0.09931086 0.37959015 -0.3593382 0.07713379 -0.18500249 -0.16407748 0.037619986
-0.052104086 0.014032132 -0.27313408 -0.09245223 -0.13482608 0.07326652 -0.09500287 0.044197917
0.14062648 0.11127678 -0.029892571 -0.07804351 -0.22795458 -0.19081844 0.07319688 -0.14550552
0.23420793 -0.09398995 -0.13170339 0.15109691 -0.29407787 0.42655063 0.07856622 -0.06729633
0.023066014 -0.009350204 -0.06658259 0.110833265 0.022570955 -0.21152733 -0.16181292 0.11480174
-0.43697393 -0.3311572 -0.038391456 -0.26726893 0.22644812 -0.24072331 0.31247932 -0.08011265
-0.3322574 -0.14848761 0.23808354 -0.045011804 0.2327364 0.053049523 0.35883406 0.21701658
-0.009392423 0.2193799 -0.3296286 -0.07750174 0.031038225 -0.042865817 0.021444527 -0.039527178
-0.093732156 -0.27184728 -0.20515467 0.29489315 -0.35841563 0.19358535 0.10234102 0.20399582
0.22441813 0.07351958 -0.06266699 0.364888 -0.10524238 0.13989924 -0.010870298 0.3424055
-0.062231775 -0.13357702 0.14945883 -0.020411283 0.14019339 0.19536015 0.18318929 0.12730512
0.052429017 -0.0521687 0.17201424 -0.15429202 -0.31779203 0.051900204 -0.0036436042 0.37863225
-0.09501617 0.15906447 -0.009787251 -0.22866029 -0.3042009 -0.12406605 0.07836682 -0.2866662
0.18746473 0.14426316 0.19066985 0.25994912 0.019405141 0.15036137 -0.1495549 -0.04233124
0.04395466 -0.053902615 -0.20218419 -0.053749476 0.14443791 -0.2777049 -0.053834945 0.16751072
0.059555132 0.25606945 0.0076671247 0.1645971 0.015908482 0.14228997 -0.0976965 0.029980274
0.08400028 0.07792588 0.07892657 0.103001826 -0.047670633 0.20789938 0.059124596 1.0359772
-0.343932 0.3672808 0.391463 0.1931773 -0.58813405 -0.18308179 -0.19885986 -0.032666244
-0.19511925 0.28421718 0.24971317 -0.13811232 -0.11393358 -0.1636085 0.2840156 -0.15758683
0.3597603 0.22712885 0.016916977 0.5684852 0.12811425 0.3832953 -0.070223354 0.0688632
-0.41087902 0.00454811 -0.32146364 -0.11628777 -0.006896723 -0.29694188 -0.006153482 0.10481178
-0.32080275 -0.13281567 0.38981974 -0.029600713 -0.15029106 0.074981995 -0.20600158 0.036410697
-0.009128403 -0.009558481 0.031248093 -0.16495366 -0.017487105 0.009351805 0.076609924 -0.46449184
0.19998184 0.09785434 -0.1725752 -0.18688045 -0.25907388 -0.37155584 0.37002742 -0.10954983
0.1631543 -0.08953216 -0.39265326 0.00077564176 0.22465487 -0.16541743 0.0805453 0.114235125
-0.3776189 -0.21999897 0.053003184 -0.14600474 0.18542695 -0.15439221 0.27450705 -0.19683029

bias f4 [20]
00000000: 4ceb 633e 68d2 aebd eaa1 693e 7bf0 2f3e
00000010: d18d 0bbe 74ec d4ba 586c 483e 9c55 453e
00000020: a2d6 3abe 79f9 13be 2db7 1f3e c623 9e3d
00000030: b2dd a4bc 93cd 8cbe c401 92bd 38ee 623e
00000040: 3d94 ac3d ccf2 9ebd 816d 133d ea85 1cbe
0.22257727 -0.085362256 0.22815672 0.1718158 -0.13628317 -0.0016244785 0.1957258 0.19270939
-0.18245938 -0.14450635 0.1559722 0.07721667 -0.020125244 -0.2750059 -0.07129243 0.22161186
0.08426712 -0.077611536 0.035993103 -0.15285459

weight f4 [20, 20]
00000000: f630 d3be 7563 1bbc 9ade 843d 92a1 983e
00000010: c84c 8f3c 8e66 1d3e 46a0 a63c ad44 bebd
00000020: 8d89 28be 7c94 443e aaa2 6a3e f970 813d
00000030: 24dc 183e a0c4 263d 3f47 e2bd dde9 83bd
00000040: ba32 08be 4a66 94be 7c09 0f3e 16c1 6cbd
00000050: 2fc6 853e 5004 65bf e590 5a3e f64c ef3d
00000060: a69d 22bc b804 de3e df79 a438 b991 4fbd
00000070: 6a92 023e 3abe 703e a1ba 9f3e 9f52 3ebe
00000080: 5c95 68bc 8605 6f3d 09a1 38bc ae74 b03e
00000090: 7fda 353d 13c7 eebe 7fca 82bd 22e1 9cbe
000000a0: 3ec4 fe3b f4d4 2f3e e92c 86be 9635 ea3d
000000b0: 7dbd 0fbe 3e4b 6a3e 1176 763d 5357 913c
000000c0: 20cf 843d 8bf2 06be 4f7c 83bd f4a0 d33d
000000d0: 927c bfbb af70 85bd df4c cc3d d472 d0bd
000000e0: 1401 3c3e 2246 89bc 41d0 8f3c 0186 cbbd
000000f0: cc7a e5bd 7a2d 023e e37b 01bd 751a 383d
00000100: 7d69 32be e773 803e 7bf2 b4bd 26e7 0e3d
00000110: 4be0 11be 1d8b 413d 70ac 08be 0dd6 013e
00000120: ea03 4cbd 8a27 b8bc b163 603d 9f38 48bd
00000130: ef88 ab3d f06a 993d 8aa8 1e3e ab41 a53d
00000140: e3ce b0bd 86a8 ae3d 7f47 cabd b701 883e
00000150: 2f34 0fbe b639 ebbd 31df b2bd a10f 8abd
00000160: 716a f43d e7b6 36bd ccbd 3dba df16 05bc
00000170: a7ce 0ebe 2b41 9abd 8419 8d3d 7617 90bd
00000180: d27f d03d c6e0 f63d 8497 9fbd fad9 b0bd
00000190: db84 aa3c 09f4 12bd 5aa1 8abc e684 20be
000001a0: 845f af3c 5443 26be 7956 b63c b236 2b3d
000001b0: 98a7 0f3e 72dd 4f3e 52c9 dbbc 04f7 05bd
000001c0: 7218 a2be 63a5 09be f9ba c5be 560a bcbc
000001d0: d228 52be 28fd dabd 32bd 4f3e 9fe1 b8bc
000001e0: beee c3bd 4f6c 3c3e 31f6 4bbd 8b76 ab3c
000001f0: 2b7c 19be 4d74 e2bb 51e8 78be f5fb d53d
00000200: 13e9 6dbd ffa9 52be 6857 833c 5278 3a3e
00000210: 020d a1bd e5ab 4cbe 945e fd3d 7b6f 66bd
00000220: f2d8 c53c 5195 26bd af9a e3bc 705c 07be
00000230: 5cd6 343e 8ea3 a83c 943f edbd 2b3a 2bbe
00000240: 9859 59bd b1a4 dabd 0d9d 70bc c237 8cbe
00000250: 4b7e c83d f9bd 333e c467 d23d 8910 683d
00000260: 61d2 1ebe a22b 85bd bdc0 1ebe 3695 523d
00000270: f035 dabd 41a0 23be 96e2 ef3c b23e 46bc
00000280: ce81 37be f863 833d 8141 21be 2ed5 3c3e
00000290: 91e2 bdbe 7cb6 ccbd 7e04 28be cbd5 0b3d
000002a0: 80ff 0bbe 39b8 dbbc fb5e d6bc 70ff 413e
000002b0: 3911 b7bd b318 10be 3c4d d63d b31e cfbc
000002c0: efdc 033e 80a3 b43d ecfe 8ebb 3c2a 523e
000002d0: b664 433e 9bed 65be 92e4 a63e 9789 0dbe
000002e0: af9a ff3d f463 553e 216e 6e3d 1fee a43d
000002f0: 3ca3 b9bd 1c0a 043d a693 8fbc cde1 7fbc
00000300: ceff 0a3c 5888 92bb b703 debd c353 093e
00000310: ddc8 38bc 0367 c2bd a249 4bbc 35dd 02be
00000320: 95bb f0bc 3704 f33c 04e0 94bc a940 023d
00000330: 867b 853c de24 31bd dce3 e7bd 8f2d f0bd
00000340: 350c 04bd bfd3 533e c72e 96bd e06d 50bc
00000350: 932f 8bbd a1f8 ba3d f38f 21bd 21bb 033e
00000360: bd3d 953c f808 10bc f726 f1bd 0456 ad3d
00000370: 1d60 103b 96c4 d23d b639 4fbe 2fdc 023d
00000380: 9112 9abe a671 953e ecd5 7c3d 6cff 7cbe
00000390: 22ff 363d cf64 e83c 4ac9 333e d8a6 b8be
000003a0: 4cd8 973d 23a5 3f3b 855e 4b3b 7d66 243d
000003b0: 2585 bf3b 6775 2d3d 7e2c adbd 8da3 c2be
000003c0: f24c a1be 82d0 e9bd 820a 2ebe 09c7 96bd
000003d0: cc0f 88bd 1c63 573d cb56 d03d ff19 9e3c
000003e0: bf01 22be d822 373e 0432 a639 756f b7bd
000003f0: 6577 b4be 04f8 0d3e b48a 7cbd a63a 48be
-0.41248292 -0.009484162 0.064877704 0.29810768 0.017492667 0.15371153 0.020340096 -0.092904426
-0.16458721 0.19197267 0.22913614 0.06320376 0.14927727 0.04071486 -0.11048745 -0.0644109
-0.133006 -0.2898429 0.13968462 -0.05780133 0.26127765 -0.89459705 0.21344335 0.11684601
-0.009925282 0.43362975 7.84283e-05 -0.05067608 0.12751165 0.23510066 0.31197074 -0.18586205
-0.014195766 0.058354877 -0.0112688625 0.3446402 0.044397827 -0.46636257 -0.06386279 -0.30640513
0.0077748587 0.17171079 -0.2620614 0.11436002 -0.14037128 0.22880265 0.06017119 0.017741835
0.064848185 -0.1317846 -0.06420194 0.10333434 -0.0058437074 -0.06515633 0.099755995 -0.10178152
0.18359786 -0.016757075 0.017555358 -0.099376686 -0.11205062 0.1271266 -0.03161229 0.044947106
-0.17423053 0.25088426 -0.08835312 0.03488841 -0.14245717 0.04725181 -0.1334703 0.1267931
-0.04980842 -0.022479791 0.054782573 -0.048882123 0.083757274 0.074911 0.1549398 0.08069166
-0.086332105 0.08528237 -0.09876918 0.26563808 -0.1398475 -0.11485617 -0.08733977 -0.06741262
0.119343646 -0.044608023 -0.000723806 -0.008123129 -0.13946019 -0.07531961 0.06889632 -0.07035725
0.1018063 0.12054591 -0.07792571 -0.08635326 0.020815304 -0.03587726 -0.016922642 -0.15675697
0.02140785 -0.16236621 0.02225803 0.04180021 0.14028776 0.20299318 -0.026829395 -0.032706276
-0.31659275 -0.13441996 -0.3861921 -0.022954147 -0.20523384 -0.10692817 0.20287016 -0.022568522
-0.09567021 0.18400691 -0.049795333 0.02093055 -0.14988773 -0.006910837 -0.24307372 0.104484476
-0.058083605 -0.20572661 0.01603289 0.18209961 -0.07863809 -0.19987448 0.12371555 -0.05625866
0.0241513 -0.040669743 -0.02778372 -0.13218856 0.17659897 0.020585801 -0.11584392 -0.16721408
-0.05306396 -0.10675944 -0.014685881 -0.2738629 0.097897135 0.17552938 0.10273698 0.056656394
-0.1550994 -0.06502463 -0.15503211 0.05141183 -0.10654819 -0.15979101 0.02928285 -0.012099909
-0.1792061 0.06415552 -0.15747644 0.18440697 -0.3708692 -0.09995744 -0.16407964 0.034139436
-0.13671684 -0.026821243 -0.026168337 0.18945098 -0.08938832 -0.14071922 0.1046395 -0.025283193
0.12877248 0.08820248 -0.004363885 0.20523924 0.19081387 -0.2245392 0.3259626 -0.13822018
0.124806754 0.2083891 0.058210496 0.080532305 -0.090643376 0.032236204 -0.017526459 -0.0156178
0.00848384 -0.00447182 -0.10840552 0.13410859 -0.011278358 -0.09492304 -0.012407692 -0.12779696
-0.029386321 0.029665096 -0.018173225 0.031799946 0.016294252 -0.04324805 -0.113227576 -0.117274396
-0.032238204 0.20686243 -0.07333141 -0.012721509 -0.067961834 0.091294535 -0.03944392 0.12864353
0.018217916 -0.008791201 -0.1177501 0.08463672 0.0022029944 0.10291402 -0.20236859 0.031948265
-0.3009229 0.2918827 0.06172745 -0.2470681 0.044676907 0.028368382 0.17557254 -0.36064792
0.07414302 0.0029242716 0.003103168 0.040136803 0.0058447295 0.04234829 -0.08455752 -0.38015404
-0.31504017 -0.11416723 -0.16996196 -0.07362182 -0.06643638 0.052584752 0.101728044 0.019299505
-0.15820979 0.17884386 0.00031699252 -0.089568056 -0.3524734 0.13864142 -0.061655715 -0.19553623

bias f4 [20]
00000000: 1df4 833d 8b08 98be 0dd4 1e3e cd9a 56bd
00000010: 6c07 05bc 83a5 98bd f14a e33c 73fe 3a3d
00000020: d3f5 2e3d e331 0cbd cb76 24bd a74e 733d
00000030: 507b 09be 65b4 a4bd c70a 10bc fa64 c53d
00000040: 9b97 8b3c 683e 24be 5835 b6bd 4d29 21be
0.06443045 -0.29694018 0.15510578 -0.052393723 -0.008119445 -0.07453444 0.027745696 0.045652818
0.042714905 -0.034227263 -0.040152352 0.05940118 -0.13425946 -0.0804222 -0.008791632 0.096384004
0.017040065 -0.16039431 -0.08896893 -0.15738411
