programming_homework/03/code/h20-bs64-transformer/decoder.pt (torch, 142283 bytes, 46 tensors)

weight f4 [29, 20]
0.96446437 0.3102253 -0.36155427 0.57540226 -1.2463754 -0.41339484 2.4497225 0.68280673
-0.050449733 -0.61987597 -0.89319587 -0.17905699 1.0681736 1.485807 -0.014920072 3.1948235
0.2710869 0.61577904 -1.0727658 -0.71945465 0.39197806 0.18401888 0.037021566 -0.68765265
0.79044825 -0.027636826 1.5589842 0.5145215 -0.5021944 -0.3134121 -1.9558303 -0.92575264
1.0963829 -1.3323339 0.31896055 -0.2913299 -0.8156196 -0.12531094 1.4743311 -1.2344803
2.1064909 0.7693925 -0.5359294 0.4991942 1.4917026 -0.049124565 0.0071257036 -0.5286987
0.16321413 0.96317357 0.8384965 -0.09493704 -0.22496027 -0.4064532 -0.80045116 0.22323747
0.6055879 -0.96902406 0.6589821 1.5897301 -0.6497712 -0.49571258 -0.5430742 0.5331672
-0.03825792 -0.9985671 0.059227407 -1.4594978 -0.9707962 0.0043422645 0.55351263 -0.38396275
-0.59184307 0.4887735 1.3042126 -1.6941355 -0.21936212 -1.0274166 0.03684947 0.48217455
-0.52595764 -0.9027038 1.1557547 -1.7646134 0.07954608 2.318685 -0.59373516 -0.54160094
0.4996125 -0.60476077 0.28811556 0.31095365 -0.3424349 0.053414665 1.7253968 -0.29426697
-1.0208879 -0.86843485 1.3283728 0.640347 0.17834876 0.64527047 1.0075902 0.22952797
-0.5802671 -0.123437576 1.5194131 1.7246501 1.3718722 -0.8403649 -0.29664865 0.30625126
-0.689011 0.35962832 -1.4650524 -0.2428689 0.32278973 0.23177233 0.5631556 1.0697587
0.24256557 1.298528 -0.22276688 0.29282153 1.3692229 -0.76344234 0.089976884 0.16564584
-0.36108288 -0.63779336 0.64679164 0.34718096 -0.6151399 0.94104916 0.47873476 0.60815966
0.13739678 0.052983623 -0.6832027 -0.2972885 1.2499362 0.9802008 0.38088793 0.09237398
0.708147 -0.97031856 -0.68071014 0.19965814 -0.24462262 -0.85245997 0.99248177 0.4702771
-0.41702422 -1.001488 0.3088751 -1.1077682 -0.4920802 -2.5692136 0.09054042 -0.9806491
-0.42302886 -1.1022258 0.98572 1.6116992 -0.7586567 0.10527755 -0.20406076 0.67852676
-2.1308558 0.75871116 -0.988466 1.9747367 -0.7885658 -0.053385705 -0.38564235 -1.2336097
1.2595189 -0.47621033 0.23628315 0.24947079 0.27718633 -1.1488451 1.87243 -0.07952608
-1.6148039 -0.300813 1.3503581 -0.06370663 -1.003861 -1.897405 1.5936279 -1.1614859
0.58398825 0.88515514 0.3017 0.013766135 -0.6806661 0.36613953 -1.0603278 -0.93586046
-1.0810553 -0.9742907 0.6938446 0.10891465 -0.40655386 1.8083874 -0.204712 -1.5765166
0.22902805 -0.2954066 -1.3729099 0.4516952 -2.4570875 0.604197 1.8937281 0.84476775
0.56806576 -0.8751066 0.45195803 0.22335501 -0.6356581 -0.16312064 0.93041724 1.1327217
0.43234268 0.46257195 -0.616912 -0.7334633 0.958027 -0.21547173 0.31223464 -1.1080643
-0.38498172 -0.98658127 -0.45483124 -0.07237347 -0.2695342 -0.85106355 -1.3235403 -0.73318815
-0.55267686 -0.5326507 0.82667726 -1.6719353 0.44166267 0.108459614 -1.0125126 -0.8551673
-1.1738366 -0.31042135 -0.27746078 -0.13100187 0.49144208 -0.3196054 0.970884 1.0707282
00000000: 23e7 763f dad5 9e3e a41d b9be 904d 133f
00000010: 3b89 9fbf 7da8 d3be 41c8 1c40 6ccc 2e3f
00000020: 61a4 4ebd 31b0 1ebf 7ca8 64bf b75a 37be
00000030: eab9 883f ec2e be3f 5173 74bc fd77 4c40
00000040: e7cb 8a3e b2a3 1d3f 6450 89bf 2e2e 38bf
00000050: 59b1 c83e 726f 3c3e eda3 173d 010a 30bf
00000060: d15a 4a3f a066 e2bc cb8c c73f aeb7 033f
00000070: d08f 00bf 8d77 a0be a658 fabf 20fe 6cbf
00000080: 4656 8c3f eb89 aabf cc4e a33e 3129 95be
00000090: 72cc 50bf 8351 00be e2b6 bc3f 7303 9ebf
000000a0: bfd0 0640 e8f6 443f ab32 09bf 6296 ff3e
000000b0: 1cf0 be3f d736 49bd bc7e e93b cc58 07bf
000000c0: 9b21 273e 8b92 763f b5a7 563f 5a6e c2bd
000000d0: fc5b 66be a21a d0be 5eea 4cbf 5d98 643e
000000e0: cf07 1b3f f611 78bf 0db3 283f 477c cb3f
000000f0: 6857 26bf 0ace fdbe e906 0bbf a57d 083f
00000100: 56b4 1cbd 18a2 7fbf 7098 723d d3d0 babf
00000110: 1a86 78bf 8e49 8e3b 01b3 0d3f c496 c4be
00000120: 0783 17bf 8540 fa3e 70f0 a63f 6fd9 d8bf
00000130: 77a0 60be 6382 83bf 78ef 163d 95df f63e
00000140: 29a5 06bf 9917 67bf c5ef 933f dade e1bf
00000150: 0ee9 a23d 5665 1440 07ff 17bf 5ca6 0abf
00000160: 36cd ff3e 9ad1 1abf e283 933e 5135 9f3e
00000170: a153 afbe 56c9 5a3d cdd9 dc3f 29aa 96be
00000180: 74ac 82bf bf51 5ebf 1f08 aa3f c8ed 233f
00000190: 0fa1 363e 7230 253f b7f8 803f 6109 6b3e
000001a0: 628c 14bf d7cc fcbd 217c c23f 56c1 dc3f
000001b0: 8299 af3f 2722 57bf 55e2 97be f7cc 9c3e
000001c0: 0663 30bf 3421 b83e d686 bbbf a0b2 78be
000001d0: b244 a53e ba55 6d3e f72a 103f daed 883f
000001e0: 1c63 783e 2a36 a63f 001d 64be b4ec 953e
000001f0: b242 af3f f570 43bf cd45 b83d 109f 293e
00000200: dbdf b8be 6d46 23bf 2394 253f b4c1 b13e
00000210: cf79 1dbf 99e8 703f b91c f53e 5ab0 1b3f
00000220: beb1 0c3e 5b05 593d 5fe6 2ebf 3336 98be
00000230: e9fd 9f3f 71ee 7a3f be03 c33e 922e bd3d
00000240: 1f49 353f cc66 78bf 0543 2ebf 2f73 4c3e
00000250: 5a7e 7abe d13a 5abf 4913 7e3f 29c8 f03e
00000260: 3384 d5be c230 80bf e124 9e3e 59cb 8dbf
00000270: f0f1 fbbe ff6d 24c0 416d b93d d20b 7bbf
00000280: 3d97 d8be bc15 8dbf 2558 7c3f 294c ce3f
00000290: 5337 42bf c29b d73d 4ef5 50be eeb3 2d3f
000002a0: f15f 08c0 e53a 423f 1c0c 7dbf 2cc4 fc3f
000002b0: 73df 49bf f8aa 5abd ea72 c5be ece6 9dbf
000002c0: ea37 a13f d7d1 f3be 36f4 713e 4575 7f3e
000002d0: 5eeb 8d3e 5b0d 93bf c9ab ef3f 92de a2bd
000002e0: e5b1 cebf 2904 9abe 89d8 ac3f 9f78 82bd
000002f0: 847e 80bf 2bde f2bf 00fc cb3f 92ab 94bf
00000300: 4180 153f 8799 623f 6c78 9a3e 5b8b 613c
00000310: 2240 2ebf a476 bb3e d2b8 87bf 8d94 6fbf
00000320: 0560 8abf 1e6b 79bf cd9f 313f a50e df3d
00000330: d427 d0be 3d79 e73f 06a0 51be 4ccb c9bf
00000340: 5486 6a3e 893f 97be 83bb afbf 9844 e73e
00000350: ec40 1dc0 a8ac 1a3f af65 f23f b342 583f
00000360: c26c 113f fc06 60bf 0b67 e73e 2db7 643e
00000370: 7dba 22bf 1909 27be d32f 6e3f 06fd 903f
00000380: 055c dd3e 3bd6 ec3e f2ed 1dbf 40c4 3bbf
00000390: 4241 753f 9fa4 5cbe 38dd 9f3e 0dd5 8dbf
000003a0: 531c c5be 9790 7cbf a4df e8be 8b38 94bd
000003b0: 6300 8abe 4ddf 59bf c569 a9bf 38b2 3bbf
000003c0: 3b7c 0dbf cc5b 08bf 1fa1 533f fa01 d6bf
000003d0: 9c21 e23e 1320 de3d 039a 81bf 3fec 5abf
000003e0: 4740 96bf 8cef 9ebe 570f 8ebe 5b25 06be
000003f0: 4c9e fb3e 52a3 a3be db8b 783f 9f0d 893f

weight f4 [20, 20]
0.09089776 -0.15432689 -0.10604186 0.06967181 0.124825686 0.14134583 -0.08309994 0.008658439
0.24400237 0.16373129 -0.0058974884 -0.1271973 -0.08952228 0.05679003 -0.33695024 -0.07407763
-0.0772754 -0.09308304 -0.0070299837 0.0023767261 0.09093193 0.07510674 0.08794621 0.0012720533
0.36308256 -0.14681534 -0.08283826 0.057407655 0.20686421 -0.28574568 -0.0818443 -0.11644921
0.2101691 0.028094461 -0.09216853 0.08624941 -0.14274193 -0.116423 -0.13582312 -0.30286965
0.038091794 0.17535108 -0.13243411 0.03065526 -0.141117 -0.06509051 -0.14959478 0.11827553
-0.2872517 -0.021386825 0.23721163 -0.058930602 -0.16148423 0.10406811 0.18380678 0.22457847
0.12725961 0.21570861 0.25297955 0.09965139 0.32557026 0.16162837 -0.07619061 0.07464219
-0.24627778 0.25626597 -0.025035314 0.18993568 -0.33888188 0.13858302 0.04074888 0.39544958
0.0353559 -0.18800299 -0.010084598 0.31442574 -0.1321346 0.19926584 0.23736185 0.13418218
0.37020212 0.074958764 -0.026929572 0.20172626 0.10925978 -0.28029537 0.09078538 -0.13068095
-0.257436 -0.18537849 0.23036088 0.030049993 0.25224516 0.016985672 0.08215776 0.110297985
0.02539844 0.07890319 0.08945103 -0.1165406 -0.13426955 -0.27930158 0.35607812 0.22818975
-0.13490608 0.038686898 -0.109868936 0.3893035 -0.07029651 -0.14704123 -0.21020702 -0.07981633
0.04447102 -0.09956507 0.4255268 0.12865236 -0.028465133 0.03786477 0.13962677 0.27955565
0.17350009 0.19598284 0.23485948 0.19361666 -0.19684608 -0.08241316 0.038805664 0.08930461
-0.051584553 -0.20615207 0.114543706 -0.08330554 -0.15715143 -0.08872903 0.39506802 0.15889989
-0.0866391 0.2151887 0.14343655 0.06677878 0.26433945 0.2447899 -0.17426634 -0.1877985
0.060493194 0.06143451 0.03123653 -0.08570442 -0.03111908 -0.044368032 0.042061154 0.0669483
-0.033174697 0.1243877 -0.22309604 0.010105328 -0.14236814 -0.07017139 -0.06176557 -0.15952952
-0.024367865 0.1390969 -0.24985957 0.01482825 -0.12422416 0.17992744 0.31498095 0.078753866
-0.07195278 0.18627344 0.030746015 -0.006830173 -0.10429083 -0.05505953 -0.052304886 -0.025385996
0.1107432 0.17824115 0.020132564 -0.15973276 -0.5791564 0.20042843 0.006986936 -0.17346892
0.10028231 -0.18314151 0.05765811 0.21834119 -0.03784871 0.0057759373 -0.12607342 0.23978487
-0.23342113 -0.2341472 0.14789782 0.1928389 0.0400673 0.019821502 -0.15998782 -0.13495962
0.019973025 -0.0661659 0.025920715 0.08814014 0.19578846 -0.047969118 -0.14401194 -0.14019558
-0.058538347 0.18020783 -0.2733335 0.11575821 0.052635845 -2.1383632e-05 -0.09134146 0.09381917
0.0934964 -0.19706699 -0.104719415 -0.073821455 0.44679457 -0.1317064 0.0028101676 0.16894573
-0.33252823 -0.0375075 0.046148337 0.06032305 -0.116255745 0.08380719 -0.09432399 -0.2592212
-0.09097094 0.076838486 0.17321956 -0.038230512 0.053648125 -0.17656322 0.06084507 -0.03941802
-0.06956412 -0.10065455 -0.17157626 -0.023672223 -0.15877616 0.0069150142 -0.01815547 -0.21954362
-0.12455977 -0.09109634 0.024676608 0.1835239 0.074326344 0.0828288 -0.047580354 -0.043281525
00000000: 9b28 ba3d de07 1ebe 7a2c d9bd 18b0 8e3d
00000010: 9ca4 ff3d f6bc 103e 4d30 aabd 20dc 0d3c
00000020: c2db 793e 2da9 273e b83f c1bb 0240 02be
00000030: 7557 b7bd aa9c 683d be84 acbe 03b6 97bd
00000040: 9142 9ebd 52a2 bebd c75b e6bb d9c2 1b3b
00000050: 853a ba3d 90d1 993d 241d b43d 07bb a63a
00000060: f5e5 b93e c356 16be 1ba7 a9bd 4a24 6b3d
00000070: 36d4 533e 424d 92be fc9d a7bd ec7c eebd
00000080: 9236 573e 5b26 e63c dbc2 bcbd 88a3 b03d
00000090: f12a 12be 2f6f eebd 3715 0bbe bb11 9bbe
000000a0: 2406 1c3d 3c8f 333e cf9c 07be bd20 fb3c
000000b0: fa80 10be 2c4e 85bd 602f 19be 713a f23d
000000c0: a812 93be 6c33 afbc 9be7 723e 3761 71bd
000000d0: 1f5c 25be a921 d53d d837 3c3e e6f7 653e
000000e0: 5850 023e b8e2 5c3e 8986 813e 0716 cc3d
000000f0: 25b1 a63e e881 253e d309 9cbd 01de 983d
00000100: 3e30 7cbe 4b35 833e dc16 cdbc 807e 423e
00000110: ed81 adbe b5e8 0d3e 4ce8 263d 5e78 ca3e
00000120: 59d1 103d db83 40be df39 25bc 69fc a03e
00000130: 4b4e 07be 580c 4c3e fc0e 733e 0e67 093e
00000140: 228b bd3e fb83 993d 689b dcbc 5491 4e3e
00000150: 97c3 df3d e082 8fbe afed b93d 3ad1 05be
00000160: a7ce 83be dcd3 3dbe b9e3 6b3e 672b f63c
00000170: 4726 813e 8925 8b3c 5442 a83d e9e3 e13d
00000180: 6410 d03c ff97 a13d 1a32 b73d d7ac eebd
00000190: f57d 09be 9e00 8fbe df4f b63e 93aa 693e
000001a0: d224 0abe 2776 1e3d f702 e1bd ca52 c73e
000001b0: 9ef7 8fbd fa91 16be 8240 57be be76 a3bd
000001c0: 3f27 363d c5e8 cbbd a6de d93e 72bd 033e
000001d0: b62f e9bc 1718 1b3d 52fa 0e3e eb21 8f3e
000001e0: 02aa 313e baaf 483e 017f 703e 7243 463e
000001f0: 0592 49be 3bc8 a8bd b0f2 1e3d 56e5 b63d
00000200: 534a 53bd 8719 53be e495 ea3d 189c aabd
00000210: 4eec 20be 91b7 b5bd 5b46 ca3e a7b6 223e
00000220: d76f b1bd 6d5a 5c3e 08e1 123e 50c3 883d
00000230: 8057 873e 34aa 7a3e e072 32be 404e 40be
00000240: b6c7 773d c1a2 7b3d c0e3 ff3c cd85 afbd
00000250: 71ed febc 41bb 35bd 5148 2c3d 311c 893d
00000260: 31e2 07bd fabe fe3d 4a73 64be d190 253c
00000270: f4c8 11be 05b6 8fbd e5fd 7cbd b55b 23be
00000280: 1e9f c7bc 6b6f 0e3e 30db 7fbe 30f2 723c
00000290: 3d69 febd e63e 383e 2f45 a13e b549 a13d
000002a0: fb5b 93bd 77be 3e3e 11df fb3c a5cf dfbb
000002b0: 6e96 d5bd 1a86 61bd a63d 56bd 4bf6 cfbc
000002c0: 55cd e23d d984 363e 0ced a43c fc90 23be
000002d0: 9843 14bf 1c3d 4d3e abf2 e43b d6a1 31be
000002e0: d060 cd3d 7389 3bbe e92a 6c3d d594 5f3e
000002f0: 4007 1bbd 1344 bd3b 6419 01be 2a8a 753e
00000300: f305 6fbe 49c4 6fbe 8772 173e 9077 453e
00000310: 9c1d 243d b460 a23c d9d3 23be db32 0abe
00000320: 789e a33c fd81 87bd ae57 d43c d182 b43d
00000330: c57c 483e 447b 44bd de77 13be 6e8f 0fbe
00000340: e8c5 6fbd 6788 383e 5ef2 8bbe a412 ed3d
00000350: af98 573d 0061 b3b7 3b11 bbbd 4424 c03d
00000360: 0a7b bf3d eecb 49be 2277 d6bd b42f 97bd
00000370: 42c2 e43e 0bde 06be ca2a 383b 1c00 2d3e
00000380: 2441 aabe 77a1 19bd 0a06 3d3d 4d15 773d
00000390: 7e17 eebd 1ba3 ab3d f02c c1bd a4b8 84be
000003a0: f94e babd 7f5d 9d3d 7860 313e 9997 1cbd
000003b0: 23be 5b3d fdcc 34be ae38 793d ca74 21bd
000003c0: a277 8ebd f923 cebd b0b1 2fbe 40ec c1bc
000003d0: 3896 22be 5897 e23b c8ba 94bc 0bd0 60be
000003e0: 3119 ffbd b890 babd 9926 ca3c b0ed 3b3e
000003f0: 6938 983d 25a2 a93d 9ee3 42bd f847 31bd

bias f4 [20]
0.002671926 -0.35585585 0.041519247 -0.10892046 0.05185035 0.11394422 0.090309545 -0.14720786
0.25755748 0.14509958 0.15074094 -0.025579367 0.051582348 0.013520172 -0.052463762 -0.15183318
0.09440028 0.17160767 0.052718166 0.079997525
00000000: 7b1b 2f3b bd32 b6be 1610 2a3d b111 dfbd
00000010: 0861 543d 965b e93d 36f4 b83d a8bd 16be
00000020: 93de 833e fc94 143e d55b 1a3e d28b d1bc
00000030: 0348 533d b683 5d3c 3ee4 56bd 287a 1bbe
00000040: ef54 c13d ecb9 2f3e 01ef 573d bed5 a33d

weight f4 [20, 20]
-0.119770594 -0.067464106 -0.0022589255 -0.023951447 0.12408593 -0.11540319 -0.25006622 -0.029841935
-0.22153218 -0.06287693 -0.096238956 -0.24805142 -0.035395086 -0.0020459443 0.15713255 0.2067309
0.06817483 -0.049964506 0.19250675 0.24017537 0.0938962 -0.04688034 0.0015163561 -0.06986506
-0.14582641 -0.013759793 -0.12058703 0.16637431 -0.014576552 0.1767189 -0.06680138 -0.066538006
-0.04554662 0.1577702 -0.053920735 0.30068114 -0.14524984 0.10379364 -0.08029075 0.053316124
0.23964903 0.095263325 0.084624305 -0.0506613 0.13889495 -0.053451985 0.25105953 -0.16854331
0.3326388 0.03135324 0.025416028 -0.17929554 -0.16344802 -0.18711616 0.13426499 -0.14123431
0.042424563 -0.13551664 -0.008438183 -0.16161376 -0.025548335 -0.17264517 -0.0479449 0.10770237
-0.17025782 -0.20823078 -0.003974711 -0.3092698 -0.15889941 -0.1031864 0.27727923 -0.15891334
0.16255698 -0.21905014 -0.13452902 -0.16494533 0.28822803 -0.26888344 -0.21208684 0.11113322
0.12662798 -0.2998411 -0.22203395 0.20026314 -0.23209424 0.06315042 -0.04718169 -0.27341747
0.06671669 -0.011811623 -0.11616601 -0.051899023 -0.07482717 0.06895786 -0.13366774 -0.12618072
-0.100577585 -0.022807352 -0.1701237 -0.09803854 -0.39245394 -0.22221161 0.31714 -0.061828237
0.0763546 -0.050885793 -0.0118225645 -0.2547625 -0.1073662 -0.047450364 0.21801579 0.015805077
-0.23401025 0.23169 -0.34955877 -0.035659246 0.22882706 -0.06282318 -0.31688353 -0.29360184
0.25072303 -0.113646574 0.083802104 0.04836807 -0.05093027 0.11219809 0.10482769 -0.23842157
0.20383313 -0.07019531 0.03142404 -0.3115281 -0.34533828 -0.1353267 0.02942297 -0.030740269
-0.071739756 -0.084835246 -0.10414925 0.002939506 0.2204936 -0.099508986 -0.15847546 -0.0705529
-0.18314633 -0.08447673 0.050546724 0.063107096 -0.14165704 -0.123917565 0.0045768055 0.22098567
-0.009553954 0.028220484 -0.03109428 -0.17118366 -0.06749624 -0.25950015 0.014966831 0.20188884
-0.09259807 -0.14197296 -0.07986823 -0.14637332 0.19062304 -0.2936048 -0.1545684 -0.12334806
-0.13032337 0.08279935 0.10401034 0.11076341 -0.19673619 0.04159293 0.16920166 0.272196
0.016688827 -0.17214552 0.19007984 0.25678465 -0.13458507 0.34609756 -0.42315114 -0.2475822
0.34774157 0.18660936 0.037874628 0.04296858 0.049963217 0.018375231 0.29724973 0.23653267
0.054597378 0.04882539 -0.102749966 0.015320975 0.08964468 0.039521877 -0.28396308 -0.06717693
-0.13613011 -0.028867837 0.062246382 -0.06990835 0.10259186 0.10695868 -0.2908584 -0.05660325
-0.18278465 0.10632572 0.20192663 0.19293498 0.042427238 -0.021756677 0.14514692 0.06501955
0.19048527 0.08049704 -0.0437358 -0.08799326 -0.012175904 -0.22696088 0.11815198 0.18881692
-0.025492417 0.09471762 0.09851096 0.008561266 -0.15474774 0.12871966 -0.22945523 0.25951234
-0.039642263 0.0025066843 0.08065131 0.009182558 0.14814106 -0.20003095 0.10528153 0.020473352
-0.2640656 0.12512006 -0.001058255 0.00485962 0.06206395 -0.08792339 0.04984907 0.11936151
-0.21754546 0.14514475 -0.042936206 -0.038178448 -0.23338684 -0.05341631 0.2764751 0.03624312
00000000: 494a f5bd 9f2a 8abd 7b0a 14bb d335 c4bc
00000010: c420 fe3d 8258 ecbd ae08 80be 1377 f4bc
00000020: 55d9 62be 9fc5 80bd ee18 c5bd 3101 7ebe
00000030: 70fa 10bd 4015 06bb 5be7 203e 44b1 533e
00000040: 3f9f 8b3d 95a7 4cbd 7d20 453e 88f0 753e
00000050: a74c c03d 9905 40bd 78c0 c63a 6a15 8fbd
00000060: 8553 15be c170 61bc 55f6 f6bd 075e 2a3e
00000070: 7ed2 6ebc cdf5 343e 29cf 88bd 1445 88bd
00000080: 188f 3abd 838e 213e fddb 5cbd e1f2 993e
00000090: 60bc 14be c391 d43d 7a6f a4bd 0262 5a3d
000000a0: 8e66 753e 6b19 c33d 824f ad3d 3982 4fbd
000000b0: 7a3a 0e3e 78f0 5abd e08a 803e 9e96 2cbe
000000c0: a24f aa3e 416c 003d 4635 d03c 4099 37be
000000d0: eb5e 27be 619b 3fbe c37c 093e ba9f 10be
000000e0: 61c5 2d3d e0c4 0abe 4e40 0abc 147e 25be
000000f0: be4a d1bc e5c9 30be df61 44bd 0f93 dc3d
00000100: 1158 2ebe 733a 55be 4b3e 82bb 9c58 9ebe
00000110: 87b6 22be 6453 d3bd 8bf7 8d3e 2eba 22be
00000120: 5675 263e ae4e 60be fac1 09be 6ee7 28be
00000130: a092 933e 17ab 89be 4b2d 59be d099 e33d
00000140: c4aa 013e c684 99be de5c 63be c811 4d3e
00000150: 1daa 6dbe 0255 813d 9641 41bd 60fd 8bbe
00000160: c3a2 883d 8a85 41bc 72e8 edbd 1294 54bd
00000170: fd3e 99bd c739 8d3d 32e0 08be 8535 01be
00000180: 9ffb cdbd 7cd6 babc e834 2ebe 6ec8 c8bd
00000190: b9ef c8be 718b 63be 2d60 a23e 9b3f 7dbd
000001a0: cd5f 9c3d 9f6d 50bd 6eb3 41bc 3b70 82be
000001b0: cfe2 dbbd 505b 42bd 883f 5f3e a679 813c
000001c0: 62a0 6fbe 2540 6d3e 5ef9 b2be 6e0f 12bd
000001d0: a451 6a3e 70a9 80bd 8f3e a2be fb52 96be
000001e0: c55e 803e 89bf e8bd 70a0 ab3d 991d 463d
000001f0: 429c 50bd 1dc8 e53d e6af d63d c924 74be
00000200: a2b9 503e 8fc2 8fbd 7fb6 003d 9c80 9fbe
00000210: 2ed0 b0be 1593 0abe 7108 f13c 04d3 fbbc
00000220: 4bec 92bd 1abe adbd 344c d5bd baa4 403b
00000230: 13c9 613e 5ecb cbbd 6447 22be 0a7e 90bd
00000240: b68a 3bbe 2302 adbd 150a 4f3d 4b3e 813d
00000250: 8b0e 11be 7ec8 fdbd 07f9 953b 114a 623e
00000260: 3088 1cbc a52e e73c 6eb9 febc c54a 2fbe
00000270: 783b 8abd 34dd 84be 7037 753c f3bb 4e3e
00000280: 0fa4 bdbd 5c61 11be f491 a3bd e3e2 15be
00000290: b032 433e 5e53 96be 2e47 1ebe e89d fcbd
000002a0: 7d73 05be b592 a93d 6003 d53d edd7 e23d
000002b0: 3675 49be 595d 2a3d 3343 2d3e 465d 8b3e
000002c0: 02b7 883c ea46 30be 4aa4 423e 4779 833e
000002d0: abd0 09be b333 b13e 44a7 d8be 3086 7dbe
000002e0: 2f0b b23e 8616 3f3e 6d22 1b3d d2ff 2f3d
000002f0: 3ba6 4c3d a787 963c 1e31 983e 9f35 723e
00000300: 80a1 5f3d 22fd 473d 936e d2bd d404 7b3c
00000310: a197 b73d b1e1 213d 9c63 91be 0f94 89bd
00000320: b165 0bbe 3e7c ecbc 10f6 7e3d 1c2c 8fbd
00000330: ae1b d23d 270d db3d 64eb 94be cfd8 67bd
00000340: e62b 3bbe 4dc1 d93d dbc5 4e3e bf90 453e
00000350: 2fc8 2d3d 0f3b b2bc 65a1 143e f828 853d
00000360: 920e 433e a2db a43d 4f24 33bd cf35 b4bd
00000370: 717d 47bc 6f68 68be aaf9 f13d 3959 413e
00000380: 79d5 d0bc 50fb c13d 1dc0 c93d 8d44 0c3c
00000390: 3176 1ebe 16cf 033e 50f6 6abe cdde 843e
000003a0: ed5f 22bd 2f47 243b 842c a53d 7172 163c
000003b0: 4ab2 173e ead4 4cbe d89d d73d bbb7 a73c
000003c0: 9b33 87be 791f 003e 25b5 8aba 723d 9f3b
000003d0: c536 7e3d 2e11 b4bd 8a2e 4c3d cf73 f43d
000003e0: 3dc4 5ebe d3a0 143e e0dd 2fbd 0161 1cbd
000003f0: f6fc 6ebe 10cb 5abd 258e 8d3e aa73 143d

bias f4 [20]
0.19678456 -0.058015402 -0.076435566 0.2038288 0.17951368 0.12127326 0.019754488 0.17850743
0.02231209 -0.14652686 0.0043370426 0.20192179 -0.17640902 -0.2167871 -0.13514909 0.018530842
-0.17624208 0.082960285 0.21446334 -0.0056536817
00000000: e481 493e 8fa1 6dbd 408a 9cbd 7fb8 503e
00000010: 6fd2 373e 1d5e f83d 2ad4 a13c a7ca 363e
00000020: d8c7 b63c 230b 16be c01d 8e3b 96c4 4e3e
00000030: 91a4 34be 70fd 5dbe 8664 0abe fecd 973c
00000040: ce78 34be 15e7 a93d 479c 5b3e 8542 b9bb

weight f4 [20, 20]
-0.20287074 0.05140035 0.21827199 0.040339425 -0.14337455 0.15375738 -0.07037568 -0.09510457
0.059967756 0.014885796 -0.04192218 0.11146483 0.20391594 -0.13553682 0.33767274 -0.13291253
-0.25106004 -0.0847706 -0.17531788 -0.1292331 -0.0358911 0.0021084228 0.042888813 -0.1817665
0.12720698 0.24516053 -0.12185748 -0.0054131774 -0.2410491 0.0085661 0.10544276 -0.007856541
0.12367242 0.05262095 -0.52971375 0.056554925 -0.03225117 -0.20725793 0.1801817 -0.3407106
0.22490907 0.035368387 -0.21671572 0.007451853 -0.2182204 -0.20810074 0.049935825 0.055850647
0.27262586 0.23188554 0.015332332 -0.19178192 -0.26098567 0.14195597 0.0046009496 0.009726005
-0.026004389 -0.057498574 0.15923646 -0.13901597 -0.09660347 -0.2218904 -0.007257917 0.020992268
-0.16029039 -0.050039142 -0.06852329 -0.10669945 -0.054863673 -0.027468426 -0.060941365 -0.20668185
-0.05778498 -0.0086902585 0.06851381 -0.11096636 0.24622293 -0.16953838 -0.0076734675 0.23154525
-0.22020952 0.16134034 -0.14515162 0.2311164 0.05252264 0.17806554 0.005016581 0.14703605
0.109584674 -0.0711821 0.04903571 0.07092471 -0.026522908 0.16084342 0.007603276 0.012025123
-0.2330853 -0.25766087 -0.17289032 -0.04719513 -0.14332879 -0.15231106 0.062462572 0.22943382
-0.17445712 -0.2049793 0.23769014 0.009851479 -0.027644634 -0.06428763 0.24379762 -0.092475295
0.007856135 -0.19752988 0.1798882 0.05910956 0.18219467 -0.10510289 0.08058492 -0.11298873
-0.08372885 0.015432828 -0.2545404 -0.31427193 -0.07697281 -0.17553341 -0.06786856 0.0049392795
0.07732487 0.08040552 -0.13857116 -0.28963616 -0.1298143 -0.2460925 -0.27515015 -0.01739568
-0.11397647 0.051432546 -0.06742334 -0.113091715 -0.28162053 0.028970411 0.095462136 -0.041437365
0.2627289 -0.0025400908 -0.068267696 -0.089772195 0.063948944 0.021053955 0.1328199 0.054407295
-0.20806 0.12537523 0.095696725 -0.32900265 0.081589974 -0.14507283 0.34039116 0.10822611
-0.023926731 -0.1306324 0.11256252 -0.093144566 -0.11674504 0.0052286196 0.29007423 -0.064416215
0.15237786 0.058492333 -0.08769974 -0.10964555 0.028850198 0.2743559 -0.009936608 0.13498908
-0.13384907 0.11483685 0.22426422 -0.026417227 -0.29082143 0.19551893 0.04596796 -0.17665085
-4.928466e-05 -0.37068072 -0.16714416 -0.033584967 0.0142388875 0.17058982 0.043573905 -0.16981772
0.10448682 -0.26658383 0.07372049 0.06746808 0.19529678 -0.16414148 0.13195056 -0.029133396
-0.099077344 -0.1756083 -0.024622908 -0.12994184 0.31771636 -0.087474704 -0.07801109 -0.09674549
-0.12961051 0.13218197 0.07468156 -0.13084583 -0.20611623 -0.16153984 0.013757799 -0.2287149
0.084807016 -0.08304823 0.18232188 -0.12407613 0.06420801 0.12371231 0.07295419 -0.20464021
-0.081574135 0.1379474 0.31448743 -0.027527018 0.21072347 -0.17535271 0.04660417 -0.0085304575
-0.06715142 0.0937633 0.097468816 0.124450326 -0.19465543 -0.051091913 0.31016827 -0.2851171
-0.13245885 -0.28422192 -0.084335335 -0.19211814 -0.09890908 0.029999867 0.055345934 0.0921861
0.14559248 -0.08420174 -0.06887504 -0.14521106 -0.11395786 -0.0016549688 -0.21962126 0.09211345
00000000: 59bd 4fbe 2c89 523d b182 5f3e f43a 253d
00000010: c7d0 12be 9372 1d3e 2021 90bd 2fc6 c2bd
00000020: c0a0 753d 8ee3 733c 98b6 2bbd ac47 e43d
00000030: 57cf 503e 2aca 0abe 71e3 ac3e 391a 08be
00000040: f18a 80be 359c adbd 8886 33be af55 04be
00000050: 8c02 13bd 772d 0a3b 2eac 2f3d ff20 3abe
00000060: 8c42 023e 5d0b 7b3e 6a90 f9bd 0661 b1bb
00000070: 93d5 76be d458 0c3c 60f2 d73d b9b8 00bc
00000080: f747 fd3d 1189 573d 529b 07bf 23a6 673d
00000090: ce19 04bd 6c3b 54be 8d81 383e 9f71 aebe
000000a0: 904e 663e 71de 103d baea 5dbe ac2e f43b
000000b0: 2b75 5fbe 5c18 55be 8289 4c3d a6c3 643d
000000c0: 9e95 8b3e 6773 6d3e 7634 7b3c 7b62 44be
000000d0: ea9f 85be e85c 113e 90c3 963b d259 1f3c
000000e0: 2807 d5bc a083 6bbd e20e 233e 345a 0ebe
000000f0: 0ad8 c5bd 3d37 63be d2d3 edbb faf7 ab3c
00000100: 2a23 24be d8f5 4cbd f055 8cbd 3e85 dabd
00000110: bbb8 60bd 7705 e1bc a79d 79bd 68a4 53be
00000120: f1af 6cbd 9661 0ebc f850 8c3d 5542 e3bd
00000130: dd21 7c3e 789b 2dbe b671 fbbb 331a 6d3e
00000140: 9b7e 61be 6736 253e a0a2 14be c7a9 6c3e
00000150: fb21 573d d056 363e 2262 a43b 9e90 163e
00000160: ee6d e03d ecc7 91bd abd9 483d f940 913d
00000170: 9246 d9bc 23b4 243e e724 f93b 0605 453c
00000180: eaad 6ebe 20ec 83be 290a 31be ae4f 41bd
00000190: c8c4 12be 6ef7 1bbe c1d8 7f3d b3f0 6a3e
000001a0: e3a4 32be 18e6 51be 0b65 733e 1968 213c
000001b0: 0077 e2bc 3ca9 83bd 15a6 793e b063 bdbd
000001c0: 05b7 003c 4645 4abe 9d34 383e de1c 723d
000001d0: 3d91 3a3e 2f40 d7bd b509 a53d a366 e7bd
000001e0: 087a abbd f9d9 7c3c 1f53 82be 40e8 a0be
000001f0: eca3 9dbd 08bf 33be acfe 8abd aed9 a13b
00000200: 805c 9e3d a6ab a43d 99e5 0dbe 314b 94be
00000210: 0aee 04be acff 7bbe 7be0 8cbe 6381 8ebc
00000220: 7f6c e9bd efaa 523d 4015 8abd a19c e7bd
00000230: 9130 90be 5b53 ed3c a781 c33d 3aba 29bd
00000240: 6784 863e a777 26bb efcf 8bbd 7cda b7bd
00000250: aaf7 823d 5879 ac3c f101 083e 2fda 5e3d
00000260: ae0d 55be 5d62 003e a5fc c33d 0973 a8be
00000270: a518 a73d f98d 14be c047 ae3e a7a5 dd3d
00000280: fe01 c4bc 80c4 05be 2e87 e63d 94c2 bebd
00000290: 0618 efbd d754 ab3b 9c84 943e a6ec 83bd
000002a0: f108 1c3e a895 6f3d ec9b b3bd d98d e0bd
000002b0: 4057 ec3c 6078 8c3e 28cd 22bc 943a 0a3e
000002c0: bb0f 09be 952f eb3d 85a5 653e f168 d8bc
000002d0: 8ce6 94be 1d36 483e e648 3c3d f6e3 34be
000002e0: 00b7 4eb8 ddc9 bdbe d727 2bbe 6490 09bd
000002f0: 394a 693c 19af 2e3e 8d7a 323d b2e4 2dbe
00000300: 30fd d53d ad7d 88be c5fa 963d b42c 8a3d
00000310: e1fb 473e b414 28be 0c1e 073e 29a9 eebc
00000320: 10e9 cabd aad2 33be fbb5 c9bc 790f 05be
00000330: b8ab a23e f025 b3bd 47c4 9fbd 8022 c6bd
00000340: 9eb8 04be b65a 073e a5f2 983d 73fc 05be
00000350: 2210 53be b36a 25be 6468 613c 3d34 6abe
00000360: 4daf ad3d 3115 aabd 96b2 3a3e a01b febd
00000370: 7d7f 833d e15c fd3d 0269 953d 348d 51be
00000380: 5710 a7bd 1542 0d3e 7f04 a13e 5780 e1bc
00000390: e5c7 573e a98f 33be 04e4 3e3d 55c3 0bbc
000003a0: af86 89bd f906 c03d bb9d c73d d0df fe3d
000003b0: c153 47be c145 51bd 60ce 9e3e defa 91be
000003c0: 4ba3 07be 8985 91be 01b8 acbd 9eba 44be
000003d0: d890 cabd 48c2 f53c 6bb2 623d 11cc bc3d
000003e0: 3216 153e f671 acbd 5b0e 8dbd 35b2 14be
000003f0: bd62 e9bd 8aeb d8ba 65e4 60be faa5 bc3d

bias f4 [20]
0.009771235 0.1971253 -0.19510725 0.16214195 -0.011219567 -0.06595088 -0.16976236 -0.15596981
-0.020494405 -0.078426465 0.16433024 -0.027925808 0.06132157 -0.0901005 -0.15271452 -0.20205288
-0.11962293 -0.24567422 0.19262101 0.12688498
00000000: 8817 203c 37db 493e 32ca 47be 8a08 263e
00000010: 46d2 37bc 4111 87bd 2fd6 2dbe 8db6 1fbe
00000020: e2e3 a7bc 0e9e a0bd 3046 283e aac4 e4bc
00000030: 542c 7b3d 9c86 b8bd 3261 1cbe f3e6 4ebe
00000040: defc f4bd 0692 7bbe 713e 453e 23ee 013e

weight f4 [20, 20]
-0.1904752 0.0398906 0.06931663 -0.1471953 0.11867687 -0.093757145 0.12005949 -0.11821889
-0.117395744 -0.15439084 -0.24102943 0.0015010696 0.18884434 -0.11361994 -0.12502186 -0.11229573
-0.12432996 0.17721891 -0.09191185 0.07643254 -0.18219222 0.21150982 0.07371405 0.11347969
-0.313017 -0.10400068 -0.14675923 0.020440273 0.027367149 0.067295216 -0.19510882 0.1031231
-0.05639872 -0.17395195 -0.0576037 0.28617993 0.17750448 0.13693912 -0.110052444 0.059262298
0.07163917 -0.10828303 0.14085859 -0.13267069 -0.2287098 0.13656215 0.13391775 0.21195081
0.123355664 0.11978008 -0.13437013 0.055041097 -0.039937858 -0.07085187 0.0633264 0.14451823
0.018666305 0.03877767 0.12896077 0.061708316 0.13016282 0.12593928 0.18607566 -0.27983162
0.1990227 0.02286533 -0.031148488 0.168453 -0.26615065 0.2944146 -0.0771399 -0.18168871
0.20759712 -0.21547352 -0.021086648 -0.14795336 0.18537517 0.17433728 -0.10873306 -0.10370788
-0.17022389 0.012529613 0.043010417 -0.103112526 0.17777148 -0.100472644 -0.032199945 -0.009603994
-0.008034057 -0.06902328 -0.018139614 0.14366344 -0.06953101 -0.06675035 0.019723177 -0.109835155
0.06180372 0.15291832 -0.06267681 -0.0045229 -0.19469841 0.15034689 -0.18133335 -0.04771151
0.17968388 -0.10115954 -0.15659791 -0.08949122 -0.09891641 -0.097329 -0.029840367 -0.015247732
0.020680279 -0.16465415 -0.16781908 0.26859105 -0.013105783 -0.10995075 0.11513549 0.055322982
-0.090761706 -0.038655423 0.21978527 0.2142329 -0.19531041 -0.1402502 -0.08278475 0.18148685
-0.20278701 0.06750179 0.28136653 0.23934713 -0.062895 -0.10151894 0.06901934 -0.19841407
-0.17429481 0.07857409 -0.02745632 0.089553885 -0.102363355 0.04771747 0.037522815 0.29546922
0.026286947 -0.20471965 0.07173887 0.03244353 -0.04861394 -0.14443824 0.09209676 0.02717608
-0.026353104 0.15565781 -0.05637254 0.102317125 0.10433989 0.020049287 0.14389129 -0.039517634
-0.08227336 0.09111752 -0.2245813 -0.115120515 0.023096038 -0.23135932 -0.04607392 -0.15889958
0.16871604 -0.1435027 -0.030255338 -0.20837763 -0.2306951 -0.14322065 -0.15093833 0.015448874
-0.12955019 -0.2302861 -0.02303924 -0.08783559 0.30289993 0.17076103 0.01655265 -0.004914951
-0.14874527 -0.15574439 -0.020208009 -0.12656294 0.15207075 -0.14600883 -0.023349266 0.05038796
0.20395479 0.15415312 0.23230654 0.045958333 -0.0634328 0.09130931 0.11706894 -0.1188125
-0.12572987 0.03917271 0.0396846 -0.13937011 -0.19845253 -0.11024806 -0.16747597 -0.00062724703
0.12012168 0.22290766 0.08233671 -0.09481149 -0.11838011 -0.39696577 -0.14003895 -0.10959307
-0.09633241 0.015063639 -0.15638366 0.09169105 0.12040103 -0.01619651 0.014823513 0.2705581
-0.021095574 0.030399047 -0.0012113181 -0.1449788 0.1701575 -0.1687528 0.034532826 0.042257894
0.20090194 0.06725364 0.21741623 0.12905066 -0.011268431 0.1448406 -0.038310688 -0.11133046
0.14497174 -0.25465804 0.113135874 -0.17215072 -0.13126731 0.09563178 -0.19224639 0.11469195
-0.0703773 -0.13166192 0.22174573 0.13235976 -0.17097121 -0.21808243 0.013617576 -0.18765895
00000000: ee0b 43be 5364 233d e1f5 8d3d 5dba 16be
00000010: dc0c f33d bf03 c0bd c0e1 f53d bf1c f2bd
00000020: 2e6d f0bd a218 1ebe 6bd0 76be 8abf c43a
00000030: 6960 413e 92b1 e8bd bb05 00be 4efb e5bd
00000040: b5a0 febd e078 353e 483c bcbd aa88 9c3d
00000050: 9990 3abe 0896 583e 64f7 963d 0a68 e83d
00000060: c443 a0be 4ffe d4bd 0d48 16be 5c72 a73c
00000070: 1231 e03c 13d2 893d 9bca 47be 3432 d33d
00000080: 5802 67bd 7620 32be dbf1 6bbd 2d86 923e
00000090: bcc3 353e c539 0c3e 2d63 e1bd 06bd 723d
000000a0: 8fb7 923d 7ec3 ddbd 3c3d 103e d3da 07be
000000b0: e732 6abe f3d6 0b3e bc21 093e a209 593e
000000c0: e5a1 fc3d 424f f53d 5398 09be c672 613d
000000d0: e195 23bd c91a 91bd 46b1 813d 96fc 133e
000000e0: 14ea 983c 56d5 1e3d 4b0e 043e dcc1 7c3d
000000f0: 6749 053e 3af6 003e 9e8a 3e3e 1746 8fbe
00000100: 9bcc 4b3e 1350 bb3c 1d2b ffbc f17e 2c3e
00000110: e644 88be 83bd 963e 86fb 9dbd 9b0c 3abe
00000120: 5794 543e 17a5 5cbe e8bd acbc 1681 17be
00000130: fdd2 3d3e 7985 323e 70af debd cc64 d4bd
00000140: 2c4f 2ebe 0249 4d3c b12b 303d a92c d3bd
00000150: ba09 363e 9ac4 cdbd 17e4 03bd 125a 1dbc
00000160: 47a1 03bc 145c 8dbd 8799 94bc 821c 133e
00000170: 4666 8ebd 68b4 88bd 8092 a13c 41f1 e0bd
00000180: e625 7d3d 9f96 1c3e b35c 80bd d634 94bb
00000190: 055f 47be 89f4 193e 73af 39be 256d 43bd
000001a0: 0dff 373e bc2c cfbd 345b 20be 2c47 b7bd
000001b0: b094 cabd 6d54 c7bd c973 f4bc a0d1 79bc
000001c0: b069 a93c 199b 28be c4d8 2bbe c484 893e
000001d0: a3b9 56bc dc2d e1bd 28cc eb3d 5a9a 623d
000001e0: 46e1 b9bd 2655 1ebd 640f 613e df5f 5b3e
000001f0: 74ff 47be c09d 0fbe 0d8b a9bd b0d7 393e
00000200: 66a7 4fbe 613e 8a3d 460f 903e 6a17 753e
00000210: 18cf 80bd 29e9 cfbd 035a 8d3d 0f2d 4bbe
00000220: 577a 32be 74eb a03d 14ec e0bc 0768 b73d
00000230: e1a3 d1bd 6573 433d 86b1 193d be47 973e
00000240: b957 d73c 07a2 51be d4eb 923d 82e3 043d
00000250: 691f 47bd 9ee7 13be 3a9d bc3d 5fa0 de3c
00000260: 77e2 d7bc c364 1f3e e4e6 66bd a48b d13d
00000270: 27b0 d53d 673e a43c 3d58 133e 3edd 21bd
00000280: ef7e a8bd d39b ba3d a4f8 65be 4ec4 ebbd
00000290: e733 bd3c 75e9 6cbe 02b8 3cbd 92b6 22be
000002a0: e6c3 2c3e 5ff2 12be 0bda f7bc f260 55be
000002b0: 563b 6cbe 6fa8 12be 948f 1abe 461d 7d3c
000002c0: cea8 04be 1fd0 6bbe cabc bcbc 25e3 b3bd
000002d0: b315 9b3e fbdb 2e3e 6c99 873c 990d a1bb
000002e0: ae50 18be 757b 1fbe 448b a5bc b799 01be
000002f0: 6fb8 1b3e 5783 15be f646 bfbc 9b63 4e3d
00000300: 86d9 503e 51da 1d3e c4e1 6d3e ce3e 3c3d
00000310: 0ee9 81bd 6000 bb3d d7c1 ef3d f853 f3bd
00000320: 55bf 00be 9073 203d 528c 223d 0ab7 0ebe
00000330: 2437 4bbe bcc9 e1bd d27e 2bbe d66d 24ba
00000340: 5b02 f63d e841 643e 26a0 a83d 872c c2bd
00000350: 4571 f2bd 193f cbbe 5f66 0fbe 5572 e0bd
00000360: ed49 c5bd 7bcd 763c 0a23 20be 84c8 bb3d
00000370: d194 f63d 8bae 84bc 52de 723c 9786 8a3e
00000380: a0d0 acbc 6c07 f93c 17c5 9eba 5375 14be
00000390: c53d 2e3e 89cd 2cbe 4b72 0d3d 9d16 2d3d
000003a0: 3db9 4d3e 47bc 893d 5ca2 5e3e db25 043e
000003b0: 3a9f 38bc 1851 143e abeb 1cbd 3901 e4bd
000003c0: 7973 143e 8a62 82be c8b3 e73d 4748 30be
000003d0: f06a 06be 98da c33d 3ddc 44be 9de3 ea3d
000003e0: f921 90bd 62d2 06be 5011 633e 5189 073e
000003f0: 1413 2fbe 0051 5fbe 411c 5f3c ab29 40be

bias f4 [20]
-0.035799902 0.20240432 0.07855843 0.007637125 0.18380953 0.009250669 -0.07705386 -0.095759764
0.080747604 0.14219372 0.20663464 -0.07371339 0.25366172 0.028891427 0.24081255 -0.0150553
0.07733458 -0.12594695 -0.07804335 0.21751873
00000000: eba2 12bd 1443 4f3e 3ee3 a03d d940 fa3b
00000010: 9138 3c3e 1e90 173c 6ace 9dbd b21d c4bd
00000020: 005f a53d 3b9b 113e 0898 533e 0cf7 96bd
00000030: f3df 813e b7ad ec3c 9197 763e 81aa 76bc
00000040: 9861 9e3d 3df8 00be 31d5 9fbd 3bbd 5e3e

weight f4 [20, 20]
0.0017683302 -0.051389523 -0.14436539 0.090483315 0.100256816 0.07564417 -0.11560599 -0.06654638
0.2544715 -0.117674775 -0.1779691 0.15193199 0.23204003 -0.041011654 0.18288463 -0.02698673
-0.11413963 0.07498171 0.20744398 0.13445409 -0.14804986 0.06741591 0.04105653 -0.195698
0.06649803 -0.13666107 0.15650633 0.27843174 0.048980772 0.097238235 0.13868508 0.17772001
-0.110081494 -0.2628119 -0.030681537 -0.016309151 -0.10095829 -0.022975009 0.27470902 0.07831026
-0.053599723 0.1845669 -0.21126033 -0.24274242 0.10749275 0.18817389 0.09163432 -0.17074876
-0.0682216 0.038933847 0.05506481 -0.050609462 -0.01605067 -0.05925628 -0.057395946 -0.01452207
0.056824263 -0.21732913 -0.000649327 -0.041320574 0.043101374 0.0013924037 -0.26740816 -0.21980152
0.010101174 0.1528759 -0.08500354 -0.21551496 -0.05352794 0.25224197 -0.16810384 0.26531985
0.031546745 -0.098543756 -0.26798502 -0.0025652624 0.13886034 0.5178539 0.10382124 0.10326458
0.068542674 0.12914999 0.025184998 -0.15984501 0.117761135 -0.06909829 -0.08682196 0.060631707
-0.0074759964 -0.055311285 -0.033419494 0.14965592 -0.053562216 0.07764707 -0.10926887 0.08545948
-0.06960429 -0.08052866 0.09444434 0.3278047 0.082583375 0.22812778 -0.14368491 -0.08662524
-0.049588647 -0.011403381 0.18013725 0.22562808 -0.09154923 0.13309053 0.16961747 0.19814992
0.13327704 0.3299706 0.094451495 -0.25387663 -0.08937563 -0.23878276 -0.13069637 -0.084185794
-0.08483357 0.061416887 0.06366068 -0.08399596 0.017428048 0.17858797 -0.04936654 -0.072614945
0.15218614 -0.10698556 0.218913 -0.103195794 -0.20819183 -0.15936227 -0.056760892 0.40968984
0.039104123 0.09193298 -0.17033349 -0.14591753 -0.01811139 0.09784352 0.101903655 -0.07644908
-0.11511417 0.17974009 0.18994823 -0.007869165 0.29386365 -0.040263906 0.21370982 0.06109211
0.116070345 -0.17348413 0.25410828 0.12278282 0.08331381 -0.015479299 -0.11547641 -0.06665986
0.0527311 0.116591275 0.13427493 -0.022945289 -0.18500821 0.15328929 0.057849724 0.030698916
0.020374384 -0.005705489 0.13119575 -0.1737 0.02212095 0.24481098 0.14555691 0.09655151
0.22844665 -0.020335827 0.06950251 0.16298927 0.06369352 -0.250708 -0.031349078 -0.07834841
0.15996292 0.1434176 -0.051969327 0.088921174 -0.03618241 -0.17060448 0.1650709 -0.13153917
0.117199205 -0.07949994 -0.0041114143 0.1930933 -0.02572098 0.3000352 0.21870625 -0.18055125
-0.028305309 0.03586316 -0.030873144 -0.029879931 -0.10202399 0.08823206 0.06043264 0.07337245
-0.1626017 0.15521616 0.039638106 0.2964414 -0.22289293 0.10380516 -0.033675943 -0.27581328
-0.15405376 -0.00064215326 -0.06867477 -0.043036368 0.12813361 -0.24792369 0.15729341 0.16591567
0.17345361 -0.081887715 -0.033890504 0.1725935 -0.15292116 0.049744017 -0.13675553 -0.0944227
0.09030851 0.11245083 -0.008735417 0.17412291 -0.21901996 0.24519676 0.12664308 -0.2826402
0.035411686 -0.16527352 0.21498604 0.2415452 0.038435105 -0.10611538 0.03391584 -0.06742232
0.16081125 -0.0018863044 -0.107794315 0.19744582 -0.02272391 -0.17381677 -0.21705873 -0.07225269
00000000: 51c7 e73a d27d 52bd 85d4 13be 514f b93d
00000010: 7253 cd3d 55eb 9a3d d5c2 ecbd 7849 88bd
00000020: 174a 823e 79ff f0bd 883d 36be 0f94 1b3e
00000030: e79b 6d3e d6fb 27bd 1c46 3b3e 4613 ddbc
00000040: 0ac2 e9bd 0390 993d 326c 543e 55ae 093e
00000050: 629a 17be 5a11 8a3d e42a 283d 0e65 48be
00000060: 1f30 883d e1f0 0bbe 3243 203e 9b8e 8e3e
00000070: 10a0 483d d724 c73d 7603 0e3e 3cfc 353e
00000080: 6872 e1bd 488f 86be d957 fbbc c59a 85bc
00000090: 38c3 cebd 1636 bcbc a9a6 8c3e 2161 a03d
000000a0: 628b 5bbd 1bff 3c3e a154 58be 7891 78be
000000b0: 2925 dc3d a8b0 403e c6aa bb3d c3d8 2ebe
000000c0: c4b7 8bbd 1979 1f3d a38b 613d de4b 4fbd
000000d0: b27c 83bc b7b6 72bd 0318 6bbd faed 6dbc
000000e0: 8fc0 683d 878b 5ebe 9937 2aba c33f 29bd
000000f0: 118b 303d 5181 b63a b9e9 88be a613 61be
00000100: 657f 253c 808b 1c3e 5616 aebd f4af 5cbe
00000110: 1d40 5bbd dc25 813e 6a23 2cbe 01d8 873e
00000120: 2937 013d 4fd1 c9bd 5535 89be f61d 28bb
00000130: 6831 0e3e 1392 043f 3ba0 d43d 617c d33d
00000140: 1a60 8c3d e53f 043e c550 ce3c 69ae 23be
00000150: c02c f13d 6783 8dbd b6cf b1bd f458 783d
00000160: 34f9 f4bb 168e 62bd e1e2 08bd 673f 193e
00000170: 0e64 5bbd 6d05 9f3d 5bc8 dfbd 6105 af3d
00000180: b28c 8ebd 36ec a4bd 096c c13d 05d6 a73e
00000190: 7921 a93d 549a 693e 2322 13be 9368 b1bd
000001a0: 771d 4bbd 3fd5 3abc e675 383e 0c0b 673e
000001b0: 2a7e bbbd e248 083e 34b0 2d3e d0e7 4a3e
000001c0: c779 083e e8f1 a83e c96f c13d 1efc 81be
000001d0: 920a b7bd 7883 74be 45d5 05be 9a69 acbd
000001e0: 39bd adbd 4690 7b3d 8860 823d 1306 acbd
000001f0: 44c5 8e3c c4df 363e 9234 4abd 25b7 94bd
00000200: afd6 1b3e 3f1b dbbd bb2a 603e 5158 d3bd
00000210: 3d30 55be dd2f 23be 1c7e 68bd dec2 d13e
00000220: a52b 203d 5c47 bc3d e76b 2ebe 686b 15be
00000230: 565e 94bc 2f62 c83d ddb2 d03d 5691 9cbd
00000240: fac0 ebbd c90d 383e ca81 423e aced 00bc
00000250: 4c75 963e c4eb 24bd bfd6 5a3e b83b 7a3d
00000260: 4ab6 ed3d d3a5 31be 7b1a 823e 8f75 fb3d
00000270: 6ea0 aa3d e39c 7dbc e57e ecbd f784 88bd
00000280: 91fc 573d 68c7 ee3d 5e7f 093e c2f7 bbbc
00000290: cb72 3dbe def7 1c3e d5f3 6c3d 4b7c fb3c
000002a0: 2ee8 a63c 1cf5 babb 2e58 063e 6ade 31be
000002b0: ff36 b53c bbaf 7a3e df0c 153e ccbc c53d
000002c0: ebed 693e 5297 a6bc 5557 8e3d a9e6 263e
000002d0: c071 823d cd5c 80be e467 00bd 2275 a0bd
000002e0: 52cd 233e 10dc 123e cadd 54bd 4e1c b63d
000002f0: 0234 14bd f1b2 2ebe 5908 293e 34b2 06be
00000300: 2306 f03d ddd0 a2bd 0bb9 86bb 40ba 453e
00000310: ceb4 d2bc 379e 993e 88f4 5f3e 6de2 38be
00000320: 89e0 e7bc 40e5 123d ade9 fcbc c2c6 f4bc
00000330: f4f1 d0bd 03b3 b43d 3788 773d 4c44 963d
00000340: 0f81 26be fcf0 1e3e 915b 223d 2bc7 973e
00000350: 0b3e 64be cd97 d43d c9ef 09bd 6637 8dbe
00000360: 45c0 1dbe 2d56 28ba 5ca5 8cbd e746 30bd
00000370: 7535 033e b5df 7dbe 8611 213e cce5 293e
00000380: d39d 313e bfb4 a7bd c5d0 0abd 5abc 303e
00000390: 5d97 1cbe 62c0 4b3d a409 0cbe b060 c1bd
000003a0: abf3 b83d 9f4c e63d ff1e 0fbc 474d 323e
000003b0: c546 60be dc14 7b3e b9ae 013e 37b6 90be
000003c0: d80b 113d 763d 29be 4d25 5c3e a057 773e
000003d0: 216e 1d3d 0553 d9bd 56eb 0a3d b714 8abd
000003e0: b4ab 243e df3d f7ba 44c3 dcbd 3d2f 4a3e
000003f0: 7e27 babc 06fd 31be a544 5ebe 38f9 93bd

bias f4 [20]
0.03374428 -0.14539643 -0.0452268 -0.016076159 0.14929049 0.18517385 -0.018800087 -0.17900568
0.17679566 0.13933396 0.029498892 0.026793672 -0.1901542 0.17468631 0.038093776 -0.18333066
-0.050937876 0.08840797 -0.117534086 0.029221052
00000000: 7137 0a3d cde2 14be bd3f 39bd 26b2 83bc
00000010: 9bdf 183e 379e 3d3e a402 9abc 444d 37be
00000020: ec09 353e 90ad 0e3e a9a7 f13c 677e db3c
00000030: c8b7 42be f8e0 323e 3808 1c3d 08bb 3bbe
00000040: 3ca4 50bd 3d0f b53d b6b5 f0bd fd60 ef3c

weight f4 [20, 20]
-0.11855988 0.15046518 -0.008364391 -0.118962936 0.18754214 -0.21424876 0.06310603 -0.15232706
-0.2078279 0.22947633 -0.016932229 -0.1616913 -0.062558524 0.11449023 0.15677175 0.24693656
0.01797346 -0.0033662615 -0.07083444 -0.17730981 0.037108146 0.091332 0.09346583 0.052065957
0.14427337 -0.13722873 -0.16176696 -0.072979026 -0.2879074 0.059460297 -0.021818357 -0.11786458
0.010681711 0.069561884 0.018398495 0.09988016 0.016077591 -0.25791004 0.040340174 0.029320264
0.162242 -0.11416715 -0.008885084 0.0321273 -0.14756331 0.16791226 -0.112156965 0.01444418
-0.12007037 -0.061460417 -0.031695474 0.31483287 -0.102348514 0.16408071 -0.17692623 -0.11141384
0.21176828 0.061416984 -0.14802177 0.16652295 -0.16270803 -0.021801353 -0.021103088 -0.2569002
-0.1913345 -0.08894155 0.3552305 -0.03699317 0.36905125 -0.1862869 -0.07807667 0.019435076
-0.054024152 -0.08782505 0.07400862 0.14614828 -0.03306149 0.18243659 -0.08930146 -0.056881074
0.16074347 -0.019488944 0.10469631 0.23477572 0.041600347 0.09169914 0.13112222 0.14798576
-0.14238623 -0.10321607 -0.12742727 -0.18753968 -0.0554922 -0.003497575 0.24839489 -0.012405125
0.048559673 0.16669802 -0.3143464 -0.2424113 -0.08355117 -0.20342125 -0.24336825 -0.18082678
0.22028644 -0.24429554 0.14873858 -0.116264254 0.053444937 -0.22886829 -0.15120791 0.22720426
-0.03395626 0.17701006 -0.19953035 0.077918455 0.2009575 -0.04479716 -0.01924153 0.13648932
-0.07164494 0.06925359 -0.09698395 0.08602746 0.14361596 0.030240472 0.07491285 0.07149726
-0.034741044 0.17830655 -0.11723474 0.11591174 -0.0705463 0.104460075 0.023427058 0.14565358
0.092746586 0.15192886 0.036927663 -0.020109838 0.21202499 0.08330289 0.21336664 -0.048205893
0.092593364 0.13678761 -0.030891579 0.15057783 -0.06250276 0.21661644 0.13216543 0.18084481
-0.11924095 0.021508403 0.013619654 -0.21193992 -0.12905826 -0.08372546 0.12647408 0.0955567
0.0067622024 0.15746157 -0.2344808 -0.065109715 -0.14206257 0.35518563 -0.32609293 -0.26647505
-0.19354267 -0.124533065 0.084549576 0.12796003 -0.05268469 0.047785267 0.09816725 -0.02415191
-0.24093339 -0.07713253 -0.066660814 -0.033039723 0.03845897 0.13425353 0.096418545 -0.017389413
-0.1942081 -0.24592213 0.25710577 0.008753189 0.097495385 -0.16597326 0.006625906 0.12539257
0.052323002 -0.105414905 0.046501018 -0.22691213 -0.1899467 0.0049103126 0.18668772 0.17914109
0.098178335 -0.2071066 0.22789301 -0.27589476 0.124128126 -0.08817264 0.08259436 -0.15674324
0.17869201 0.07473997 0.001927556 -0.02325134 0.06369499 -0.17491722 -0.07808481 -0.10430364
0.20758489 -0.07761645 -0.116403736 0.061337136 0.20127642 -0.039033994 -0.18961284 -0.0013589789
0.07589392 0.2606416 0.087525696 -0.12031918 0.11164602 -0.22295217 0.007580894 -0.053158067
0.18186744 -0.016828425 -0.11374582 0.0628314 -0.17202325 0.24397768 0.23669289 -0.14936307
-0.14429154 -0.2292934 0.054425903 0.06591193 0.0012513389 0.09577816 -0.0028468254 0.23030008
0.08863421 -0.032080792 -0.12410133 -0.052236788 0.11049685 -0.054790482 0.14567 0.07337043
00000000: 86cf f2bd 8b13 1a3e cc0a 09bc d7a2 f3bd
00000010: 0c0b 403e 0764 5bbe bc3d 813d a0fb 1bbe
00000020: d6d0 54be d8fb 6a3e 75b5 8abc 6792 25be
00000030: af1e 80bd db79 ea3d c688 203e f0dc 7c3e
00000040: 143d 933c 7f9c 5cbb a611 91bd b490 35be
00000050: b6fe 173d 460c bb3d 036b bf3d 1d43 553d
00000060: 66bc 133e b085 0cbe 3da6 25be 0776 95bd
00000070: 9968 93be a48c 733d 69bc b2bc fc62 f1bd
00000080: 5802 2f3c 7676 8e3d 71b8 963c f88d cc3d
00000090: 27b5 833c c90c 84be bd3b 253d 0d31 f03c
000000a0: c422 263e 77d0 e9bd be92 11bc ea97 033d
000000b0: d61a 17be 31f1 2b3e 8db2 e5bd 48a7 6c3c
000000c0: 74e7 f5bd ebbd 7bbd 1dd3 01bd c631 a13e
000000d0: 199c d1bd c604 283e 262c 35be f02c e4bd
000000e0: c9d9 583e 6090 7b3d 0593 17be fe84 2a3e
000000f0: ef9c 26be c098 b2bc 62e0 acbc 6c88 83be
00000100: 31ed 43be fd26 b6bd c6e0 b53e 2686 17bd
00000110: 49f4 bc3e fec1 3ebe a9e6 9fbd 4f36 9f3c
00000120: 6e48 5dbd 9fdd b3bd d591 973d e5a7 153e
00000130: 7c6b 07bd a8d0 3a3e afe3 b6bd 21fc 68bd
00000140: f099 243e 47a7 9fbc 056b d63d 0c69 703e
00000150: 2065 2a3d c2cc bb3d e744 063e 9489 173e
00000160: b2cd 11be f262 d3bd 4b7c 02be 670a 40be
00000170: ca4b 63bd 9237 65bb 3b5b 7e3e de3e 4bbc
00000180: 82e6 463d e3b2 2a3e 03f2 a0be ab3a 78be
00000190: e01c abbd a94d 50be 8735 79be a82a 39be
000001a0: c592 613e 9c28 7abe ed4e 183e f41b eebd
000001b0: 14e9 5a3d 735c 6abe 3fd6 1abe 3ca8 683e
000001c0: b815 0bbd 2042 353e af51 4cbe b693 9f3d
000001d0: cec7 4d3e 3a7d 37bd 6aa0 9dbc dbc3 0b3e
000001e0: 95ba 92bd d4d4 8d3d 859f c6bd 2a2f b03d
000001f0: 1010 133e deba f73c e96b 993d 286d 923d
00000200: a04c 0ebd fe95 363e c418 f0bd 2263 ed3d
00000210: 947a 90bd 2aef d53d 1aea bf3c 3626 153e
00000220: ecf1 bd3d 3d93 1b3e 7641 173d 63bd a4bc
00000230: 141d 593e b59a aa3d c97c 5a3e 8b73 45bd
00000240: 97a1 bd3d 0d12 0c3e 5610 fdbc 1331 1a3e
00000250: 7201 80bd b3d0 5d3e 6056 073e 622f 393e
00000260: 9934 f4bd 6432 b03c f824 5f3c c706 59be
00000270: d927 04be 4178 abbd 6c82 013e 3bb3 c33d
00000280: 7795 dd3b 9b3d 213e bc1b 70be 3e58 85bd
00000290: da78 11be e4da b53e a7f5 a6be 6b6f 88be
000002a0: 0d30 46be 310b ffbd 5428 ad3d f407 033e
000002b0: e7cb 57bd 7cba 433d e90b c93d 3ada c5bc
000002c0: 3eb7 76be a9f7 9dbd 7785 88bd a954 07bd
000002d0: 2787 1d3d c279 093e 1677 c53d 3e74 8ebc
000002e0: 7dde 46be 03d3 7bbe 5ea3 833e 8969 0f3c
000002f0: a9ab c73d e5f4 29be 211e d93b e966 003e
00000300: a550 563d c5e3 d7bd da77 3e3d a75b 68be
00000310: 6381 42be b0e6 a03b 112b 3f3e c370 373e
00000320: b911 c93d c113 54be c95c 693e 1442 8dbe
00000330: e336 fe3d db93 b4bd 3b27 a93d 4d81 20be
00000340: 0afb 363e 4511 993d 0ca6 fc3a 9879 bebc
00000350: 8572 823d 801d 33be eeea 9fbd 269d d5bd
00000360: 2291 543e 60f5 9ebd 1565 eebd a63c 7b3d
00000370: 681b 4e3e 1ce2 1fbd de29 42be c41f b2ba
00000380: 466e 9b3d d172 853e ac40 b33d e769 f6bd
00000390: aba6 e43d 934d 64be 2669 f83b 46bc 59bd
000003a0: 753b 3a3e c4db 89bc 92f3 e8bd c0ad 803d
000003b0: dd26 30be 49d5 793e 9f5f 723e a2f2 18be
000003c0: 29c1 13be e4cb 6abe b2ed 5e3d d5fc 863d
000003d0: f703 a43a 5727 c43d ce91 3abb c9d3 6b3e
000003e0: da85 b53d 2667 03bd d728 febd 3ef6 55bd
000003f0: 2c4c e23d fc6b 60bd 842a 153e 3c43 963d

bias f4 [20]
0.07762031 -0.0036168557 -0.15300451 0.25150928 -0.1942648 0.17978656 0.034815144 0.042217866
0.013436792 0.12815866 -0.23011193 -0.20328094 -0.1379663 -0.042082552 -0.21607806 -0.19996668
0.15986867 -0.12361081 0.03674261 0.111783415
00000000: 66f7 9e3d c508 6dbb 37ad 1cbe d3c5 803e
00000010: 5aed 46be f819 383e 539a 0e3d a4ec 2c3d
00000020: fe25 5c3c 063c 033e 76a2 6bbe e128 50be
00000030: 0a47 0dbe c15e 2cbd 9143 5dbe 11c4 4cbe
00000040: 9db4 233e aa27 fdbd 6b7f 163d b4ee e43d
