programming_homework/03/code/h20-bs64-transformer/encoder.pt (torch, 116038 bytes, 26 tensors)

weight f4 [29, 20]
00000000: 0d99 2c3f a2c7 693f 12c5 d33f efcd acbf
00000010: 7c96 b8be c168 c43f 2ef6 8d3f 7f3e acbf
00000020: 709d 9dbf a030 a03e 7fd4 983e 8980 e03b
00000030: 3503 c1be 1c53 49bf 68f7 1a3f f07f 36bf
00000040: f2b1 e5bf 5be0 25bf 32cb e03f 6356 f9be
00000050: 6aa1 72bf 7677 10bf f48d efbf c709 3a3f
00000060: 642e 2fbc 13b5 f7be afa1 b53d 0ad4 bd3f
00000070: 21a4 233e 62c9 0a3f b74a 0ebe f656 69bf
00000080: dd6f 9b3f d8a8 1ebf 3c2b 4ebf c3b1 733f
00000090: 3f42 0bbe a4ab d9bf dfae b83e c929 0a3f
000000a0: 9f39 943f 83d7 64bd 560f 7e3f 94df 01bf
000000b0: 2a55 3abf 3851 5bbf 1040 aebf 6bf6 5bbe
000000c0: 4e17 9abf 6396 8eba 3d52 f43d 3a43 9abf
000000d0: 9fb8 c9bc 4add 8ebe 777c 863f 04b2 633f
000000e0: 71fd 06be 4cd5 59bf 46bd e13e 74e8 ac3e
000000f0: 4040 89be 9879 98be f769 3bbf f32a 5bbf
00000100: a85f 47bf d800 a33f b17d 293e 572d e8be
00000110: 38bd a0bc 69d2 1e3d 4091 e5be ed7e 853f
00000120: ff48 f4be 7263 b2bd 4ef9 a3bf 0734 31be
00000130: 53e3 7b3f 536a 5dbd e663 58bf 2c23 213e
00000140: 8183 f73f efa8 a93f 151d 29bf fffe de3e
00000150: 9859 bc3f 3fc4 763d 0a8b 43bf d32c b6bf
00000160: d5a8 afbe 95e6 b03e 63ef 88be 1865 f23f
00000170: d177 b23f a6ec 8dbf 94b0 a9be a2d5 3f3e
00000180: 1cec 85be 05e0 3840 2d51 e8bc cb3e cebf
00000190: b82d 9c3f 71c0 65be a78e 17bf 6a4f 273f
000001a0: b006 0abf 6da3 b0bf 97c3 bcbe 323b 4b3f
000001b0: 5012 26bf 3ee1 ed39 e08e 8dbf a396 123e
000001c0: 525e ff3e 5769 c43f e50e 873f 0c5e 7cbf
000001d0: d781 113f 49b2 553f 8046 60bd ac16 a2bf
000001e0: 53d9 c63f be1d bd3e 124e d03f 2992 b5bf
000001f0: 1317 da3f d301 5dbe 1c98 ba3e ed2e afbe
00000200: 779e 193f f804 123f 6c4c 83bd 9b3f 11bf
00000210: 58a1 e73f ba9e 96bf 152a 87be a115 ad3f
00000220: 1d39 3940 7f2b 353f acb7 fb3e bda2 d9bf
00000230: 47c6 d53f 25ee a5bf db67 b0be 4e90 1a3e
00000240: 9a74 f2be 21ac 323f 39dd f03e ab98 fa3d
00000250: cc7e 86bf 0cc0 b53e b4df 46be 0c30 e5bf
00000260: 67e1 96be fa38 a53f 0d4f fc3d 4500 8f3e
00000270: ba64 cc3f d49a c5bc 512b 523e ee3e 49bf
00000280: 75da 033e e243 5cbe ff72 17bf a27f 61bf
00000290: b037 edbe 69a9 ecbd ffb6 6fbf 1736 1cbf
000002a0: cc54 2dbf cd3b 3dbd 320d 6d3f ffe4 013f
000002b0: 67a3 5e3f 1d95 1e3e a74c 1ac0 2e2f b0bd
000002c0: bed0 8e3e d90e 673f f20e 1940 c870 07bf
000002d0: 75d1 a6be e4b3 91bf ae0e 5ebe b284 473f
000002e0: 9b03 54bf 8ab9 0abf 99d3 0ec0 4cc2 d2be
000002f0: 819a 2d3e c894 213f 54ab 8d3f 5f51 d73f
00000300: b353 043d 6096 b7bf 14c0 6f3f 1747 e93e
00000310: 9eb4 a53c 5c32 30bf 7e09 22bf 0399 603f
00000320: 5972 2ebf 603f 8fbe d5c9 b6be d762 c53f
00000330: ac3f cd3e af93 1abf faa0 033f 0182 2f3e
00000340: c0f7 6a3e d489 c5be 97de 013f 6901 9ebe
00000350: 862f 5ebf 99cb 863e 224f dfbe 6227 1a40
00000360: 1eda f73e 41be 193f 4ad3 983f 3a0e 20c0
00000370: 95c5 523f eadf c3bd ef3a 1c3f ab45 be3e
00000380: e3a2 82be 390a 283c 106e e33e 1384 56bf
00000390: 077f 1b3f 62cc a5be f574 98bd 8264 4a3f
000003a0: 65f1 15bf e93a 0fc0 5bb0 c63c a1d5 a83e
000003b0: 2e42 99bf 5ce6 723f 4793 d3be db20 aebe
000003c0: 2351 c1bf fcba 8ebf 70a1 1540 640b 4f3f
000003d0: cf22 97bd eb49 cc3f 7a0a 083f 6873 f7be
000003e0: 458b 0fbf fabf da3d 69a0 90bf 834d 343c
000003f0: 2fc3 643f fb6f a33f af92 723f febf 3ebe
0.67421037 0.9132024 1.6544516 -1.3500346 -0.3605231 1.5344468 1.1090753 -1.3456572
-1.2313671 0.31287098 0.29849622 0.00685126 -0.3769776 -0.7864244 0.6053376 -0.7128897
-1.794493 -0.64795464 1.756201 -0.4869872 -0.9477755 -0.5643228 -1.8715196 0.7267117
-0.010692213 -0.48380336 0.08868729 1.4830334 0.15980579 0.54213536 -0.13895689 -0.91148317
1.2143513 -0.61976385 -0.8053472 0.9519312 -0.1359949 -1.7005506 0.36070916 0.5397001
1.1580085 -0.05586959 0.9924215 -0.5073178 -0.727862 -0.85670805 -1.36133 -0.2148072
-1.2038362 -0.0010878559 0.11929748 -1.2051766 -0.024624167 -0.27903205 1.0506734 0.88943505
-0.13182618 -0.8509109 0.44089717 0.33771098 -0.2680683 -0.2978027 -0.73208565 -0.8561241
-0.77880335 1.2734632 0.16551854 -0.45347092 -0.019621477 0.03877488 -0.4483738 1.042936
-0.47711942 -0.08710374 -1.2810457 -0.17305003 0.98393744 -0.054056477 -0.8452743 0.15736073
1.9337007 1.325468 -0.6606 0.43553922 1.4714842 0.06024575 -0.7638403 -1.4232429
-0.34308496 0.3455092 -0.26745138 1.8937101 1.3942815 -1.1087844 -0.3314253 0.18733838
-0.261567 2.888673 -0.02835902 -1.6112913 1.2201452 -0.22436692 -0.59202045 0.6535555
-0.53916454 -1.3799874 -0.36867973 0.793872 -0.6487169 0.0004537198 -1.1059227 0.14315276
0.49876648 1.5344647 1.055142 -0.98581004 0.56838745 0.83475167 -0.054754734 -1.2663169
1.5535072 0.36936754 1.6273825 -1.418523 1.7038292 -0.21582727 0.36444175 -0.3421549
0.60007423 0.5703883 -0.06411061 -0.5673768 1.8096113 -1.176719 -0.26399294 1.3522226
2.894111 0.70769495 0.49163568 -1.7002789 1.6701134 -1.2963301 -0.34454235 0.1509411
-0.47354585 0.697939 0.4704378 0.1223615 -1.0507445 0.35498083 -0.19421273 -1.7905288
-0.29468843 1.2908013 0.12319765 0.27929893 1.5968239 -0.02412168 0.20524336 -0.7861165
0.12876303 -0.2151027 -0.59159845 -0.8808538 -0.4633155 -0.1155575 -0.93638605 -0.61020035
-0.67707515 -0.04619961 0.9259826 0.50740045 0.8696808 0.1548657 -2.4109285 -0.08602749
0.27893633 0.9025703 2.3915372 -0.52906466 -0.32581678 -1.1383023 -0.21685287 0.7793685
-0.82818 -0.5418936 -2.231665 -0.41163862 0.1695347 0.6311765 1.106791 1.6821707
0.032306384 -1.4342766 0.9365246 0.4556205 0.020227727 -0.6882684 -0.63295734 0.8773348
-0.6814323 -0.2797804 -0.3570086 1.5420789 0.4008764 -0.603816 0.51417506 0.17139436
0.22946072 -0.38581717 0.5073027 -0.3086045 -0.86791265 0.26327208 -0.4361506 2.4086537
0.48408598 0.6005593 1.193948 -2.5008683 0.82332736 -0.095641926 0.61027426 0.37162527
-0.25514898 0.0102563435 0.4441991 -0.8379528 0.60740703 -0.32382494 -0.07444183 0.7905961
-0.58571464 -2.2379706 0.024254015 0.32975486 -1.1973321 0.9488275 -0.413233 -0.34009442
-1.5102886 -1.1150813 2.3379784 0.80876756 -0.07379686 1.5960058 0.53140986 -0.48330235
-0.56071883 0.10681148 -1.1298953 0.011004808 0.89360327 1.2768549 0.9475507 -0.18627927

weight f4 [20, 20]
00000000: 288d 34be fec5 cebd 4c59 34bc 2534 8fbe
00000010: fad4 dfbd 8bcf ffbc d8fb 093e 7f1c b0bd
00000020: c5c7 c73d 91cf 52be d46b 993c 290a 7e3d
00000030: 8bee ac3d fa21 6dbc 88e9 4b3e c275 6f3c
00000040: 2769 403e add3 373e f233 0abe a49d c4bd
00000050: 8c77 123e 3ab1 c2bd f241 35bd db86 543e
00000060: f6da 96bc 47c1 123e d827 28bd 4e61 ad3d
00000070: 3907 1f3d b22f 20be 1db7 36be 65ba 243e
00000080: 08ca 00be 381d f8bd bbe8 35be 7baa 2a3e
00000090: 1757 dfbd dd9a dabd 50ba 2c3e 6c2f f8bd
000000a0: de19 a23e 92cb 013b 78d0 ea3d ddbd 27be
000000b0: be43 283e 8bac 8dbd bee0 ebbd 4c09 bb3c
000000c0: d722 123d d14f b2bd 21ae efbd 2b3d 1c3e
000000d0: 680a 2ebe ba95 b5bd 9da8 d2bd 189d edbd
000000e0: 4efa d0bd 7f20 3dbd c753 b2bd f7af 07be
000000f0: 118a 21be 8e87 4b3d d7e7 b1bb bdc1 393e
00000100: 5154 25be 25c2 a83e 0bb1 783d 305b 193c
00000110: 7b25 fdbd 2adf 963d a857 113e 4d02 15be
00000120: 759b 653d 63ed 323e 7382 1a3e 8a5b 593e
00000130: 3c33 70bd d3e9 7fbd 4bf2 b4bc 9dd8 bcbd
00000140: dcbf 79bd ab78 293e 4460 453e eab5 203e
00000150: 8d25 763e 3475 45be 29c4 4ebe c858 4dbe
00000160: ac11 96bd a3bb 44be 002e 81be 2c2a 44be
00000170: 732a 6cbe 2904 e0bc d7ab 02bc 16b1 f33d
00000180: 677a 3bbd 1571 3dbe 930a bbbc 39ca eabd
00000190: 85d4 03bd b4a8 71bd 3295 0c3c 7f4c bbbd
000001a0: 9063 873e e5c0 a3be 42bf fabd cb19 063e
000001b0: 17a8 323e 92d2 17bd 3ae0 2fbe 44e2 493e
000001c0: 0a40 fd3d e8af a9bd 43ab 443e 247c 85bd
000001d0: 316e 9bbe 0d95 163d c67d 84be 7fec 34be
000001e0: efbb 05be 9d32 c6bd 4492 39be 9062 95ba
000001f0: d90e 3a3e 3c17 64bd 1c1f edbd 9751 cebd
00000200: 8c07 7f3d 36a1 5fbb 79ca 8a3e a6ae 6ebd
00000210: b5b2 3b3e 29b7 4f3d 887c 3f3d 6121 09be
00000220: 4c15 623b b34a 68bd 249f 353b 211b 22bb
00000230: 2edb 053e 192e a23d e7dd 22be a0f0 153e
00000240: d254 0a3e 4cf7 70bd 0cf8 81bd aae0 bc3d
00000250: 4e6e 13be 8c8e 2bbe c54b 5a3c 46f2 e83d
00000260: 0eb6 3abe 26f1 23ba 4b08 753e 2616 e13d
00000270: 2b45 92bd e67b 43be 26f5 86be 9db8 2d3e
00000280: 7b86 c03d 1efd 443b a472 c7bd 9565 d5bd
00000290: 75ef 223d fc24 81be 9bda 4cbe 86bb f2bc
000002a0: 1670 f3bc c9d0 43be e2fe a43e 5d10 99bd
000002b0: 77c8 82be e891 6cbd 760c afbd c4bf 14bd
000002c0: 5107 d2bd 5ea5 953d c02e ae3d 7cc1 323e
000002d0: 9307 24be 4ca0 be3b 882a f03b abf2 833d
000002e0: 05f8 ddbd c985 96bd c417 68bc 6afc 8f3d
000002f0: 4083 bfbd ca4c 393e c755 e1bd e9b3 a0bd
00000300: 4d6c 5a3e 5b8d 28be b883 e53d 25a6 5fbe
00000310: 1098 4ebe 28e6 fabc 35e2 1cbe 07e9 e63d
00000320: a39d aa3d 733a 823e ae53 84be 7d49 2a3e
00000330: 644a e3bc 854b 14be f24a cebe 8738 323e
00000340: 26aa 95bd 6488 093d 0360 943d 9373 d43d
00000350: 7ffb 013d 99bf 403e 417b 66be cc1e 7e3e
00000360: a63b 6b3e 81a0 de3a e8a5 aa3d 614d 703e
00000370: bd7e b43d 7886 083e d8e7 f3bd b19f 8fbc
00000380: f0eb 53be 4f49 cfbd 0497 97bd d825 443d
00000390: 0fce 483d 1c6d e6bd a0bd a2bc f87e 15be
000003a0: d48f c6bd 08d9 9f3d f3cd 373e 2233 303e
000003b0: 8b1c b9bc 0185 1abe e5b5 9c3d 3f04 53bd
000003c0: 84d7 6a3e b254 8abc 2129 b2be 41a9 e83d
000003d0: f25e 0dbe 2335 d33d f885 0d3e eb42 fcbd
000003e0: 35e6 513e 30ae 43bd 0d98 50be 9465 9f3c
000003f0: 8561 903e 8d5a 2e3e 8a0c 973d d0ea fdbd
-0.17631972 -0.10096358 -0.011007618 -0.2796947 -0.10929294 -0.031226894 0.13474977 -0.08599185
0.097549 -0.20586993 0.018728174 0.06202141 0.08443936 -0.014473433 0.19913304 0.014615478
0.18790112 0.17951842 -0.13496378 -0.0960038 0.14303416 -0.095064595 -0.044252343 0.20754568
-0.018414956 0.14331542 -0.041053623 0.08465825 0.038825247 -0.15643194 -0.1784329 0.16086729
-0.12577069 -0.12114948 -0.17764561 0.16666596 -0.10905283 -0.10674069 0.16867948 -0.1211842
0.3166036 0.0019805175 0.114655435 -0.16381021 0.16432092 -0.069176756 -0.115174755 0.022831582
0.035677757 -0.0870663 -0.11703134 0.15257709 -0.16996157 -0.08866449 -0.10286067 -0.11602229
-0.10203992 -0.04617357 -0.087073855 -0.13250719 -0.15775324 0.049689822 -0.005429249 0.18140312
-0.16145445 0.3296062 0.060715716 0.00936012 -0.123606645 0.07366784 0.14193594 -0.14551659
0.05605646 0.17473368 0.15088825 0.21226326 -0.05864261 -0.06247885 -0.02208819 -0.09221003
-0.060973987 0.16549937 0.19275004 0.15694395 0.24037762 -0.1928299 -0.20192017 -0.20053399
-0.073275894 -0.19212203 -0.25230408 -0.19156712 -0.23063068 -0.027345734 -0.00797554 0.11899011
-0.04577103 -0.18500169 -0.02283219 -0.11464352 -0.032185096 -0.05899878 0.008580493 -0.0914545
0.26443148 -0.31983104 -0.12243511 0.13095777 0.17446934 -0.03706605 -0.1717538 0.1971522
0.1236573 -0.082855046 0.19205956 -0.065178186 -0.30357507 0.03676324 -0.25877208 -0.17668341
-0.13059972 -0.096776225 -0.18122202 -0.0011397172 0.18169726 -0.05568622 -0.11578199 -0.10074156
0.062263057 -0.0034123189 0.271076 -0.058272026 0.1832989 0.050711785 0.04674962 -0.1339164
0.0034497557 -0.056711864 0.0027713263 -0.0024735408 0.13071892 0.07918949 -0.15904962 0.14642572
0.13508919 -0.05882959 -0.06346139 0.09222539 -0.14397547 -0.16753596 0.013323729 0.11374335
-0.18233511 -0.00062538905 0.23928945 0.109905526 -0.07142099 -0.19090232 -0.26358908 0.16964956
0.0940065 0.0030058096 -0.09738663 -0.10419766 0.039779145 -0.2522353 -0.20005266 -0.029630434
-0.029716533 -0.19122614 0.3222571 -0.07473824 -0.25543568 -0.057756335 -0.085472986 -0.036315694
-0.10255302 0.07306932 0.085050106 0.17456621 -0.16018514 0.0058174487 0.007329289 0.064427696
-0.108383216 -0.07349736 -0.014165822 0.07030566 -0.09351206 0.18095699 -0.11002689 -0.07846815
0.21330376 -0.16460173 0.11206764 -0.21840723 -0.20175195 -0.030627325 -0.15320666 0.11274915
0.08330848 0.25435218 -0.25845093 0.16629596 -0.027745433 -0.14481933 -0.40291554 0.17404376
-0.07307844 0.033577338 0.07244875 0.103736065 0.031733986 0.18823089 -0.22507955 0.24816436
0.22971973 0.001698509 0.08332425 0.23467018 0.08813236 0.13332546 -0.11909455 -0.017532201
-0.20695472 -0.101214044 -0.07401851 0.047887653 0.049024638 -0.1125128 -0.01986581 -0.14599216
-0.09695402 0.07805067 0.17949657 0.17207006 -0.022596618 -0.150898 0.07651881 -0.05151772
0.22933775 -0.016886089 -0.34797004 0.113604076 -0.1380575 0.103128694 0.13820636 -0.12317451
0.20497973 -0.04777354 -0.20370503 0.019457616 0.28199401 0.1702673 0.073754385 -0.123983026

bias f4 [20]
00000000: 6b22 f5bd 58bf 033e 71a5 183e 4465 f7bd
00000010: dfe5 06bd 6157 11be b5a3 f83c 3efb 75be
00000020: 75f8 343d 4411 25bd c85c 4f3e 58f7 6ebd
00000030: e750 943e 1598 6a3d c4cd 673e d8ff e0bd
00000040: 0036 0abe 0f77 1e3e 98eb 13be 6b48 c23d
-0.11969455 0.1286596 0.14906861 -0.12079862 -0.032934066 -0.14193489 0.0303515 -0.24021623
0.04418226 -0.04029967 0.20250237 -0.058341354 0.28967974 0.057273943 0.22637087 -0.10986298
-0.13497162 0.15475105 -0.1444534 0.09486469

weight f4 [20, 20]
00000000: 398f 14be 88ec 0f3e 8544 343d 39d7 ba3d
00000010: 0d81 0cbd 8fdd 633d 262b 563e 5cf7 8d3d
00000020: 2f78 7bbe 1748 183e 1a41 7e3e 707b 0a3d
00000030: 995c 2ebe c7b2 01be e569 e4bd 9e8d 62be
00000040: 1878 4b3d 1b1f 4bbd 53cf 9e3e cb00 623d
00000050: 6ea1 e53d 2571 b7bd b846 d93d fc33 64bd
00000060: b52f 253e b02b 4a3c 52cd 973d fec0 a9bd
00000070: 5810 c43d 2495 44be 2055 253e 7497 a1b9
00000080: 9af6 943d 262a 963c 0e86 fa3d b09e 82bd
00000090: 8c03 df3d d008 b53d 2dbf a53e e6d1 f63d
000000a0: f75d 173e 6167 833d fe9f c2bc d2ad 1ebd
000000b0: 35b3 283d 5186 193e cc1e 383e 0437 12be
000000c0: f5d8 013d c271 023e 4004 a5bb 04e1 973d
000000d0: 6462 373c dbd5 b4bd 011d fd3d d82d 2ebd
000000e0: 95d7 bdbc 48c6 183d 6f8c 483e 43b1 9cbd
000000f0: 9ae8 963d f06a 7fbe a164 0f3e d1ce 5f3d
00000100: 1bcf c1bd 6f8e c0bd 4075 63be 421b 21be
00000110: d696 b13d 8f26 96bd 5419 55bd 1ada fc3d
00000120: 1558 403d 6dee 29bd a5d1 223e 075c 083e
00000130: 251c ce3d 8c22 603d 27a6 4fbe 208e 103e
00000140: 63c1 8fbd ef39 d03d b98c 3d3e dafe 65be
00000150: 529c 033d 1944 a1bd 7f2f 713e 02d7 f3bd
00000160: 50d7 743d 384b 64bc 0b49 0f3e 221a 943e
00000170: 6a35 3f3e d324 11bd fb05 bcbc ec30 6dbc
00000180: 7ea8 abbc 43d9 b8bd f1db 963d 0867 11be
00000190: a6b9 1f3d 59ab 6f3e dffb 4cbe c09a 2c3d
000001a0: ed1f 20be a769 693e f7da f33d 78e4 5dbe
000001b0: 3b1e 413e 7cd5 8f3d 6aaa 75bd 4eb6 cb3d
000001c0: fd0b e43d 534b 6c3e 3036 ac3d 4053 633d
000001d0: 5b7a 223e f114 19be f732 f43d 5947 603d
000001e0: ab93 11be 5af5 7a3e 3ed4 13bd b5e5 debc
000001f0: a0af ad3d b74c 7fbd 5a84 d53c 47e1 81be
00000200: 1816 0abd 3a92 0cbc 41e7 4a3c 6306 323e
00000210: 2a9f 12be 9ade 653d fbc3 c93d 1619 2ebe
00000220: 18c1 f93c ef02 b3bd 2ff9 ce3d 04a4 9e3d
00000230: 782c f53d c734 cb3d 7f2d 50be 6a75 2bbd
00000240: 37da 69be 75e3 be3c 29e7 91bd a31a d53c
00000250: e65d 243e 6c0c aa3d 6031 26be 73af 0bbe
00000260: 26a9 bd3d 33fb 483e e9ea 7e3d ea7c ba3d
00000270: c010 dfbd 4d16 66be b06e 9d3d 6abc a1bd
00000280: 61c8 ce3d 9ec0 a6bd 9402 bcbd 3bf5 b33c
00000290: cb4c 153e d002 c1bd 7dfb 393e 8c2b ccbd
000002a0: e8c0 53be 9f5f 443d 3ac5 b23c ddc1 59bd
000002b0: 4d61 07be bf42 533e f353 1fbe 22bc a8bc
000002c0: d2ac bbbc ae38 d1bd 580f 123d 729f 3c3e
000002d0: fa94 bcbd d7df ddbd c9b8 45be c78b eb3d
000002e0: fee2 ef3d 5e8f 24be 43c9 bb3d fc6e 20bc
000002f0: f2c2 443e 2f1d 423e f31b bd3c b055 57be
00000300: be35 1cbe f609 8c3d f069 873c 8987 36be
00000310: d052 52be 8a54 b23d bb9b 42be 5400 4e3d
00000320: 22fa 583c 555c f13d 8bbb 183d deb2 1fbd
00000330: 3211 99bd 3413 633d bb85 ddbd 2b30 3c3e
00000340: d87b 193e 9c32 2ebe 901a a7be 4541 79be
00000350: 1f81 383e 64b3 8a3e 9dcf 35be fbf3 87bd
00000360: b359 483e 2268 793d 0296 3fbe cf33 dcbd
00000370: aff7 313e 7010 cf3d 9b1f 00be 37a6 f63d
00000380: 363b 8e3d c1f2 893d ab2a 7d3e 659c 083e
00000390: 3740 44be 2919 25bd 3ab0 703d f611 453e
000003a0: 2cde 563e f989 cdbd df65 853d f6cb 64be
000003b0: c952 6dbe 5f99 debd 8607 283e 3cfd 2d3e
000003c0: 7323 eabd 4fd5 0f3e 2e34 963d bbf0 043e
000003d0: 0ee3 9fbd c75f 983d e5b7 0fbe d6f2 3e3e
000003e0: fc34 8e3e 6201 0a3e 35d9 eb3b cfe2 2d3e
000003f0: 7f54 443e 269d 0f3e bdc9 19be dc72 20be
-0.1450776 0.14055073 0.044010658 0.09123082 -0.03430276 0.055631217 0.20914897 0.06931946
-0.24557565 0.1487125 0.24829522 0.033809125 -0.1702751 -0.12665854 -0.1115301 -0.22124335
0.049675077 -0.04959021 0.3101755 0.055176537 0.11212431 -0.089571275 0.10609192 -0.05571364
0.1613148 0.0123395175 0.074122086 -0.082887635 0.0957343 -0.19197518 0.16145754 -0.00030821154
0.07273598 0.018330645 0.122326 -0.063779235 0.108893484 0.088395715 0.32372418 0.12051754
0.14781938 0.06416202 -0.02375793 -0.038739987 0.04118653 0.14992644 0.17980498 -0.142788
0.031701047 0.12738708 -0.005035907 0.07415965 0.011192892 -0.08829852 0.12359048 -0.04252419
-0.023174087 0.03729847 0.19584821 -0.076509975 0.07368584 -0.24943137 0.1400323 0.054640595
-0.0946333 -0.09402167 -0.22212696 -0.15733054 0.08671348 -0.07331573 -0.052026108 0.12346287
0.046959 -0.041487146 0.15900286 0.13316356 0.10063962 0.054720446 -0.20278226 0.14116716
-0.070193075 0.101673 0.18510713 -0.224605 0.0321315 -0.07874317 0.23553275 -0.11906244
0.05977565 -0.013933949 0.13992707 0.28926188 0.1867272 -0.03543551 -0.02295207 -0.014476996
-0.020954367 -0.090258144 0.07366169 -0.1419946 0.038995408 0.23405208 -0.20017956 0.04213977
-0.15637179 0.2279421 0.119069986 -0.21669185 0.18859188 0.07023141 -0.059976973 0.09946881
0.11135099 0.23075609 0.08408773 0.055499315 0.15866987 -0.14949395 0.11923783 0.054755542
-0.14216487 0.24507657 -0.03609108 -0.027209142 0.084807634 -0.06232902 0.026064087 -0.25367185
-0.033712476 -0.008579785 0.012384237 0.17385249 -0.14318529 0.056120493 0.098518334 -0.17001757
0.030487582 -0.08740794 0.10106122 0.07746127 0.11971372 0.09922176 -0.20329855 -0.04186002
-0.22837149 0.02330182 -0.071241684 0.026013678 0.16051444 0.083031505 -0.16229773 -0.13641147
0.09260778 0.19627075 0.062235747 0.09105857 -0.10891867 -0.22469445 0.076871276 -0.07897265
0.10096813 -0.081422076 -0.09180179 0.021967521 0.14580075 -0.094243646 0.18162341 -0.099692434
-0.20679057 0.047942754 0.02182256 -0.053163398 -0.13220711 0.2063093 -0.15559368 -0.020597521
-0.022909556 -0.10215889 0.035659164 0.18420199 -0.092081025 -0.1083371 -0.19308771 0.1150127
0.11713217 -0.16070315 0.09169247 -0.009792086 0.1921499 0.18956445 0.023084616 -0.21028781
-0.15254876 0.068378374 0.016530007 -0.1782514 -0.20539403 0.08707531 -0.19004719 0.05029328
0.01324323 0.11785189 0.03728823 -0.03898894 -0.07473983 0.055438235 -0.10816523 0.1837775
0.14988649 -0.17011493 -0.32637453 -0.24341305 0.18018006 0.2708999 -0.1775498 -0.066383325
0.19565468 0.060890324 -0.18709567 -0.10752069 0.1737964 0.10110557 -0.12512057 0.12043422
0.06944887 0.06735755 0.24723308 0.1334091 -0.19165121 -0.040307198 0.058761813 0.19245133
0.2098319 -0.10036082 0.06513571 -0.2234343 -0.23176111 -0.10869097 0.1640912 0.16991132
-0.11432543 0.14046215 0.07334171 0.12982456 -0.07806979 0.07440143 -0.14034994 0.18647322
0.277748 0.1347709 0.007197524 0.16981052 0.19172858 0.14024791 -0.15018363 -0.15668815

bias f4 [20]
00000000: e32a 3dbe 6fee 07be f6b1 c2bd a1e5 01be
00000010: 693d bc3b 01ba 1e3e 7c1e 013e a41a c03c
00000020: 3e75 253e dc29 0d3e e18c 54bd 475f a83d
00000030: c092 5bbd 140c 0f3e 7145 b63b 37a9 efbc
00000040: 13a9 0d3e 1b3a ecbd dcf9 2dbc 9624 523e
-0.18473391 -0.13274549 -0.095065996 -0.12685253 0.0057446253 0.15500642 0.12609285 0.023450203
0.16158006 0.137855 -0.051892165 0.08221298 -0.05360675 0.13969451 0.0055624773 -0.029255493
0.13834028 -0.1153452 -0.010618653 0.20521769

weight f4 [20, 20]
00000000: d493 4bbe 877f 1fbe a234 db3d ffef bd3d
00000010: b7f8 0ebc 3835 17be 8ff6 6e3e 3c04 83be
00000020: c0a1 84bd be15 a73d b47f d8bc 2b5c 0a3d
00000030: 97e2 79bd 3efe e33d e134 133d 992b 9cbe
00000040: acf8 73be b175 4b3d fef1 27be 6d82 e4bd
00000050: 02ab 45be 2b11 953d cd2c c63c 6b26 973d
00000060: 8264 b83d d196 fdbd a5d4 cb3c 2e78 cc3c
00000070: 168a 893e 517d 0b3e 9e1c b8bd 616d 013e
00000080: ab71 5cbd ef05 53be f9a6 8d3c 32dc 44be
00000090: 2b82 22be 8ea2 5fbe b822 9dbe 22a0 e63d
000000a0: d91a 31be 6546 8d3e 9599 05be fa09 1e3e
000000b0: b2a7 c03d 684b 55bd dd8e 9c3e 5e69 fabd
000000c0: 9b60 773c a85e 13be 01d3 07bc b033 a0bd
000000d0: 7956 493e d4eb 99bc c2df 57be 5abc 2dbd
000000e0: 5d40 2bbe 5e88 693e 5a7a a7bd 8d61 94bc
000000f0: ca20 0d3e 61bc d33d e324 cb3c c0b6 71bd
00000100: 5776 c73d a4f9 b3bd dc2d 063c 2a33 a23d
00000110: 2c65 97bd fe1f eebd 59dc ebbc 67a6 b73c
00000120: 48d1 f0bd 76e8 4abd fc04 0a3d dbc0 84be
00000130: 351a 30be e212 e3bd 8ea5 643d 8679 70be
00000140: bcda cb3d f516 c8bc 8064 81be 19a9 0d3c
00000150: b30f 073e fa13 d63c 34a6 90be 3642 603b
00000160: 30e7 563e a319 33bd 3c64 923d 5d5b c5bd
00000170: 2fb5 9bbd b7bd 2bbd e9f1 a33d a023 d73d
00000180: 5a5b 663d 62ee 5e3c 2e2e a23d e573 09be
00000190: d179 1ebe 43b5 c73d a87c a8be deae 663c
000001a0: 356c cfbd 7096 56be 2811 943c a00b 32bd
000001b0: f33f 633e 8ecf 99bd c487 963d 3e76 2abe
000001c0: c0cd db3c 3fe0 033e 3079 f0bd e859 89be
000001d0: 3eec 6c3d 3291 78bd 13fa 33bd 46c8 9ebb
000001e0: a82f 3a3e e839 25be a8ca 9dbb e13e 023e
000001f0: f293 90bb 4ee7 74bd 1ca0 ec3c bc9b ecbd
00000200: a8d8 0a3e edd5 85bd 3623 6dbd 058a 2ebe
00000210: db5d 4bbd 16a9 ffbd 7390 b9bd 7ed0 04bd
00000220: 81d1 1fbe 9df5 f43d 421e 4b3d 992e 1fbe
00000230: b721 5e3d 70d8 953b 67b2 f5bd ad43 eb3b
00000240: 4f73 08bd 4fb6 e63d 6dda d5bd 92eb 40be
00000250: a18d 683e a94b d7bd c6ba 9ebe 7ed3 51be
00000260: a229 333e afcf 70bd bc4f 90bd 4988 d63d
00000270: 316a f5bd 48bf 2dbe a705 5ebe 1bb3 5e3c
00000280: 4ac8 833e 8965 a6bd 1671 073d d979 6bbe
00000290: e280 aa3d 144a 23be 8fce c03d 8adf ef3d
000002a0: 966d 233e 44a2 0f3e dc8d c93e 8bba c53d
000002b0: 7a8b d1bd ba04 28bb b39f 3bbe a8df 273e
000002c0: 061b 25be 517b 093e a7ca 53be 73f4 a33d
000002d0: 0ef6 cbbd e2e5 293d 22db 3bbe 70ce 4abc
000002e0: 34bc 30be b6ef 60be 98e2 67be 34a7 8fbe
000002f0: 0021 9ebd 5c98 1bbc b26f 6e3e 595b b6bd
00000300: 333a 8bbd 45a4 a1be e9b9 c9bd 8b8d 9bbd
00000310: 8abc 8abe f286 c23d e496 40be d9ef cb3d
00000320: b526 55be 5f41 933d 3558 133e ec4b 4d3e
00000330: 9986 c3bd dd98 f3bd 2c55 833d 669d 013e
00000340: 8d1e 683e 80ee 4d3d 306a 85be 3b1d ac3c
00000350: 888b 043e e27e 623d f97e 983d d1fb 85bd
00000360: fbc7 46be 13df 6dbd 6a7d 443d 27e0 c33d
00000370: 5185 a6bb e8fe babd b219 ebbd e1d7 1cbe
00000380: 3520 3dbe 52df ac3c 88dc 1b3e 3534 90bd
00000390: 6eeb 563e 9bf0 32bd cd31 573e 8f4a bd3d
000003a0: 575b 0c3e af08 7dbe 2092 adbe e5c7 14bd
000003b0: b39e 073e ae73 1e3e 872c 0cbc 0c16 06be
000003c0: aa6c cd3d 5769 8d3d 0b98 39be c249 933c
000003d0: 7e99 c5bd 37e6 80bd 5413 a2bc 8ee9 75bc
000003e0: dfb1 1b3e cf6d 083e b60a 27bd 2596 35be
000003f0: 801b 28be 02a6 79be 374a 913c 9fd8 2a3e
-0.1988061 -0.15575992 0.10703398 0.09274291 -0.00872629 -0.14766395 0.23336242 -0.25589168
-0.06476164 0.08158444 -0.026428081 0.033779304 -0.06100711 0.11132477 0.0359391 -0.30502012
-0.2382533 0.049672786 -0.16400906 -0.11157689 -0.19303516 0.07278665 0.024191285 0.073803745
0.09003545 -0.123822816 0.02488167 0.02495965 0.26863164 0.13622023 -0.08989833 0.12639381
-0.05381934 -0.20607732 0.017291533 -0.19224623 -0.15869968 -0.21839353 -0.3069055 0.11261012
-0.17295398 0.2759277 -0.13046868 0.15433493 0.09406985 -0.052073866 0.30577746 -0.122271284
0.015098716 -0.14391577 -0.008290053 -0.078223586 0.19661893 -0.01878921 -0.2108145 -0.042415954
-0.16723771 0.22805926 -0.081776336 -0.018112922 0.1378204 0.10338665 0.024797862 -0.059012175
0.097393684 -0.087878495 0.008189645 0.07919915 -0.07392344 -0.11627196 -0.028791593 0.022418214
-0.11758667 -0.0495381 0.03369616 -0.25928387 -0.17197497 -0.11087586 0.055821948 -0.23483858
0.0995383 -0.02442501 -0.25271988 0.008646273 0.13189583 0.026132572 -0.28251803 0.0034219152
0.20986629 -0.04372562 0.071480244 -0.09636567 -0.076029174 -0.041928973 0.08005125 0.10504842
0.056239463 0.01360664 0.07918964 -0.13423117 -0.15476157 0.0975137 -0.32907605 0.0140797775
-0.10128061 -0.20955825 0.018074587 -0.043468118 0.22192363 -0.07510291 0.07350114 -0.16646668
0.026831508 0.12878512 -0.11741865 -0.26826406 0.057842486 -0.060685344 -0.04393966 -0.004845652
0.18182242 -0.1613537 -0.0048154183 0.12719299 -0.0044121677 -0.0597909 0.02888494 -0.115531415
0.1355921 -0.06534944 -0.057894908 -0.17044838 -0.049650054 -0.124834225 -0.090607546 -0.032425396
-0.15607263 0.119609095 0.049589403 -0.1554512 0.05423137 0.0045729205 -0.11996918 0.0071796984
-0.03331309 0.11265241 -0.10442052 -0.18839863 0.22710277 -0.10512478 -0.31001872 -0.20490834
0.1749635 -0.058791813 -0.07046458 0.10475213 -0.11983145 -0.169675 -0.21681844 0.013592507
0.25738746 -0.08124835 0.03306683 -0.229957 0.08325364 -0.15946227 0.09414398 0.117125586
0.15959772 0.14026743 0.39366043 0.09654721 -0.10231681 -0.0025637583 -0.18322639 0.16393912
-0.1612359 0.13425948 -0.20682774 0.08005609 -0.099590406 0.041479 -0.18345311 -0.01237832
-0.17259294 -0.21966442 -0.22645032 -0.28057253 -0.07721138 -0.0094967745 0.23284796 -0.08904142
-0.0679821 -0.3157064 -0.09849913 -0.075953566 -0.2709697 0.09498395 -0.1880756 0.09957857
-0.20815547 0.07190203 0.14389117 0.20048493 -0.09547157 -0.11894391 0.064127296 0.12657699
0.22667904 0.05027628 -0.26057577 0.021010032 0.12943852 0.055296786 0.07446093 -0.06542171
-0.19412224 -0.05807407 0.047971167 0.09564238 -0.0050818105 -0.09130651 -0.1147951 -0.15316726
-0.18469317 0.021102581 0.15220845 -0.07041208 0.20988247 -0.04368649 0.21015091 0.092427365
0.13706718 -0.24710344 -0.33900547 -0.036323447 0.13244133 0.15473816 -0.008555538 -0.13094348
0.10030492 0.069048576 -0.18124406 0.017979506 -0.09648417 -0.0629391 -0.019784607 -0.015009297
0.15204571 0.13323139 -0.0407817 -0.17733057 -0.1641674 -0.24379733 0.017735584 0.16684197

bias f4 [20]
00000000: 97b5 8dbe 9c88 75be da7a 233e 671e a2be
00000010: 16e6 30be 89fc 9c3d cc34 3b3e 5380 5bbe
00000020: 4358 00bd b0e6 dabd 96e2 42bd 5ba6 4bbc
00000030: afe4 2dbd 891e 0ebd de3e 6ebe 7166 31bc
00000040: 002d cabd 7774 b9bd 29ae 46be 2f5e c33d
-0.27677605 -0.23977894 0.15964833 -0.3166382 -0.17275271 0.07665355 0.18281859 -0.2143567
-0.031334173 -0.106885314 -0.04757937 -0.012429799 -0.042454418 -0.03469709 -0.2326617 -0.010827647
-0.09871864 -0.09055417 -0.19402374 0.095394485

weight f4 [20, 20]
00000000: 4cec 09be baa5 783d 0834 9b3d 0a4a 05be
00000010: fa08 31be 1018 dcbd bd16 1f3e 2e2e 0b3d
00000020: 0e56 79bd 6ad8 613d eb3d 883e 392d 863d
00000030: c10f 223b c8e9 40bb d572 fcbb 5041 60be
00000040: 7ad0 69bd b863 393d 1c5f 8cbd 1c07 71bd
00000050: cdf4 87bb 2cbe fc3d 31b9 203e e493 3abd
00000060: 2f7d 92be 3028 b8bb 0c0c 93bd 2d7a acbd
00000070: d6b0 edbb b8b8 2d3d 669a 883e ba6e 2b3e
00000080: 58f5 343e 780b c6bb e07b ac3d 073b 833e
00000090: 3861 763e 863e 3cbe daca a8bc c710 9dbd
000000a0: 842f 513d c41e 60bd c9fc da3d 4058 513e
000000b0: 60a0 163c f48a 5cbe 20c5 0b3e 6d82 42bd
000000c0: 23b7 d2bc 0ea1 2fbd 7249 a2bd 58e6 30be
000000d0: da51 34be 80bb 12be b941 5f3d e3a1 01bd
000000e0: 9c62 57be 96a8 bb3d f8da 863c 3656 a43d
000000f0: f2c7 ed3d fccf a13d 28fb 943e d343 ee3d
00000100: cffb c1bd e931 023d e766 a93d 3731 a7be
00000110: b83b a23c 0f05 58be 313c 8b3e 10c6 023d
00000120: 42e0 d33b baa8 7abe 46ee 93be a4ce cdbc
00000130: fc75 86be 3088 ffbb d63f 1c3e 06a4 0f3e
00000140: 1798 b2bd c185 b6bd 4b52 813d 1b96 81bd
00000150: 05cb 41bd 2a73 853e 7cf0 0ebd 266a 6cbc
00000160: 37de 80be 3916 5abd 1556 78bd 54d0 203d
00000170: d75f 4cbd 9ad9 103d f0bd 17be 2f58 4e3e
00000180: 03e3 b6bc b0e0 e1bd 96ea 133e c7c8 cc3d
00000190: df96 d43c 2efc 02be 440f 87be abd6 363e
000001a0: 9447 fe3c 8302 24be 3ca5 2fbd 0ce2 f83d
000001b0: 0af3 993e ae32 813e 1e29 ac3d 17b8 f2bd
000001c0: 82ad f63c 8e28 d23d b0cb 9abd 24bc ce3d
000001d0: c115 debd 01d7 2dbd ba0d 293e 4ca0 35be
000001e0: 69e8 933d b1bc 24be 2c46 b6bc 1d39 4d3e
000001f0: 345f b1bd f93c f9bd c772 ac3d dcc6 d3bd
00000200: 735f 35be b289 893c 80ae 7bbe dd8f e4bd
00000210: dbd6 51be ae6e 9dbc 53bc 2b3e 2dc5 263d
00000220: d3f8 49be 5b73 dbbd 0fd7 e5bd b4e1 30bd
00000230: b917 a33d 9b9b c13e b420 5a3d cb4e 6b3c
00000240: d5d8 b73d 2c8b 1c3e 3c98 7e3e 2c12 983c
00000250: f92e c9bd b8f9 f4bd 0012 1b3d 1e03 db3d
00000260: 96eb f6bd 7ab5 bdbd f01f 303e 0549 3bbc
00000270: 8d63 45be 9b03 ebbc 73ee 17be d3ba 873e
00000280: 9edd dcbb d58f 74be 65f4 d83d ba23 75bd
00000290: e9a9 983d 27ed 913e 3451 a83b 73d8 cdbd
000002a0: 17f8 6b3e 28e9 6d3d da2a febc a64f 1b3e
000002b0: 5455 c13d 6823 e5bd ee30 36bc 754b 0e3d
000002c0: fd1b 373d f2c9 87be 8ac5 94bd 14de 453e
000002d0: f5bb aa3d 92e1 813d f499 bcbd 876d a8bd
000002e0: d7e1 733c 2263 6abd 3dd7 09bd bc97 77be
000002f0: 39b4 61be bac6 cfbd 4b98 063e 056a 893c
00000300: 9958 a9be c67a 3a3d d874 a3bd 92c4 6cbe
00000310: 279a 22bd 5065 2b3c 3f9b b6bd 17f1 23be
00000320: 1f16 973e 252c f1bd 386d b9bd 4a9b fe3d
00000330: 546e dabd dd0c 14be c897 85bd fd4a 143d
00000340: 4602 f93c 124e f3bd d58d fcbc 75c7 ebbd
00000350: f5cd 7dbe c9fc a9bd 6b84 d03b c559 363e
00000360: dd58 12be f53d 233d f4f2 4f3c b2f2 6abe
00000370: 4f70 11be 2858 153e fcf1 1cbe 860a 623d
00000380: 9c75 fc3c 9bee dd3c e07c 5abe b5a2 1b3e
00000390: 2547 c63d 6df6 243e 1445 1dbe 230c 203e
000003a0: b200 c33d ba29 2f3e 0f70 06bd c87b 2f3d
000003b0: 25de 58bd fd90 25be 0c30 e23d c3f1 053e
000003c0: c503 46bd d228 51be 69d1 003d 0df8 113d
000003d0: e87a 243e f6c4 99bd cc4f 12bd 3bff 383e
000003e0: 9e18 97be 5756 263d 21ad 4abe 3d3b 59be
000003f0: b1c6 9e3d 30ee e1bd ab5f 1fbd 0b51 873d
-0.13469046 0.060704924 0.075782835 -0.13016525 -0.1728858 -0.10746777 0.15536018 0.033979587
-0.060873084 0.05513803 0.2660974 0.06551594 0.0024728628 -0.002943622 -0.0077041187 -0.21899915
-0.057083584 0.045261115 -0.06854078 -0.05884467 -0.0041490556 0.1234096 0.15695645 -0.045551196
-0.28611133 -0.005620025 -0.07180032 -0.08421741 -0.0072537465 0.04241249 0.26680297 0.16741458
0.17671716 -0.0060438477 0.08422065 0.25630972 0.24060524 -0.18383226 -0.02060454 -0.07669216
0.051070705 -0.05471684 0.10692746 0.20443821 0.00919351 -0.21537381 0.13649416 -0.047487665
-0.025722092 -0.042878203 -0.07924165 -0.17275369 -0.17609349 -0.14329338 0.054506037 -0.031648528
-0.2103371 0.091630146 0.016461834 0.08024256 0.11610402 0.07900998 0.29097867 0.1163403
-0.09471857 0.03178588 0.0827158 -0.32654735 0.019803867 -0.2109568 0.2719436 0.03192717
0.0064659426 -0.24478427 -0.28892726 -0.025122948 -0.2626189 -0.0077982172 0.15258726 0.14027414
-0.08720415 -0.0891223 0.06314524 -0.063274585 -0.047312755 0.26064426 -0.034897313 -0.014429605
-0.25169536 -0.05324385 -0.06062897 0.039261177 -0.049896087 0.03536377 -0.14818549 0.20150827
-0.022325044 -0.11029184 0.14444956 0.09999233 0.025950847 -0.12791511 -0.26378834 0.17855327
0.03103999 -0.16016583 -0.04288219 0.1215249 0.30068237 0.25233978 0.0840628 -0.118515186
0.030112032 0.102616414 -0.075583816 0.10094479 -0.10843993 -0.04244137 0.16509143 -0.1773693
0.07222063 -0.16087605 -0.022250257 0.20041318 -0.08660737 -0.12169833 0.084203295 -0.10340664
-0.17712192 0.016789291 -0.24578285 -0.11160252 -0.20492117 -0.019217815 0.16771059 0.040715385
-0.19723825 -0.10715362 -0.1122266 -0.043183997 0.07963509 0.3781403 0.053253844 0.014362047
0.08976904 0.15287465 0.2486276 0.018563353 -0.098234124 -0.119616926 0.037858963 0.10693954
-0.12056653 -0.092631295 0.17199683 -0.011430983 -0.19276257 -0.028688243 -0.14837055 0.26509723
-0.006740286 -0.23882993 0.105934896 -0.059848525 0.07454283 0.28501245 0.0051366333 -0.1005105
0.23043858 0.058083683 -0.031026293 0.15167102 0.09440103 -0.11188394 -0.011120064 0.03473993
0.044704426 -0.2652126 -0.0726424 0.19322997 0.08336631 0.06341852 -0.09209052 -0.08224016
0.014885387 -0.057223447 -0.033652533 -0.24178976 -0.22041406 -0.10145326 0.13144033 0.016774187
-0.33075407 0.045527242 -0.079812706 -0.2312186 -0.039697792 0.0104611665 -0.089163296 -0.16009937
0.29509065 -0.11775998 -0.09054035 0.12431963 -0.10665575 -0.14458032 -0.065230906 0.036204327
0.030396592 -0.11880125 -0.03082935 -0.11512653 -0.24785598 -0.08300168 0.0063634417 0.17807682
-0.14291711 0.03985401 0.012692202 -0.22944143 -0.14202999 0.1458441 -0.15326685 0.055185817
0.0308178 0.027091315 -0.21336699 0.15198787 0.096815385 0.16109629 -0.15358382 0.1562963
0.09521617 0.17105761 -0.03282171 0.042842656 -0.05294623 -0.1616859 0.110443205 0.13080506
-0.04834344 -0.20425728 0.03144971 0.03563695 0.1606251 -0.075082704 -0.03572063 0.18066113
-0.2951097 0.040609684 -0.19792606 -0.21214004 0.07752741 -0.11031759 -0.038909595 0.066072546

bias f4 [20]
00000000: 3134 06be d1cc 933d 018c 61bc 696b 203e
00000010: 6ba9 02be 6b33 d63d c485 ab3d b953 02bc
00000020: 545e 073e 9a63 f33d d826 fc3d 5062 f3bd
00000030: b2e2 083e 4597 103e 82d2 383e cd81 0abd
00000040: 734d 5fbe 7124 06be dd30 643d 54c6 08be
-0.13105847 0.072168 -0.01376629 0.15665974 -0.1275994 0.10459026 0.08375123 -0.007954531
0.13219577 0.11884232 0.12312096 -0.11883986 0.13367727 0.14120205 0.18049052 -0.033815194
-0.21806888 -0.13099839 0.055710662 -0.13356906

weight f4 [20, 20]
00000000: 70c5 ffbc 1c77 3b3e 25cb 45bd 9cb8 503e
00000010: f455 883e b223 05be 6df6 9bbd 917e 82bc
00000020: 6e55 00bd fe6c a83d 982b 49bc 09d8 d3bd
00000030: 94a5 07be 7826 183e cd62 2bbe ab54 eabc
00000040: 6515 243d 55f7 8b3d 5011 3ebe ef9d 68bd
00000050: 9424 183e 3e96 1abe 3872 49be d1f0 06be
00000060: eec9 263e 2767 c63d 61a7 e6bd 4e97 543e
00000070: 475d 7d3c 9d0d 7abd 833d 4dbb 9c3c 59be
00000080: 3df0 3ebd d226 b3bd 3f92 4cbe 14de c8bd
00000090: 9c9b a03b 6117 613e 72dc c93d bb78 093e
000000a0: e485 06be b822 efbc 55a8 e13d 2604 1a3e
000000b0: ff55 4e3e 2108 f8bc 9961 4f3d 53fb 1abe
000000c0: c813 7cbe e3de 86be 7973 0ebe 8ed7 cdbd
000000d0: f8f9 1abe c15a 8bbd 1e98 18be aed2 07bd
000000e0: b771 503e 5e0a 44be e448 55bd dfcf 0ebd
000000f0: 6c07 3cbc 41a5 37be 3cfb c2bd b2b1 83bd
00000100: 428f e23e ecf6 abbe 2c30 993c ff98 5abe
00000110: 8cb6 c53c d8a5 283d 14dd 5bbe ed3e f0bd
00000120: 60a5 c43c 2b07 86bd 0089 46be b97c 5fbe
00000130: b76a 82bd 0ef8 703e fe89 733e da83 1e3e
00000140: cf39 e2bd 5b70 94be f3ac 723e b255 e7bd
00000150: 8d3c b33e 47dc 0fbe cf8a cd3a bb4d c23c
00000160: d992 c4bc 8b53 b9bd e2d1 ddbd c679 a53d
00000170: a986 023e 51d0 f73c 86b5 c5bc f7cb 4dbe
00000180: 3ed1 ed3c d920 df3c 5b91 803e bcf2 d8bb
00000190: f8b8 7fbe 3920 893d 59ae 4c3c db5b 343e
000001a0: 83cb e5be dd86 ff3d 562d b7bd bb30 693e
000001b0: 55bc d4bd ef1f 5d3d 8535 dcbc fba8 b6be
000001c0: 93f5 b5bd 14ac 40be 3d43 e0bd bae8 633e
000001d0: 9a83 92be e9a4 00be fda1 c33d d66f 873d
000001e0: a6bf df3c e7ff be3c b09b 9e3d dbc7 453e
000001f0: a38b 173e 0940 12be bed2 9abd 4add 633c
00000200: 270a a73d 9e54 14be 86ed 89bd 5c7f b8bc
00000210: bc4e 44bd 6b93 04be c7df e83d 07f5 193e
00000220: 043c 4ebe 7c23 c13d 6b4e bfbd 6af8 63bc
00000230: 012b d43d 413a c23d 8505 db3d cbb7 0b3e
00000240: 2c6d c33e d83c 34be b896 2dbe 2a02 203e
00000250: b4fb dcbd 74bd 0d3d ac7d f03d f75e 5c3e
00000260: 72cb 0f3c dc24 2a3d 96ea bbbb 2631 a2be
00000270: a883 bbbd 323f 1f3e f274 55bd d319 163e
00000280: 52cf 23be bb6e 57be ccd7 3f3e 5e3a 9dbe
00000290: 7db3 9e3e 4751 8b3c a9a4 2dbe e498 343e
000002a0: badf 1b3d 9e87 4e3d b242 723d 1e0f a1be
000002b0: dd85 643e c0a4 033e 833d d8bd c198 c73d
000002c0: 10e2 b73d af91 183e 8cc5 f83b 749c e8bc
000002d0: 41d0 a13e bc10 01be 8173 853d f8c5 913e
000002e0: d239 94bc 48ab f1bc ae38 f6bd e997 3f3d
000002f0: 6248 f3bd a246 3c3e 1e32 62be d2ae 373d
00000300: bdd3 2cbd ce7d dc3d 381a 413e 0c08 d33d
00000310: 85eb 553e 07da 1e3e 81f0 373e 0b05 a53d
00000320: ea2d 0a3e f2e8 32be 0f6a 84be 1633 183e
00000330: 769d 873c 995c f0bd 1051 df3a bf53 4ebd
00000340: 7100 2d3e d5d2 fabd 170c f93d 1325 7e3d
00000350: cc27 2fbe f058 953e 9439 463d 5a9d 173e
00000360: 8fe1 f4bc 2b58 e13c 25a3 a3bd 2bee 47be
00000370: c88e 913d e4f1 133e fe56 dd3d 5a81 223e
00000380: 458f 82be b7ea 893d 5321 30bd f504 3ebe
00000390: 9a39 47be a36a 2ebe ad70 e2bd 3f66 58bd
000003a0: 42c9 a03c e10e 66be de70 583d f772 4a3e
000003b0: 559f 16be 67e2 18be 2b3e 2fbe 5339 353d
000003c0: b491 4bbe b5ae 2b3d 5ab5 20bd 34b5 fb3d
000003d0: ae14 13be ff3b dabd 5c7f 1b3e ef36 38be
000003e0: 0fb1 583c 542e 63be db1d 40bc 468d cdbd
000003f0: ea22 b8bd 7260 fb3b 58ee 20be 54c0 49bd
-0.031222075 0.18307155 -0.048289437 0.20382923 0.26628077 -0.13001898 -0.07615361 -0.015929492
-0.031331472 0.082239136 -0.01227846 -0.1034394 -0.13246757 0.14858425 -0.16736908 -0.028604826
0.040059466 0.06834284 -0.18561292 -0.056791242 0.14857703 -0.15096375 -0.19672477 -0.13177802
0.16287968 0.096876435 -0.11262394 0.20760843 0.015464134 -0.06104814 -0.0031317181 -0.21214527
-0.046615828 -0.08747639 -0.19977663 -0.09807983 0.0049013626 0.21981575 0.098565 0.13424961
-0.13137013 -0.02919136 0.11018435 0.15040645 0.20149992 -0.030277314 0.050630186 -0.15134935
-0.24616921 -0.26341924 -0.13911237 -0.100508794 -0.15134418 -0.06804419 -0.14901778 -0.033159904
0.20355879 -0.1914458 -0.052071467 -0.03486621 -0.011476379 -0.17934133 -0.095205754 -0.06430377
0.44249922 -0.33586824 0.018699728 -0.21347426 0.024134897 0.041173786 -0.21471053 -0.11730752
0.024004638 -0.06544336 -0.19388199 -0.21824922 -0.063680105 0.23532125 0.23783109 0.15479985
-0.11046182 -0.2899197 0.23698787 -0.11295642 0.35007134 -0.14048873 0.0015681627 0.023718705
-0.023995804 -0.09049138 -0.108310476 0.08079867 0.12746681 0.0302507 -0.024134409 -0.20097338
0.029030439 0.027237343 0.25110897 -0.006620733 -0.24972904 0.06695599 0.01249274 0.17613165
-0.4488183 0.12476895 -0.08944194 0.22772495 -0.10387484 0.053985532 -0.026880989 -0.35675797
-0.0888473 -0.18815643 -0.10950325 0.22256747 -0.2861603 -0.12562908 0.09552381 0.06613128
0.027313065 0.023315383 0.07744539 0.1931452 0.14799361 -0.1428224 -0.07559727 0.01390774
0.08156233 -0.14485404 -0.06734757 -0.022521667 -0.04792665 -0.1294686 0.11370807 0.15034877
-0.20140082 0.09430596 -0.09341129 -0.013914207 0.10359765 0.09483767 0.10694412 0.1364433
0.3816923 -0.17601335 -0.16952026 0.15625826 -0.10790196 0.034604505 0.1174272 0.21520601
0.0087765325 0.041539058 -0.005734752 -0.31678122 -0.09155971 0.15551451 -0.05211348 0.14658289
-0.15997055 -0.21038334 0.18734664 -0.30708593 0.30996314 0.01700653 -0.16957344 0.17636448
0.03805516 0.050422303 0.059145637 -0.31456846 0.2231669 0.12855816 -0.105586074 0.09745932
0.08978665 0.14899324 0.007591909 -0.028394915 0.31604198 -0.1260404 0.06516171 0.2847135
-0.018093977 -0.029500619 -0.120225295 0.046775732 -0.1187904 0.1838632 -0.2208943 0.044844456
-0.042194117 0.10766183 0.18857658 0.10304269 0.20890625 0.15512858 0.17962839 0.080576025
0.13494077 -0.17471674 -0.25862166 0.14863238 0.016554575 -0.117364116 0.0017037708 -0.050372835
0.168947 -0.12247244 0.12160509 0.062047075 -0.17105025 0.29169416 0.048394755 0.14806119
-0.029892711 0.027507862 -0.07990102 -0.19524448 0.071073115 0.14447743 0.10807608 0.15869656
-0.2549993 0.067342214 -0.04300053 -0.18556578 -0.19455567 -0.17032866 -0.110566474 -0.052831884
0.019627217 -0.22466613 0.052842014 0.19770418 -0.14709218 -0.14930116 -0.17113559 0.04424412
-0.198798 0.04191466 -0.03923545 0.12290421 -0.14363357 -0.106559746 0.15185302 -0.17989706
0.013225808 -0.22185642 -0.011725868 -0.100367114 -0.08991034 0.0076714093 -0.15715921 -0.049255684

bias f4 [20]
00000000: aea9 25bc 3e44 e0bd f635 59be 7e9d 3cbe
00000010: 81f5 073e 0e65 373d 13bf 59be 574a 803d
00000020: c803 42be 4bc9 e0bc d667 78bd 2d83 713e
00000030: f80b 583e d3e6 ebbd de9f a7bd 7811 5abe
00000040: d74f 01be 6156 28be f3c9 50be 5ebd 04bd
-0.010111256 -0.10950516 -0.2121199 -0.18419454 0.13277246 0.044774108 -0.21264295 0.06264179
-0.18946755 -0.027439734 -0.0606459 0.23585196 0.21098316 -0.115186356 -0.08184789 -0.21295726
-0.12628113 -0.16439201 -0.20389538 -0.032407157

weight f4 [20, 20]
00000000: 8c69 59bd e813 333d f1d6 f63d 45f1 ac3d
00000010: 9405 79be 4ae2 163e d01a ecbc 54b7 3b3e
00000020: 3d6e 1cbe cebf ff3d db49 cc3c ad0a 0f3e
00000030: 3a32 7e3e f806 a73d e628 b13d d55b 3bbd
00000040: f564 1cbe db76 a5bd 46bb 743d 9dfd e4bb
00000050: 4abf 213e a9e1 22be b494 cdbd 4df1 ffbd
00000060: c96d b23b 76ae 3ebc bdb2 463e a33e af3d
00000070: f75e c1bd 6512 b23d 4091 4ebd 906a 05bd
00000080: 8258 c73d 0255 4abd fd17 66be 15f2 723c
00000090: c002 4fbe d6bd d13d 5953 c63d be6d 64be
000000a0: d558 8f3d 20a5 26bd 4829 42be 5aa9 533d
000000b0: 08cd 50be 25da 4dbe b485 debd 71aa 27be
000000c0: 3630 d03d 6402 07bd 3e4a bbbb d2ab 28bd
000000d0: a28a 60bd 5348 1b3d 30da 8b3d 4669 28be
000000e0: 93dc 743d e5df bfbd 0879 af3e fffc 123e
000000f0: de99 403d b5b4 01be 84af 28be 87cc e23d
00000100: 03a3 2d3e 41d1 03bd 4742 583e 6733 893d
00000110: 4849 47bd 1fd2 72be bf85 12be 7afc 2cbe
00000120: 906e 8cbc af3e 0cbe 3c58 1f3e baf6 a6bc
00000130: b657 e03d 7767 c5bc ba13 2e3e 9527 47bd
00000140: 4eaa dbbd 63e2 f7bd c804 41bd a512 d2bd
00000150: ee3b 773d c79d bf3d 06cd 33be 89d0 dd3d
00000160: 37a3 0b3c 07eb 3d3c eb04 fbbd a561 433c
00000170: 4e46 8ebd c885 48be 5c83 8f3e d9d1 aebc
00000180: 9093 aebd 88cf 75be d601 90bc 08d0 c8bc
00000190: aed7 483d 71a0 14bd f42c 91be 3722 05be
000001a0: 089e 513a 745b 71be bd34 8ebe 7d4c af3c
000001b0: f8c0 ad3d 2c98 0bbe 8963 38be d3f3 5fbd
000001c0: 3190 acbe f2c6 3f3c e0d5 243e 2135 04bd
000001d0: 5928 c6bd 2a6c 983d a8df 243d 457d dd3d
000001e0: 5a7d 1d3e 9ef6 58be 3165 2c3e 2c82 133e
000001f0: 8ed0 2f3d 6f84 6cbe 186c 073e b32c ecbc
00000200: ca01 b4bd 6378 5bbe cea9 89be deee 72be
00000210: 291e 28be 78d9 0f3e 40e1 03be 7832 b23d
00000220: c525 9a3c 715a 82be 0fac d1bd c39e 303e
00000230: 4821 bf3c 3830 a03d 9ccf 24bd de47 563d
00000240: 7f0c 83bc 9986 b1bd 5af3 f4bd 0069 3c3c
00000250: 551a 1c3e c8d8 19be e642 c5bc ec58 563e
00000260: a4c1 8abe a7c9 97bd ead9 c93d 4fe3 1f3d
00000270: 8f08 093d 72af 943d cd92 353e dda5 1d3e
00000280: 8398 883d 5914 21bc 29b8 823d 0e0c 39bc
00000290: 84e3 53be 541b 683d 9539 82bd 32d7 24be
000002a0: cdd0 ad3d 8bcc 383e a6e9 a13e 809d 1dba
000002b0: 95b1 443e ea20 debd d92c 2c3d d6c3 0c3e
000002c0: 90a0 4abe 2d09 423e ee61 2dbe d51c 553d
000002d0: 644f c03d 0677 93bd 6dd3 74be 205b a43d
000002e0: 56c8 c63d a4f0 2ebe a45d 15bc 17e7 033e
000002f0: 8a20 913d 1511 bebd 352e 59bd 90d8 b0bd
00000300: f750 8c3e 9515 8abd 03a7 983d 8034 a73c
00000310: f4c4 dcbb 2074 f1bd d710 353d dea1 ee3c
00000320: 2daf 2fbe a936 0bbe 7cbf 01be 46c5 d43d
00000330: 9892 4c3e a32b 81be 06f0 96bd 71dc bb3b
00000340: 4475 95bd 335a 143e 67d9 1f3c 0c72 153e
00000350: 78ac 4dbe 6678 90bd 39c8 b23d 7af2 8f3c
00000360: 35c0 4dbe 4b9d 34be 6345 13be 5e96 563e
00000370: 2d85 91bd 777b b3bd 7215 4fbd db1d 1a3e
00000380: 32e8 91bd 85aa 5b3d 4584 4abe 0d27 143e
00000390: 7ab2 9f3e 0753 ddbd e2f8 6ebe 4343 67be
000003a0: aec5 ed3d f467 40be 6f4c e3bd 1a34 54be
000003b0: dd80 27be 2385 d83c 34ea 7fbe 7b34 8bbc
000003c0: 6a1c d73d f542 0fbe 0dc3 06be bb1b 48be
000003d0: 20f8 403c 4bde d13d 42fa 18bd 40bb 2a3e
000003e0: baa1 37bd e411 3fbe c4de 42be 24ba 013e
000003f0: ce46 06be e1c3 13bd f925 23bd 4abe f13d
-0.053079173 0.043720156 0.120527156 0.08444456 -0.24318534 0.1473476 -0.028821379 0.18331653
-0.15276428 0.12487756 0.02493756 0.13968916 0.24823847 0.08155626 0.08650379 -0.045741875
-0.15272887 -0.080793105 0.05974891 -0.006988241 0.15795627 -0.15906395 -0.100381285 -0.12497196
0.0054452163 -0.011638274 0.1940412 0.08556869 -0.09441941 0.08694915 -0.05043149 -0.03257233
0.097336784 -0.049397476 -0.22470088 0.014828225 -0.20215893 0.102412865 0.09683866 -0.22307488
0.06999365 -0.04068482 -0.1896106 0.051675178 -0.20390713 -0.20102747 -0.108653456 -0.16373612
0.101654455 -0.032961264 -0.0057156375 -0.041179486 -0.05481971 0.03791077 0.06828725 -0.16446409
0.05978067 -0.09368876 0.34272027 0.14354323 0.04702174 -0.1266659 -0.16473204 0.11074167
0.16956715 -0.032181982 0.21119033 0.06699257 -0.04865387 -0.23712967 -0.14308833 -0.16893187
-0.017142564 -0.13695787 0.15561002 -0.02038132 0.109542295 -0.024097187 0.16999713 -0.048621733
-0.107258424 -0.12103727 -0.0471237 -0.102574624 0.060359888 0.093562655 -0.17558679 0.108307905
0.0085228 0.011591679 -0.122567974 0.011925136 -0.06947003 -0.19582283 0.28029907 -0.021340298
-0.08524239 -0.24004948 -0.017579 -0.02451326 0.049033813 -0.03628582 -0.2835461 -0.13001333
0.0007996266 -0.23570043 -0.2777461 0.021398777 0.084840715 -0.13632268 -0.1800672 -0.05467589
-0.3370376 0.011705147 0.16097212 -0.03227723 -0.096756645 0.07442506 0.040252358 0.10814909
0.15379849 -0.21187827 0.16835476 0.14405125 0.042923503 -0.23097394 0.13224828 -0.028829908
-0.08789404 -0.21432643 -0.26887363 -0.23723933 -0.16417755 0.14047801 -0.12878895 0.087010324
0.018816838 -0.25459626 -0.10237896 0.17248063 0.0233313 0.07821697 -0.040237054 0.05231463
-0.01599717 -0.086682506 -0.11960478 0.011499643 0.1524442 -0.15024102 -0.024079751 0.20932359
-0.2710086 -0.07411509 0.09856017 0.039035138 0.033455428 0.07260026 0.17731781 0.15395303
0.06669714 -0.009831511 0.06382782 -0.011294378 -0.20692259 0.056666687 -0.06358639 -0.16097715
0.08487091 0.18046777 0.31623572 -0.0006012544 0.19208367 -0.108461216 0.042034958 0.1374658
-0.19787812 0.18948813 -0.16931888 0.05202945 0.093901426 -0.07200436 -0.23908778 0.08025193
0.0970618 -0.17083985 -0.009116564 0.12881123 0.070862845 -0.09280602 -0.053022582 -0.08635056
0.2740552 -0.06742398 0.0745373 0.020410776 -0.006737346 -0.11789727 0.044205513 0.029129919
-0.17156668 -0.1359507 -0.12670702 0.103891894 0.19977796 -0.25228605 -0.073699996 0.005733066
-0.07297757 0.14487533 0.009756423 0.14594287 -0.20085323 -0.07054214 0.08729596 0.017571677
-0.20092852 -0.17638128 -0.14381938 0.20955798 -0.071054794 -0.087637834 -0.05055756 0.15050451
-0.07124366 0.053629417 -0.1977702 0.14468022 0.31190854 -0.10806852 -0.23337129 -0.22584252
0.1160997 -0.18789655 -0.11098563 -0.20723 -0.16357751 0.026430672 -0.24991685 -0.016992798
0.105034664 -0.13990386 -0.13160343 -0.19541828 0.011777908 0.10247477 -0.03734804 0.16672993
-0.04483197 -0.18659168 -0.19030291 0.12668663 -0.13112947 -0.036075477 -0.039831135 0.11803873

bias f4 [20]
00000000: 27eb bdbd 403f 083d 1d0b 0c3e 48e4 5bbe
00000010: 3a45 9e3d 64d7 fa3d 1c45 e63d 30ac 1abc
00000020: c269 62bd de18 40bd 0c69 3fbe 9e35 dbbd
00000030: e53f fa3c 60c5 97bd 80ef 343e d018 ccbd
00000040: 5c37 80be 59df aabd aba3 2b3e ecf4 27bd
-0.092733674 0.033263445 0.13676114 -0.21473801 0.07728048 0.12248114 0.1124365 -0.009440467
-0.05527664 -0.046898715 -0.18692416 -0.10703586 0.030548045 -0.07410693 0.17669487 -0.0996567
-0.25042236 -0.083433814 0.16761653 -0.04100506
