programming_homework/03/code/part_1/decoder.pt (torch, 21148 bytes, 15 tensors)

weight f4 [29, 20]
0	0x3f250b28	0.6447015
1	0x3e0fd6f9	0.1404685
2	0x3f8c4604	1.0958867
3	0xbeb1020a	-0.34571868
4	0x3f0645b2	0.52450097
5	0x3f9be12d	1.2178093
6	0x3ed61938	0.41816115
7	0x3ff2ee2b	1.8978933
8	0x3ecca6f2	0.3997112
9	0xbfa5c3fe	-1.2950437
10	0x3ecc0d6b	0.39853987
11	0x3f691cf5	0.9105981
12	0xbd827b0d	-0.06371126
13	0xbe73ee6e	-0.23821422
14	0x3f863e73	1.0487808
15	0x3efdc957	0.49567673
16	0xbee9b45b	-0.45645413
17	0xbeca3afe	-0.39498132
18	0xbfde124a	-1.7349331
19	0xbfe21818	-1.7663603
20	0xbfa72f07	-1.3061227
21	0xbe769633	-0.24080734
22	0x3f058697	0.5215849
23	0x3ebf1d7f	0.3732719
24	0xbeb7c050	-0.3588891
25	0x3dd1b709	0.10239989
26	0xbd571163	-0.052506816
27	0x3fd3ab94	1.6536736
28	0x3e19f3fc	0.15034479
29	0x400cc9ca	2.1998162
30	0xc013f976	-2.312101
31	0xbf8b6e0c	-1.0892959
32	0xbe90fb47	-0.2831671
33	0x3ef22b65	0.47298732
34	0xbf5d57d8	-0.86462164
35	0xbf085c9d	-0.53266317
36	0xbf109714	-0.56480527
37	0x3f3c80bf	0.7363395
38	0xbf1364de	-0.57575786
39	0xbdf6388f	-0.120225064
40	0x3f5ac65d	0.8545893
41	0xbe85f667	-0.26164553
42	0x3e3601ee	0.17774174
43	0x3f7e8e1c	0.9943559
44	0x3eb3624f	0.3503594
45	0xbefca45e	-0.49344152
46	0x3e909cd5	0.28244653
47	0xbfc17290	-1.5113087
48	0xbee52523	-0.44754896
49	0x3fd22bf1	1.641966
50	0xbfd4469c	-1.6584048
51	0xbf62caef	-0.885909
52	0x3ee1c8dd	0.4409856
53	0x3e5a9dbe	0.21349236
54	0x3f07745e	0.5291194
55	0xbf549905	-0.8304599
56	0xbeaa4cf8	-0.33261847
57	0xc03d71c2	-2.9600682
58	0xbf89dc16	-1.077029
59	0xbf822215	-1.0166651
60	0xbf79e48c	-0.9761436
61	0x3f09cb30	0.53825665
62	0x40119c43	2.2751625
63	0x3f376611	0.71640116
64	0x3eff5ee2	0.49877077
65	0xbfb11b29	-1.3836414
66	0x3f283514	0.6570599
67	0xbee33f56	-0.4438426
68	0x3e9e7bbc	0.30953777
69	0x3f08b07e	0.53394306
70	0xbf2871e5	-0.6579879
71	0x3ec3a194	0.38209212
72	0xbf4c8272	-0.79886544
73	0xbf7c70c6	-0.9860958
74	0x3db23c50	0.0870291
75	0x3f97a10b	1.1846021
76	0xbf0da25b	-0.5532586
77	0xbf4a1f79	-0.78954273
78	0x3fb9d47d	1.4517971
79	0xbdf9dbfc	-0.12200162
80	0xbe4cf14c	-0.20013922
81	0x3ee0272a	0.4377988
82	0x3f13d888	0.57752275
83	0x3fb47a80	1.4099884
84	0x3f9d6c48	1.229867
85	0x3f5a23e7	0.8521103
86	0xbebbcc20	-0.36679173
87	0xbef13009	-0.4710696
88	0xbeb69483	-0.3566018
89	0xbf22a4cb	-0.63532704
90	0x3f364126	0.7119316
91	0xbf3bfe1f	-0.73434633
92	0xbe577cfc	-0.21043772
93	0x3f6cd54c	0.92512965
94	0xbf6b767f	-0.91977686
95	0xbf9071c1	-1.1284715
96	0x3f5ee3e5	0.8706649
97	0xbf3f2fcf	-0.74682325
98	0x3f1f6312	0.62260544
99	0x3ecbbffc	0.3979491
100	0x3f999846	1.1999595
101	0xbe6c55da	-0.23079625
102	0x3eceb73c	0.40374172
103	0x3fcf6338	1.6202154
104	0xbff5a69b	-1.9191469
105	0x3ebb2e76	0.36558884
106	0x3f592669	0.84824234
107	0xbe744507	-0.23854457
108	0x3e86adf6	0.26304597
109	0xbe7b9fb0	-0.24572635
110	0xbe07ff25	-0.13280924
111	0x3f067db0	0.52535534
112	0x3f41789a	0.7557465
113	0xbf192055	-0.5981496
114	0xbf1faf94	-0.62377286
115	0xbf73a077	-0.95166725
116	0x3f3dc6e7	0.74131626
117	0x3f8ec123	1.1152691
118	0xbe7fcd82	-0.24980739
119	0x3f40f3d2	0.7537204
120	0x3fc2ae4f	1.5209445
121	0x3f7bff22	0.98436177
122	0x3ee4908e	0.44641536
123	0xbfe6b2af	-1.802328
124	0xbe984880	-0.29742813
125	0xbf399610	-0.724946
126	0xbedbba52	-0.4291559
127	0x3e1bba71	0.1520784
128	0xbf98e05b	-1.1943468
129	0x3e9a2e19	0.30113295
130	0xbf479759	-0.77965313
131	0x3f5a4183	0.8525621
132	0x3f1f6594	0.6226437
133	0xbf31587d	-0.6927565
134	0xc02a927c	-2.6651907
135	0xbe2b9cc0	-0.16759014
136	0x3e630f5d	0.2217383
137	0xc0068ba4	-2.102273
138	0x3eaf674b	0.34258494
139	0xbf185ddc	-0.5951822
140	0x3f585464	0.8450377
141	0x3ea0fb99	0.31441954
142	0x3f82997b	1.0203089
143	0x3d41ac3e	0.047283404
144	0xbf0033c1	-0.5007897
145	0xbd7627ed	-0.06009667
146	0xbf8cafc1	-1.0991136
147	0xbf646981	-0.89223486
148	0xbf6fc9d7	-0.9366736
149	0xbf169cae	-0.58832824
150	0xbfc86974	-1.5657182
151	0xbf6eaaf7	-0.9322962
152	0x3fe8b62e	1.8180597
153	0x3fa0d7a4	1.2565808
154	0x3fcdbdc6	1.6073539
155	0x3f06f96d	0.52724344
156	0x3dc833bd	0.09775493
157	0x3efbaebf	0.49156758
158	0xbea52d6f	-0.32261226
159	0x3f18bd5b	0.59663934
160	0xbcdfd4a3	-0.027323073
161	0xbf19df20	-0.60106087
162	0x3f280afb	0.65641755
163	0xbe739588	-0.2378751
164	0x3e2fc3e7	0.17164575
165	0xbf9af748	-1.2106714
166	0x3d61b00c	0.055099532
167	0x3ee7968f	0.45232055
168	0x3d4aecde	0.0495423
169	0x3f1f7914	0.62294126
170	0x3f351c7e	0.707466
171	0xbfed7932	-1.8552611
172	0x3f2554e7	0.64582676
173	0x3f59596e	0.84902084
174	0x3eb60e8a	0.35557967
175	0x3f2a22f9	0.66459614
176	0x401182d7	2.2736108
177	0xbf84e4a1	-1.0382272
178	0x3fcb6988	1.589158
179	0xbf9f3a28	-1.2439623
180	0xbfb1e002	-1.3896487
181	0xbf9b9376	-1.2154377
182	0x3bc3c408	0.0059742965
183	0xbf151fb8	-0.58251524
184	0xbfdd636c	-1.7295966
185	0x3ef78a21	0.48347571
186	0xbf9ed0d1	-1.2407476
187	0xbf4f8b2c	-0.81071734
188	0xbee4b539	-0.44669512
189	0x3da39081	0.07986546
190	0xbeaf60a0	-0.34253407
191	0xbf3ee174	-0.74562764
192	0xbf7f4c3e	-0.9972571
193	0xbf18efb5	-0.59740764
194	0xbf53f40e	-0.8279427
195	0xbe931fa1	-0.28735068
196	0xbf6e2f17	-0.93040603
197	0xbeb6679b	-0.3562592
198	0xbedb7c0d	-0.4286808
199	0xbef71901	-0.48261264
200	0xbfcefd75	-1.6171099
201	0x3f4ca364	0.79936814
202	0x3f358960	0.7091274
203	0xbf10a774	-0.56505513
204	0xbe1921f0	-0.14954352
205	0xbd8d2712	-0.06892218
206	0xbf202ed3	-0.6257145
207	0xbe5fa640	-0.21840763
208	0xbfb6af65	-1.4272276
209	0xbfb3f306	-1.405854
210	0xbfde1516	-1.7350185
211	0x3ff6d7a7	1.9284562
212	0x4055cf3c	3.3407736
213	0xbe9f51cb	-0.3111709
214	0x3f4dff67	0.8046784
215	0x3f42e874	0.76135945
216	0x3ed1a508	0.4094622
217	0xc00fe3ea	-2.2482858
218	0x3f4458d9	0.7669807
219	0xc0242bed	-2.565181
220	0xbc0acf26	-0.00847224
221	0x3c77c36f	0.015122279
222	0xbf1db244	-0.61600137
223	0x3f3f36bf	0.7469291
224	0xbcbe837d	-0.023256058
225	0xbf63a894	-0.88929105
226	0xbf7f11b4	-0.9963639
227	0xbfce038b	-1.6094831
228	0xc0213632	-2.5189328
229	0xbff792e8	-1.9341707
230	0xbe5dbb4e	-0.21653482
231	0xbed35c75	-0.41281477
232	0xbedeb11a	-0.43494493
233	0xbf07e14d	-0.53078157
234	0xc01bc0c5	-2.4336407
235	0xbf1f8764	-0.62315965
236	0x3f0a1596	0.5393919
237	0xbed1ae15	-0.40953127
238	0xbf15586f	-0.58338064
239	0xbfd680e2	-1.6758082
240	0xbee65530	-0.44986868
241	0x3f733275	0.94998866
242	0xbdf2882b	-0.11842378
243	0x3f1f7a1e	0.6229571
244	0x3f16cef7	0.58909553
245	0x3f7a6218	0.9780593
246	0xbf5f5a30	-0.8724699
247	0xbf0e288d	-0.55530626
248	0x3e7adadf	0.24497555
249	0x3f9cea38	1.2258978
250	0x3feeef0c	1.8666701
251	0x3f4dcda7	0.80391926
252	0x3fc77d6b	1.558515
253	0x3e926525	0.28592792
254	0xbf8b8c10	-1.0902119
255	0x3ecaabd2	0.39584213

weight f4 [20, 20]
0	0x3f034200	0.51272583
1	0x3de84b7c	0.113425225
2	0xbe3509dc	-0.17679542
3	0x3f1e6ea6	0.61887586
4	0xbeb04fb3	-0.34435806
5	0xbee01dad	-0.4377264
6	0x3cff1f09	0.031142728
7	0xbf770138	-0.96486235
8	0xbf36aaa5	-0.7135413
9	0xbf70be9d	-0.9404085
10	0x3f469f0f	0.77586454
11	0x3e7b030d	0.24512883
12	0x3e44a97c	0.19205278
13	0x3edd1da8	0.43186688
14	0x3f86649e	1.0499456
15	0x3e89714c	0.2684425
16	0x3e02bd71	0.12767579
17	0x3edf4ec4	0.4361478
18	0x3f0fb570	0.56136227
19	0x3f1c5c76	0.61078584
20	0xbdb35108	-0.0875569
21	0xbfa0c064	-1.2558713
22	0x3f479374	0.7795937
23	0xbf914444	-1.1348958
24	0xbecf2aa4	-0.4046222
25	0xbf66bae3	-0.90128917
26	0xbee77733	-0.4520813
27	0xbd9ad40e	-0.075599775
28	0x3f3edaf3	0.7455284
29	0xbe86f53e	-0.2635898
30	0xbe17e49a	-0.14833298
31	0xbe56160a	-0.20906845
32	0xbeaf447b	-0.34231934
33	0x3e148a34	0.14505845
34	0x3e287818	0.16452062
35	0xbcc36fd2	-0.023857031
36	0x3db5b518	0.088724315
37	0xbe86d03a	-0.2633074
38	0xbe22adb5	-0.15886576
39	0xbc46d1b0	-0.012134954
40	0x3df55f38	0.11981052
41	0xbf2df2bc	-0.6794851
42	0xbe6d5db7	-0.2318028
43	0x3f453b4b	0.770436
44	0xbda5473a	-0.08070226
45	0x3fb3a9c4	1.4036183
46	0x3ef45822	0.4772349
47	0x3dfce1d7	0.12347763
48	0xbd9013d9	-0.07035036
49	0xbe5097f9	-0.20370473
50	0xbf704b6d	-0.9386509
51	0x3ec9b2b3	0.3939415
52	0x3faa1e7d	1.3290554
53	0x3fa73bd6	1.3065135
54	0x3e5a9159	0.21344508
55	0x3d5ea1a2	0.054353364
56	0x3f0a58e4	0.54041886
57	0x3e1376fd	0.14400859
58	0xbf080a0e	-0.5314034
59	0xbee9b67e	-0.45647043
60	0x3e4ebcaf	0.20189165
61	0xc03af95f	-2.9214704
62	0xbe906149	-0.28199223
63	0xbe81533e	-0.2525882
64	0xbe9ced62	-0.3064986
65	0xbbeb5c7f	-0.0071826573
66	0xbda3711f	-0.079805605
67	0x3e0ced34	0.13762361
68	0x3f0905b2	0.53524315
69	0xbf503e22	-0.8134481
70	0xbefbe5bf	-0.4919872
71	0xbf1aed3a	-0.6051823
72	0xbef6eaba	-0.48225957
73	0x3f198aab	0.59977216
74	0xbe37f573	-0.17964725
75	0x3e549813	0.20761137
76	0x3ef7f30b	0.48427615
77	0xbc4e2e7b	-0.012584324
78	0xbf3759b8	-0.71621275
79	0xbf35a493	-0.70954245
80	0xbf6448c5	-0.8917354
81	0xbe5aeef1	-0.21380211
82	0x3e0dadd6	0.13835844
83	0x3e328c1e	0.17436263
84	0x3f026a94	0.50943875
85	0xbf13eb8f	-0.5778131
86	0xbebcfb14	-0.36910307
87	0xbedc5a88	-0.4303782
88	0xbf3604d5	-0.71101123
89	0x3de0b108	0.10971266
90	0x3f2665df	0.6499919
91	0x3f57727a	0.8415905
92	0xbd9ba88d	-0.07600508
93	0x3e718aea	0.23588148
94	0xbef06b81	-0.4695702
95	0x3ef101c0	0.47071648
96	0x3f0dd23a	0.55398905
97	0xbf85c54a	-1.0450833
98	0x3ed55c41	0.41671947
99	0xbe8d34d3	-0.27579364
100	0x3e29f942	0.1659899
101	0xbeeb5622	-0.45964152
102	0x3d829c14	0.06377426
103	0xbeabb28a	-0.33534652
104	0xbe99f8ed	-0.30072728
105	0x3e4ea2f6	0.20179352
106	0xbeb4b6e1	-0.35295776
107	0x3f521322	0.82060444
108	0xbebe281f	-0.37139985
109	0x3e409670	0.18807387
110	0xbd1b2eb9	-0.037886355
111	0xbefce360	-0.49392223
112	0x3d6b76ee	0.057486467
113	0xbeb26939	-0.34845904
114	0x3e21ff05	0.15819938
115	0xbe1f9b4a	-0.15586582
116	0xbec37d3a	-0.38181478
117	0x3d7205ce	0.059087567
118	0x3e639281	0.22223856
119	0x3e999984	0.29999936
120	0x3dd70b4d	0.10500202
121	0xbc6e190f	-0.014532342
122	0xbf0f367d	-0.5594252
123	0x3ed007a2	0.40630823
124	0xbcb3ac80	-0.02193284
125	0xbf09391c	-0.53602767
126	0xbf172568	-0.5904145
127	0xbead21a0	-0.33814716
128	0x3e91e4a5	0.28494754
129	0x3f08a1e0	0.53372
130	0x3d5ee502	0.054417618
131	0xbf1f4acb	-0.622235
132	0xbf6b8fbd	-0.920162
133	0x3f9c3963	1.2205013
134	0xbda1b6c7	-0.0789619
135	0xbebaec58	-0.3650844
136	0x3ebd4654	0.3696772
137	0x3db63dcc	0.088985056
138	0xbec75d93	-0.3893858
139	0xbeb9c210	-0.3628087
140	0xbf9a37c2	-1.2048266
141	0xbeacb650	-0.33732843
142	0x3e8d2145	0.27564445
143	0xbd28ef37	-0.041243758
144	0x3de0c76b	0.10975536
145	0x3eb68bf0	0.3565364
146	0xbe3e0604	-0.18556982
147	0x3e63ad75	0.22234137
148	0x3e7a0eed	0.24419756
149	0x3db14382	0.08655454
150	0xbf4d70c6	-0.80250204
151	0x3de405f9	0.11133952
152	0x3e49d754	0.19711047
153	0x3f201751	0.6253558
154	0xbf02ed39	-0.51143223
155	0xbe6812da	-0.22663441
156	0x3c1b3141	0.009472192
157	0xbe9d0a43	-0.30671892
158	0x3d5de5c1	0.05417419
159	0xbe5faaec	-0.21842545
160	0xbf7a94eb	-0.9788348
161	0xbf6269e2	-0.88442814
162	0x3e899481	0.26871112
163	0x3f447d72	0.76753914
164	0x3f4b8351	0.7949725
165	0x3f50e07c	0.81592536
166	0xbf8ee158	-1.116252
167	0x3f0d34b2	0.5515853
168	0xbd14c162	-0.036317237
169	0x3f2833b3	0.65703887
170	0xbf3f6c23	-0.7477438
171	0xbfca100b	-1.5786146
172	0x3f0a4155	0.5400594
173	0xbe4207ef	-0.18948339
174	0x3e30f350	0.17280316
175	0x3f31a32d	0.6938961
176	0xbfd4ba32	-1.6619322
177	0xbf854f6a	-1.041486
178	0xbeb44201	-0.35206607
179	0xbef1be2d	-0.47215405
180	0xbf07805b	-0.5293023
181	0x3f534dcd	0.8254059
182	0x3edb675e	0.428523
183	0xbe0d6e5e	-0.13811633
184	0x3d495e31	0.049162094
185	0x3ef04afc	0.4693221
186	0x3f8ce28b	1.1006635
187	0x3ea12789	0.31475475
188	0xbefe19ad	-0.49628964
189	0x3f2f51c1	0.6848412
190	0xbf789cd2	-0.9711429
191	0xbedaf893	-0.42767772
192	0x3ebc6162	0.36793047
193	0xbe9ca13f	-0.3059177
194	0x3e3071ad	0.17230864
195	0xbe8bd1b9	-0.27308443
196	0x3c55879a	0.013032818
197	0x3ec10e0b	0.37706026
198	0xbf30b73e	-0.69029605
199	0x3c8d8bea	0.01727863
200	0xb904d08e	-0.00012666194
201	0xbf40aaee	-0.7526082
202	0xbe1c807a	-0.15283385
203	0x3f0ad6fd	0.54234296
204	0x3db1400c	0.08654794
205	0x3f15626d	0.5835331
206	0x3f2b8e59	0.6701408
207	0x3df4e3f6	0.119575426
208	0xbec21b69	-0.37911537
209	0xbef9d4ff	-0.48795316
210	0x3e8ba24b	0.27272257
211	0x3f41a981	0.7564927
212	0xbf8d4926	-1.1037948
213	0x3fa80bd0	1.3128605
214	0x3f81a0a9	1.0127155
215	0xbc489c86	-0.012244349
216	0x3e269330	0.16267085
217	0x3f015ff9	0.5053707
218	0x3e07080c	0.13186663
219	0x3f1698ec	0.5882709
220	0x3daffa64	0.0859268
221	0xbea36e22	-0.31919962
222	0xbe7e00d6	-0.24805006
223	0xbf40fda9	-0.75387055
224	0x3d2151d0	0.039384663
225	0xbf5fd149	-0.8742872
226	0x3c838336	0.016053777
227	0x3e104c92	0.1409171
228	0xbd7c0c48	-0.06153515
229	0x3ff11a7d	1.8836209
230	0xbe2ec8d1	-0.17068793
231	0xbdabce9d	-0.08389018
232	0xbeb1abd1	-0.34701398
233	0xbf6444b0	-0.8916731
234	0x3d032882	0.032021053
235	0x3f31dfca	0.694821
236	0x3f489568	0.78352976
237	0xbf35e2f2	-0.71049416
238	0xbf62f123	-0.88649195
239	0x3e2acc44	0.16679484
240	0xbe8bd387	-0.2730982
241	0x3e9d41e3	0.3071433
242	0x3fbac5ba	1.4591591
243	0x3e1e214a	0.15442386
244	0x3f58ff63	0.8476469
245	0x3e8a6db4	0.27036822
246	0x3e46a589	0.19399084
247	0xbf8e6843	-1.1125568
248	0xbf1ae551	-0.6050616
249	0xbf5f8336	-0.87309587
250	0x3e923921	0.2855921
251	0xbf2b173e	-0.6683234
252	0xbdc97e24	-0.098385125
253	0x3eae3164	0.34022057
254	0xbd8356a9	-0.064130135
255	0xbefcc70d	-0.49370614

bias f4 [20]
0	0x3ea48215	0.32130495
1	0x3e453c50	0.19261289
2	0x3ad17c4c	0.0015982478
3	0xbe9e3309	-0.30898312
4	0x3e8c1330	0.2735839
5	0x3f5b16d0	0.85581684
6	0x3d9b7533	0.07590713
7	0xbe1020da	-0.14075032
8	0x3f85f434	1.046515
9	0x3f04f617	0.51938003
10	0xbee4f869	-0.44720772
11	0x3f55955e	0.8343104
12	0x3d92a5dc	0.071605414
13	0x3bd4b5ac	0.0064913835
14	0x3f7b0611	0.9805613
15	0x3cde376e	0.02712604
16	0xbec13b30	-0.3774047
17	0x3f96d75d	1.1784474
18	0xbe1a5273	-0.15070514
19	0xbf5fe70f	-0.8746194

weight f4 [20, 20]
0	0x3e7a393a	0.24435893
1	0x3ed001a8	0.40626264
2	0x3e182fde	0.1486201
3	0xbedc9a80	-0.43086624
4	0x3f3a345e	0.72736156
5	0x3f48c985	0.78432494
6	0x3f98c039	1.1933662
7	0xbe5bacc8	-0.2145263
8	0x3f094447	0.5361981
9	0xbecccd6a	-0.40000468
10	0x3f8696ab	1.051473
11	0xbf5ddd5c	-0.8666589
12	0x3f6d1c19	0.92621
13	0x3eefee0f	0.46861312
14	0x3f02f2e8	0.51151896
15	0x3e82df3d	0.25560942
16	0xbf0548d0	-0.5206423
17	0x3ed56a53	0.4168268
18	0x3f109e32	0.56491387
19	0xbd8b28a3	-0.0679486
20	0x3e6fde8c	0.23424739
21	0xbea12266	-0.31471556
22	0xbf6f3c12	-0.93451035
23	0xbd74de4e	-0.05978232
24	0x3f1cd205	0.61257964
25	0x3b88b678	0.0041721426
26	0xbe7a91ca	-0.24469677
27	0x3f366c5f	0.7125911
28	0x3ed16791	0.40899327
29	0xbea48762	-0.3213454
30	0x3f1fb84c	0.6239059
31	0x3eafc7a0	0.3433199
32	0x3eb6645e	0.3562345
33	0x3e08e039	0.13366784
34	0x3cd15ef0	0.025557965
35	0x3f237fbb	0.63866776
36	0x3e31730a	0.1732904
37	0xbecc6f6c	-0.39928758
38	0xbfa00fb7	-1.2504796
39	0xbee52f67	-0.44762728
40	0xbe38e803	-0.18057255
41	0xbd01474a	-0.031562127
42	0xbe8d830a	-0.27639037
43	0xbf2e800a	-0.6816412
44	0xbdf24b74	-0.11830798
45	0x3e25a0c8	0.16174614
46	0xbe98a819	-0.29815748
47	0xbf1c424b	-0.61038655
48	0xbe854eec	-0.26036775
49	0x3d69e751	0.057105366
50	0x3edd3a7f	0.4320869
51	0xbd605b24	-0.05477442
52	0xbeba743b	-0.36416802
53	0xbdd27037	-0.102753095
54	0x3ede812e	0.4345793
55	0xbec2f166	-0.38074797
56	0x3ebe77c8	0.3720076
57	0x3cabb250	0.02095905
58	0x3f542f68	0.82884836
59	0x3f74cb2a	0.95622504
60	0x3e71e6b1	0.23623158
61	0x3e834997	0.25642082
62	0xbefdc3d6	-0.49563473
63	0x3f723559	0.9461265
64	0x3e6678f2	0.22507074
65	0xbf852aca	-1.0403683
66	0x3ec7b880	0.3900795
67	0xbe2d6a25	-0.16935022
68	0xbcb2348f	-0.021753578
69	0xbf4e513b	-0.805927
70	0x3f61bf14	0.8818219
71	0x3e950cfe	0.29111475
72	0x3ede76dd	0.4345006
73	0x3f406f86	0.7517017
74	0x3ebdd181	0.370739
75	0xbe401d14	-0.18761092
76	0xbef626b8	-0.48076415
77	0xbef87916	-0.4852988
78	0xbe9e8eb6	-0.30968255
79	0x3f3b51d0	0.7317171
80	0xbe137493	-0.14399938
81	0xbd8d3536	-0.06894915
82	0xbedddb8e	-0.4333157
83	0x3e8283b1	0.25491098
84	0xbe4a60c2	-0.19763473
85	0x3f028edf	0.50999254
86	0xbe8302b8	-0.25588012
87	0xbed23b86	-0.41061038
88	0x3ddbcb2d	0.10732112
89	0x3f0992e4	0.5373976
90	0x3e352ed8	0.1769365
91	0xbf78c656	-0.97177637
92	0xbd1d72c9	-0.038439546
93	0xbec0afba	-0.3763407
94	0x3ed5e500	0.41776276
95	0xbd94ffc6	-0.072753474
96	0xbe31ee26	-0.17376003
97	0x3edb5214	0.42836058
98	0xbe41a983	-0.1891232
99	0xbc8baf27	-0.017051293
100	0xbdc0238e	-0.093817815
101	0xbef00428	-0.4687817
102	0x3f392dca	0.72335494
103	0xbe5c802e	-0.21533272
104	0x3e5f6b96	0.21818385
105	0x3dbd5263	0.0924423
106	0xbf1c0cad	-0.6095684
107	0x3dca053e	0.09864281
108	0xbea67e58	-0.32518268
109	0x3d8e1bee	0.06938921
110	0x3c2eddb7	0.010672978
111	0xbf2a25a2	-0.66463673
112	0xbbb5acef	-0.005544297
113	0x3ebfa17e	0.37427896
114	0x3dbd23e2	0.0923536
115	0xbe63abdf	-0.22233532
116	0x3d3f77bf	0.04674506
117	0xbc8158d3	-0.015789425
118	0x3ee79cd0	0.45236826
119	0xbf441be3	-0.7660505
120	0x3f549ccd	0.8305176
121	0x3ecae20f	0.39625594
122	0xbe87d6fe	-0.26531214
123	0x3dca0298	0.09863776
124	0x3f63e256	0.89017236
125	0x3f463295	0.7742093
126	0x3f8154fb	1.0104059
127	0x3f080907	0.53138775
128	0x3e008bec	0.12553376
129	0xbf343594	-0.70394254
130	0x3ef2f062	0.47449023
131	0x3d4a1408	0.04933551
132	0xbec6db0a	-0.3883899
133	0x3e41dc6d	0.18931742
134	0x3f5373ef	0.82598776
135	0x3ef196bf	0.47185323
136	0x3f3c76a3	0.73618525
137	0x3ed570c9	0.4168761
138	0xbf1987db	-0.59972924
139	0x3d42447f	0.047428604
140	0x3d93edec	0.07223114
141	0xbf7c36db	-0.985212
142	0xbf2402c8	-0.64066744
143	0xbf5b240c	-0.8560188
144	0xbeaf8430	-0.3428054
145	0xbd6b36ca	-0.057425298
146	0xbd218147	-0.03942993
147	0xbe3e58a2	-0.18588498
148	0x3ee1763b	0.44035515
149	0xbe2fc4d1	-0.17164923
150	0xbcc7f693	-0.024409568
151	0xbf9838ad	-1.1892296
152	0xbfa20252	-1.2656958
153	0x3f5f03e5	0.8711532
154	0xbd84aab8	-0.064778745
155	0xbf49cd80	-0.78829193
156	0x3e89a028	0.26880002
157	0xbd82797d	-0.06370828
158	0x3ed96b28	0.42464566
159	0x3f31599c	0.6927736
160	0xbf37afb5	-0.7175248
161	0x3e783046	0.24237165
162	0xbed797b5	-0.4210793
163	0x3dff16ca	0.124555185
164	0xbf4ddc14	-0.8041394
165	0xbe716362	-0.23573068
166	0x3f001c77	0.50043434
167	0xbb393647	-0.0028261112
168	0xbde1676c	-0.11006054
169	0x3d528ee1	0.05140579
170	0xbf0be16e	-0.54640853
171	0xbf22a937	-0.6353945
172	0xbec18d22	-0.37802988
173	0x3fa672a6	1.3003738
174	0x3eeae076	0.45874375
175	0x3af8fa8a	0.0018995565
176	0xbd862b92	-0.06551279
177	0x3e6f7ad6	0.23386702
178	0x3f1df546	0.6170238
179	0x3f116088	0.5678792
180	0x3f38ed99	0.72237545
181	0x3dce0be5	0.100608625
182	0x3ea61e6d	0.32445088
183	0xbe3ed593	-0.1863616
184	0xbed010c2	-0.40637785
185	0xbf0cd66a	-0.5501467
186	0x3f02c6da	0.51084673
187	0x3e1512a5	0.14557894
188	0x3f772cc9	0.9655271
189	0xbdc255a4	-0.09488991
190	0x3e86a165	0.2629501
191	0xbe50c16d	-0.20386286
192	0x3e0507d2	0.12991264
193	0xbdcf24cf	-0.101144426
194	0x3f3cb150	0.7370806
195	0xbdcc2292	-0.09967531
196	0x3f2e4c78	0.6808543
197	0x3f580b52	0.84392273
198	0x3f09101c	0.53540206
199	0xbf3d13e1	-0.7385846
200	0xbe463822	-0.1935735
201	0xbee2886f	-0.44244716
202	0xbf0d80b7	-0.5527453
203	0x3ededd28	0.43528104
204	0x3fa43fe9	1.2832004
205	0x3f66d534	0.9016907
206	0x3eab5562	0.3346358
207	0xbeff5437	-0.49868938
208	0xbdb48d5d	-0.088160254
209	0xbece0ef6	-0.4024579
210	0x3f63da28	0.89004755
211	0x3fa438dd	1.2829853
212	0x3eb92870	0.36163664
213	0x3f2ef0b4	0.68336034
214	0x3dcf7452	0.10129608
215	0x3f295ed8	0.66160345
216	0xbf218b8a	-0.63103545
217	0x3eb28ecf	0.3487458
218	0x3f2e1bc8	0.6801114
219	0x3c9d7e4c	0.019225262
220	0x3ef217c6	0.47283763
221	0xbe200bc6	-0.15629491
222	0x3ed2037b	0.4101828
223	0xbe5ca618	-0.21547735
224	0xbf0a46ba	-0.5401417
225	0xbf5e22c6	-0.8677181
226	0x3e817336	0.2528321
227	0x3f10116a	0.5627657
228	0x3a5bff54	0.0008392234
229	0x3effc91a	0.49958116
230	0xbe33cf93	-0.17559652
231	0x3ee596c9	0.44841602
232	0xbea02dbc	-0.31284893
233	0xbecd2e70	-0.40074492
234	0x3dd3699c	0.10322878
235	0x3eaad476	0.3336522
236	0xbdd6c5e7	-0.104869656
237	0x3d934691	0.07191194
238	0xbf71eff2	-0.9450675
239	0x3f8f8513	1.1212486
240	0x3f023ac9	0.5087095
241	0xbe7dc4e7	-0.24782144
242	0xbe65c358	-0.22437799
243	0x3dfe3842	0.12413074
244	0x3e365961	0.17807533
245	0x3d979e9e	0.07403301
246	0x3e9ccbd3	0.30624256
247	0xbecbbe4c	-0.39793622
248	0xbe9c0842	-0.3047505
249	0x3dad4450	0.08460295
250	0x3e857fac	0.26073968
251	0xbea2fe2f	-0.31834552
252	0xbdc5404f	-0.096314065
253	0xbef59264	-0.4796325
254	0x3f1f5b84	0.62249017
255	0x3e6ad7aa	0.22933832

bias f4 [20]
0	0xbeae3382	-0.34023672
1	0xbe71dd80	-0.23619652
2	0xbea3fdf5	-0.3202969
3	0xbebb461a	-0.3657692
4	0xbe9da248	-0.30787873
5	0x3f6ce8e6	0.92542875
6	0xbeeb3bdb	-0.45944104
7	0xbd8c4559	-0.068491645
8	0xbf8f2d3e	-1.1185682
9	0x3db87504	0.09006694
10	0xbf9e7e68	-1.2382326
11	0x3ee435a8	0.44572186
12	0xbd27a818	-0.04093179
13	0xbf0d750c	-0.55256724
14	0x3ed9e637	0.42558452
15	0xbfa81f7b	-1.3134607
16	0xbdb3f386	-0.08786683
17	0x3ed2079b	0.41021428
18	0xbeeb80d9	-0.4599674
19	0xbf08688a	-0.53284514

weight f4 [20, 20]
0	0xbe984f1a	-0.2974785
1	0xbdf14de1	-0.11782432
2	0xbec54818	-0.38531566
3	0x3e105ed9	0.14098682
4	0x3e989cf5	0.2980725
5	0xbee65c23	-0.4499217
6	0x3efc8a8d	0.49324456
7	0x3e83f35c	0.25771606
8	0xbf0bd554	-0.5462239
9	0xbed743b4	-0.4204384
10	0xbefee2c6	-0.4978239
11	0x3dc6da9a	0.09709664
12	0xbe4ab581	-0.19795801
13	0x3ecd6a84	0.40120327
14	0x3db15b7b	0.08660027
15	0xbe93cf16	-0.28868932
16	0x3e6832b1	0.22675587
17	0xbe9e38f3	-0.30902824
18	0x3e672791	0.22573687
19	0x3f1ea560	0.6197109
20	0x3eb8c5c9	0.36088398
21	0x3e89f070	0.26941252
22	0x3e964c79	0.2935522
23	0x3e8100ea	0.2519601
24	0x3b5f159e	0.0034039984
25	0xbf378406	-0.71685827
26	0xbefb88d9	-0.49127844
27	0xbcd75614	-0.026286162
28	0xbeef8f9e	-0.4678926
29	0x3e292a83	0.16520123
30	0x3e016ea0	0.12639856
31	0x3f0988e8	0.5372453
32	0x3e976079	0.2956579
33	0xbd9ce6d6	-0.07661216
34	0x3ee7df5d	0.452876
35	0xbdc77ba5	-0.0974038
36	0x3f1d85db	0.6153237
37	0xbe12fe0b	-0.14354722
38	0x3f8474b9	1.0348121
39	0x3e2c1857	0.1680616
40	0x3e9f6bad	0.31136838
41	0xbe3299ec	-0.17441529
42	0xbea42689	-0.3206065
43	0xbe0c5fff	-0.13708495
44	0x3e8c468d	0.27397576
45	0x3dae49c0	0.085101604
46	0x3e43cae5	0.19120367
47	0x3edebc87	0.4350321
48	0x3ed8f13c	0.42371547
49	0xbdb666e6	-0.08906345
50	0x3ea60eaa	0.32433063
51	0x3f2e79f4	0.68154836
52	0x3e1d26ef	0.15346883
53	0xbe51f45c	-0.20503372
54	0x3e73e2b1	0.23816945
55	0x3f253642	0.64535916
56	0xbebee376	-0.37282914
57	0xbe55c3b2	-0.20875433
58	0x3e66c7d1	0.22537161
59	0x3e124e62	0.14287713
60	0x3f094883	0.5362627
61	0xbe890033	-0.26757964
62	0xbd7b81ea	-0.061403193
63	0xbe25b7bf	-0.16183375
64	0x3c07eeb4	0.008296657
65	0x3cba9147	0.022774352
66	0x3f42e0de	0.7612437
67	0xbd57d3b0	-0.052692115
68	0xbe943a4b	-0.28950724
69	0xbf01386b	-0.5047671
70	0x3f1b627e	0.6069716
71	0x3ec1ee21	0.3787699
72	0x3f0bc7ac	0.5460155
73	0xbe14f48e	-0.14546415
74	0x3e3641dc	0.17798561
75	0xbef4fe17	-0.47850105
76	0x3e5fd6bd	0.2185926
77	0x3e0212f4	0.12702543
78	0xbda1b8e8	-0.07896596
79	0xbd81116e	-0.063021526
80	0xbed6fb38	-0.4198854
81	0xbed1068a	-0.408253
82	0x3e88b38d	0.26699486
83	0xbdd4754c	-0.10373935
84	0xbd98e6af	-0.074658744
85	0x3d8e7dce	0.06957589
86	0xbc59d8e4	-0.01329634
87	0xbd099623	-0.033590447
88	0xbe0b62ed	-0.13611956
89	0x3dcd3b37	0.1002106
90	0x3dcf3b94	0.101187855
91	0x3eb8be50	0.36082697
92	0xbe00a4ae	-0.1256282
93	0x3e06e2d1	0.13172461
94	0x3e798d32	0.24370268
95	0x3eef6e14	0.4676367
96	0x3c9d0df0	0.019171685
97	0xbe471ed6	-0.19445357
98	0x3ebb279b	0.36553654
99	0xbea499b7	-0.32148525
100	0x3f11deac	0.56980395
101	0xbdef4d9f	-0.11684727
102	0x3ebdb594	0.37052596
103	0xbe21c337	-0.15797125
104	0x3e89b486	0.2689554
105	0xbc6c23a5	-0.014412795
106	0xbedcf7d1	-0.4315782
107	0xbaa444bb	-0.001253269
108	0xbde83a58	-0.11339253
109	0xbe320af4	-0.17386991
110	0xbdc782cd	-0.09741745
111	0x3dbaed33	0.091272734
112	0xbee53b31	-0.44771722
113	0x3efe8a15	0.49714723
114	0x3e29cdcf	0.16582416
115	0xbe2963ce	-0.16541979
116	0xbe19de71	-0.15026261
117	0xbe2a1fdb	-0.16613714
118	0x3ed52043	0.41626176
119	0xbeb3119f	-0.3497438
120	0x3daf985a	0.08573981
121	0x3e4e0834	0.20120317
122	0xbd3f774b	-0.046744626
123	0xbe492c9c	-0.19645923
124	0x3cd5fa6d	0.026120389
125	0xbce081a0	-0.02740556
126	0x3ee2599a	0.44208986
127	0x3f347f87	0.7050709
128	0x3f01aeeb	0.5065753
129	0x3e9ef59a	0.31046754
130	0xbc6667e8	-0.014062859
131	0x3c79e24c	0.015251707
132	0x3da0367a	0.078228906
133	0x3ded4f54	0.11587396
134	0x3e99302f	0.29919574
135	0xbe0753be	-0.13215539
136	0xbf06cdee	-0.52657974
137	0x3d7c69bf	0.061624285
138	0x3cda4b18	0.026647136
139	0xbe170731	-0.14748837
140	0xbf04fd00	-0.5194855
141	0xbdbb3181	-0.091403015
142	0x3eb647ec	0.35601747
143	0xbef18f12	-0.47179466
144	0xbd9a49d4	-0.07533613
145	0x3e760966	0.24027023
146	0xbd956c99	-0.07296104
147	0xbe172921	-0.14761783
148	0x3f1f0035	0.6210969
149	0xbe031c0d	-0.1280367
150	0x3e27e613	0.1639636
151	0x3e26da9b	0.16294329
152	0xbeb075ba	-0.34464818
153	0x3ee283b7	0.44241115
154	0x3e90db5a	0.28292352
155	0xbe1d5d63	-0.15367655
156	0x3e60f27f	0.21967505
157	0x3e7b5b6f	0.24546598
158	0xbed2c02d	-0.41162243
159	0xbea077fd	-0.31341544
160	0xbe6fb1bc	-0.23407644
161	0xbf416390	-0.75542545
162	0x3ecd3684	0.40080655
163	0x3e8ea422	0.27859598
164	0xbecc11d3	-0.3985735
165	0x3ecc5d0f	0.39914748
166	0xbe9e4470	-0.3091159
167	0xbe9ee778	-0.31035972
168	0xbe80a441	-0.25125316
169	0x3e78bf08	0.24291623
170	0x3e6281ff	0.22119902
171	0xbd8c5563	-0.06852224
172	0xbefee375	-0.4978291
173	0xbe410b6e	-0.18852016
174	0xbf895530	-1.0729122
175	0xbe440db8	-0.19145858
176	0xbc75aa01	-0.014994145
177	0x3f6ae2ee	0.9175252
178	0xbe8dc3c1	-0.2768841
179	0x3f265bf5	0.64984065
180	0xbe9c2e78	-0.30504203
181	0xbdd1199b	-0.10209962
182	0xbe9fe1eb	-0.3122705
183	0xbcf1f6cb	-0.029536625
184	0xbeaf8651	-0.34282163
185	0x3ea13fae	0.31493896
186	0x3e3f3413	0.18672208
187	0x3e400672	0.18752459
188	0xbd827c2e	-0.06371342
189	0xbe155194	-0.14581901
190	0x3e32f562	0.17476419
191	0x3ccaefb3	0.0247725
192	0xbe86d01e	-0.26330656
193	0xbe7ed2a9	-0.24885048
194	0x3ec7b17f	0.39002606
195	0x3dc109f4	0.094257265
196	0xbe7243e4	-0.2365871
197	0x3d733e94	0.05938585
198	0xbe35aaa9	-0.17740883
199	0xbe375706	-0.1790429
200	0xbd781c25	-0.060573716
201	0xbed04dc4	-0.4068433
202	0x3ce44604	0.027865417
203	0x3ea2563c	0.31706417
204	0xbf6e71b3	-0.9314224
205	0x3e69dd99	0.22838439
206	0xbf113ac9	-0.56730324
207	0x3eb5ccf7	0.35507938
208	0x3c855eb9	0.016280519
209	0x3f025b29	0.5092035
210	0x3e1a9989	0.15097632
211	0xbe1ae2be	-0.15125558
212	0x3e3b2c14	0.18278533
213	0xbe922336	-0.2854249
214	0xbf0b70bc	-0.54468894
215	0xbf493f91	-0.7861262
216	0xbd93a280	-0.07208729
217	0x3ef25fe0	0.47338772
218	0x3ee92cc4	0.45541966
219	0xbcdcbc3a	-0.026945222
220	0x3e12671a	0.14297143
221	0xbeda1452	-0.42593628
222	0xbeac9935	-0.33710638
223	0x3ee12374	0.4397236
224	0xbd0b0e7b	-0.033949357
225	0x3d821eaa	0.06353505
226	0x3e097c1e	0.13426253
227	0xbe7ba5f6	-0.24575028
228	0xbe68c775	-0.22732337
229	0x3dcd277c	0.10017297
230	0x3db41701	0.0879345
231	0xbef777ba	-0.48333532
232	0xbc96f25c	-0.018426113
233	0xbb9b28e1	-0.0047350978
234	0x3d80e32d	0.0629333
235	0x3eb6e8cb	0.35724482
236	0xbe3f2b35	-0.18668826
237	0x3eb318d6	0.34979886
238	0x3ea0cafa	0.3140486
239	0x3e7beab3	0.2460125
240	0xbd24f4e9	-0.040272627
241	0x3de072d6	0.10959403
242	0xbe8fb916	-0.28070897
243	0xbec92d32	-0.39292294
244	0xbf01c4e4	-0.50691056
245	0xbdcc9ae2	-0.09990479
246	0xbe800c93	-0.25009593
247	0xbe608a19	-0.2192768
248	0x3d35aab6	0.044352256
249	0x3e2939cb	0.16525953
250	0xbeaff926	-0.34369773
251	0xbec3d225	-0.38246265
252	0xbd96bd83	-0.07360365
253	0xbcc444b5	-0.023958543
254	0x3e2cf5ae	0.16890594
255	0x3e83b315	0.25722566

bias f4 [20]
0	0xbe853cb7	-0.26022884
1	0x3e10b17a	0.14130202
2	0xbebd0a1c	-0.36921775
3	0xbe07038b	-0.13184945
4	0x3ef7c3f3	0.48391685
5	0xbe53a7b4	-0.20669442
6	0xbc1e24a9	-0.009652295
7	0xbe468dfa	-0.19390097
8	0x3de5ab2c	0.11214289
9	0xbe06843a	-0.13136378
10	0x3b9a739b	0.0047134883
11	0xbf1e8611	-0.6192332
12	0x3b8cfc4c	0.004302537
13	0xbd9f8f61	-0.07791019
14	0x3f1fd7a7	0.62438434
15	0x3e13533f	0.14387225
16	0xbe531163	-0.20612101
17	0xbdc22f37	-0.09481662
18	0xbc9494fa	-0.018137444
19	0xbe5c9311	-0.21540476

weight f4 [20, 20]
0	0x3f6b422c	0.91897845
1	0xbeaf8df6	-0.34287995
2	0xbe94dd25	-0.2907497
3	0x3f9b9425	1.2154585
4	0x3ef6d788	0.48211312
5	0x3f6edb5a	0.93303454
6	0x3faa5980	1.3308563
7	0x3f4462a1	0.76712996
8	0xbf13de30	-0.57760906
9	0x3e6dbb7e	0.23216054
10	0xbfcd7a7f	-1.6053008
11	0x3f2ff1ff	0.6872863
12	0x3f0c2887	0.5474934
13	0xbd9c0bc2	-0.0761943
14	0x3e94d4d2	0.2906862
15	0x3df20156	0.11816661
16	0x3ff90177	1.9453572
17	0xbf1a5440	-0.60284805
18	0xbeeb9cda	-0.46018106
19	0xbfdf7603	-1.7457889
20	0x3f5b06a5	0.85557014
21	0x3f4d85f2	0.8028251
22	0xbeaca88e	-0.33722347
23	0x3d58a16d	0.052888323
24	0x3fb985a5	1.449391
25	0xbe049a57	-0.12949501
26	0xbf42d2c6	-0.76102865
27	0x3e8e7372	0.27822453
28	0xbe617164	-0.22015911
29	0x3f88eafb	1.069671
30	0x3cb94df2	0.022620175
31	0x3e638a9f	0.22220849
32	0x3f07eb89	0.53093773
33	0xbf7a290c	-0.9771888
34	0xbd6ac056	-0.057312332
35	0x3d4f9757	0.05068144
36	0x3f28a231	0.65872484
37	0x3da35ee2	0.07977082
38	0x3b9d96fc	0.0048092585
39	0x3ed5f20c	0.4178623
40	0xbc18adf8	-0.009318821
41	0xbf541d77	-0.8285746
42	0x3f63a016	0.88916147
43	0xbeaf97fb	-0.3429564
44	0xbdb7cf95	-0.0897514
45	0xbcbd5825	-0.02311332
46	0x3e0f177f	0.13973807
47	0x3f2cd556	0.67513025
48	0xbe0f3652	-0.13985565
49	0x3ec4b15b	0.3841656
50	0x3ee65ddf	0.44993493
51	0xbedf8da9	-0.43662766
52	0xbeff55bc	-0.49870098
53	0xbf3ad872	-0.7298652
54	0xbdd3d46d	-0.103432514
55	0xbeba1ed8	-0.36351657
56	0xbf250e39	-0.6447483
57	0xbe8bf1b9	-0.27332857
58	0x3ec93dda	0.39305001
59	0x3f492958	0.7857871
60	0xbe8af52d	-0.2714018
61	0xbd1bdd16	-0.03805264
62	0xbef4a470	-0.47781706
63	0xbd1337b9	-0.035941813
64	0xbf53227d	-0.824745
65	0x3f6a0147	0.914082
66	0x3ff1853e	1.8868787
67	0xbe7d447d	-0.24733157
68	0x3ed47db2	0.41502148
69	0x3f264416	0.6494764
70	0x3f3bc33a	0.7334477
71	0x3f5a637d	0.8530806
72	0x3fa2443e	1.2677076
73	0xbe0fbd41	-0.14037038
74	0x3ec5f7f9	0.3866575
75	0x3e8847e4	0.26617348
76	0xbdb11bbe	-0.086478695
77	0xbf3af9b9	-0.73037297
78	0x3f92bcc6	1.1463859
79	0x3f7f7c04	0.9979861
80	0xbe275b4a	-0.16343418
81	0xbe107d94	-0.14110404
82	0x3f920848	1.1408777
83	0x3f193fb2	0.59862816
84	0xbf8ed2cd	-1.1158081
85	0x3e27ba81	0.1637974
86	0x3b69c31a	0.0035669268
87	0xbf286799	-0.6578308
88	0x3a2d6342	0.0006614217
89	0x3efa2637	0.4885728
90	0xbee97568	-0.45597386
91	0xbec6b763	-0.38811788
92	0xbe93c68a	-0.2886241
93	0x3f408fb7	0.7521929
94	0xbe0a5971	-0.13510682
95	0xbdf1f149	-0.118135996
96	0xbebd4258	-0.3696468
97	0x3d9c2191	0.0762359
98	0x3f3166fc	0.69297767
99	0x3f85c220	1.0449867
100	0x3c8aeeda	0.016959596
101	0xbe36421d	-0.17798658
102	0xbd3db2ea	-0.046313204
103	0x3df47eb2	0.11938228
104	0xbdab29d3	-0.08357587
105	0x407a127c	3.9073782
106	0xbc4c7fbf	-0.012481629
107	0x3e325138	0.17413795
108	0xbe29efb1	-0.16595341
109	0x3e22a938	0.15884864
110	0xbe88dc46	-0.26730555
111	0x3da5b840	0.080917835
112	0xbdd77bad	-0.10521636
113	0xbd178c8a	-0.036999263
114	0xbf0b3936	-0.5438417
115	0xbd2d3f32	-0.042296596
116	0xbc5d5c19	-0.013510727
117	0x3da90fd8	0.08254975
118	0x3db15c17	0.08660143
119	0xbd930145	-0.071779765
120	0xbedbfe52	-0.42967469
121	0xbd962404	-0.07331088
122	0x3f4945a0	0.78621864
123	0x3e8f61a5	0.28004184
124	0xbfe58345	-1.7930685
125	0xbe4e8a96	-0.20170054
126	0xbf47db2b	-0.780688
127	0xbe813cdf	-0.25241753
128	0xbd2ae926	-0.041726254
129	0xbdabe646	-0.083935305
130	0x3e774ed0	0.24151158
131	0x3eaace67	0.33360597
132	0x3ea9af58	0.3314159
133	0xbf235450	-0.63800526
134	0xbecf59e7	-0.40498278
135	0x3e2938fa	0.16525641
136	0xbec31971	-0.38105348
137	0x3e4c1825	0.19931085
138	0x3f383c17	0.7196669
139	0x3fc1ea07	1.5149544
140	0x3dd76840	0.10517931
141	0x3f091eae	0.5356244
142	0x3fa46ca7	1.2845658
143	0xbf26dcb4	-0.65180516
144	0x3f35165f	0.7073726
145	0x3e2bbe73	0.1677187
146	0x3dae819d	0.085208155
147	0xbf79f876	-0.97644746
148	0x3eb22890	0.34796572
149	0x3f1a40e4	0.60255265
150	0xbed06390	-0.4070096
151	0xbe864002	-0.2622071
152	0xbf087b01	-0.5331269
153	0xbf6eba89	-0.9325338
154	0xbf0b615f	-0.5444545
155	0xbf89e1d9	-1.0772048
156	0x3f0fe373	0.56206435
157	0x3f101dd4	0.56295514
158	0xbe4adafb	-0.19810097
159	0x3f47ecbf	0.7809562
160	0x3f467165	0.77516776
161	0x3ec28755	0.37993875
162	0xbf1fa4ca	-0.62360823
163	0x3ecce6e8	0.40019917
164	0x3ee13796	0.4398772
165	0xbf219ba6	-0.63128126
166	0x3e93524e	0.2877373
167	0x3e6344bb	0.22194187
168	0xbe5457fe	-0.20736691
169	0xbfce6550	-1.6124668
170	0xbf36737c	-0.71269965
171	0x3f7d9410	0.9905405
172	0x3d86e185	0.06585983
173	0x3b0906b5	0.0020908539
174	0xbc9ea951	-0.019367846
175	0xbf7d360a	-0.9891058
176	0x3fff2db4	1.9935822
177	0x3e22c813	0.15896635
178	0xbef8c6a3	-0.48589048
179	0xbeb4ac08	-0.352875
180	0x3e069642	0.13143256
181	0xbf044055	-0.5166066
182	0x3f1cef9a	0.613031
183	0x3dae3a01	0.08507157
184	0xbe6432b6	-0.2228497
185	0x3f1847e2	0.59484684
186	0x3e5e444a	0.21705738
187	0xbff16538	-1.8859015
188	0xbec77d77	-0.3896291
189	0xbe3e1318	-0.18561971
190	0xbf480c6f	-0.7814397
191	0x3ea0163f	0.31266972
192	0xbeb4d738	-0.3532045
193	0xbe8a463c	-0.2700671
194	0xbf65dcc7	-0.89790004
195	0x3e6e7b23	0.2328916
196	0xbf883bd5	-1.0643259
197	0x3ec59076	0.38586777
198	0xbb248e66	-0.002510929
199	0x3ee625f9	0.44950846
200	0xbeac24fc	-0.33621967
201	0x3edabe45	0.4272329
202	0xbdc5c117	-0.096559696
203	0x3f4273c9	0.75957924
204	0xbfff9ff1	-1.9970685
205	0x3eee02d7	0.46486542
206	0xbf297412	-0.66192734
207	0xbf0fae42	-0.5612527
208	0x3e85c8ac	0.26129663
209	0xbd5b8720	-0.053595662
210	0x3de1058c	0.10987386
211	0xbd6ed0a3	-0.05830444
212	0x3ef023e6	0.46902388
213	0x3e2f5090	0.17120576
214	0x3f09bf8d	0.5380791
215	0xbd8de5be	-0.069285855
216	0x3fff2f48	1.9936304
217	0x3f096895	0.53675205
218	0xbe8d615d	-0.27613345
219	0x3e74f345	0.23920925
220	0x3f26390a	0.64930785
221	0x3f5283ae	0.8223218
222	0x3fc2df6c	1.5224433
223	0xbe6d2641	-0.23159124
224	0x3dc4fe76	0.09618847
225	0x3ee84ed3	0.45372638
226	0xbf9b6722	-1.2140849
227	0xbfc728a6	-1.555928
228	0xbd98f280	-0.07468128
229	0xbe2a4c74	-0.16630727
230	0xbf922831	-1.1418515
231	0x3f1a1b37	0.60197777
232	0xbe5724ed	-0.2101018
233	0xbe7419e2	-0.23837999
234	0xbf7121ba	-0.9419209
235	0x3f257028	0.6462426
236	0xbf7e4250	-0.99319935
237	0x3fc22c88	1.516984
238	0xbefbfd34	-0.49216616
239	0x3f5db218	0.86599874
240	0x3e8d05a7	0.27543375
241	0xbf490d79	-0.7853618
242	0x3f0ac570	0.54207516
243	0xbe1a1259	-0.15046062
244	0xbe08e3de	-0.13368174
245	0xbd93b230	-0.07211721
246	0xbd9d21ea	-0.07672484
247	0xbf8311d9	-1.0239822
248	0xbd335ca1	-0.04378951
249	0x3f22a835	0.63537914
250	0x3db759b0	0.089526534
251	0xbe75e969	-0.2401482
252	0xbf1f7840	-0.6229286
253	0xbf50447d	-0.81354505
254	0xbe82136c	-0.25405443
255	0xbd25965a	-0.04042659

bias f4 [20]
0	0xbed665d0	-0.41874552
1	0xbda1cdd7	-0.07900589
2	0xbec0421d	-0.3755044
3	0xbec8bd4c	-0.39206922
4	0xbe8296a6	-0.2550556
5	0x3f12d7bc	0.57360435
6	0xbf156043	-0.5835001
7	0xbe3a01aa	-0.18164697
8	0xbf73454a	-0.950276
9	0x3d37bfa3	0.044860493
10	0xbfa5f8bc	-1.2966533
11	0x3eb2e7ba	0.34942418
12	0xbd228aec	-0.039683267
13	0xbf08aa0e	-0.5338448
14	0x3e2f45de	0.17116496
15	0xbf839487	-1.0279702
16	0x3d819036	0.06326334
17	0x3eee54b7	0.46549007
18	0xbf0c8bb6	-0.5490068
19	0xbed42bfe	-0.41439813

weight f4 [20, 20]
0	0xbf5130a5	-0.8171485
1	0xbf25d287	-0.64774364
2	0x3d1f366e	0.038870268
3	0x3fa18eb1	1.2621671
4	0xbe59c459	-0.21266307
5	0x3e1fa3d1	0.15589835
6	0x3f0e7554	0.5564778
7	0x3e5c0dc1	0.21489622
8	0x3f33a1dd	0.7016886
9	0xbd8f3428	-0.0699237
10	0x3e8ad9ec	0.27119386
11	0x3edae851	0.42755368
12	0xbf617d62	-0.88081944
13	0x3ecefa23	0.40425214
14	0x3fa9221e	1.3213537
15	0x3fb27f02	1.394501
16	0xbf9f688b	-1.2453779
17	0xbf5aadfb	-0.85421723
18	0xbe85abd1	-0.26107648
19	0xbf99d974	-1.2019486
20	0xbf6b992e	-0.9203061
21	0xbf9c2f69	-1.2201968
22	0x3f8d1486	1.1021888
23	0xbd07fe13	-0.03320129
24	0xbf1ac2fc	-0.6045377
25	0x3fa4a73d	1.2863537
26	0x3f9bc6e8	1.2170076
27	0xbea85984	-0.32880795
28	0x3f32257e	0.6958846
29	0x3dde4501	0.10853005
30	0x3f35edb9	0.7106586
31	0xbf053451	-0.52032954
32	0xbf92f72c	-1.1481681
33	0xbe62a956	-0.22134909
34	0xbf90f73a	-1.1325448
35	0xbf3cdaac	-0.73771167
36	0x3ea41fba	0.32055455
37	0xbe9c8f12	-0.30577904
38	0xbedf1cb9	-0.435766
39	0x3ec51909	0.38495663
40	0xbfc10977	-1.5081013
41	0xbf85a0e9	-1.0439731
42	0x3f3b012d	0.7304867
43	0xbf8ce0c8	-1.1006098
44	0x3f21ef0b	0.63255376
45	0x3f380439	0.71881443
46	0x3e1fcffe	0.15606686
47	0xbf72a252	-0.9477893
48	0xbfd5a424	-1.6690717
49	0xbf001756	-0.5003561
50	0xbecd9a3e	-0.4015674
51	0x3f08eb67	0.53484195
52	0x3f5f8016	0.8730482
53	0xbf0ed7b6	-0.557979
54	0xbfe7a512	-1.809725
55	0x3ebc6cd9	0.36801794
56	0x3ea9af1c	0.3314141
57	0xbe55728d	-0.20844479
58	0x3e58f5a0	0.21187449
59	0x3f81cfc9	1.0141536
60	0x3e5c6ef3	0.21526699
61	0x3f09e653	0.5386707
62	0xbf05ab5c	-0.522146
63	0xbdb816d1	-0.08988727
64	0x3ed0eb51	0.40804532
65	0x3f2932ce	0.66093147
66	0xc00a46f5	-2.1605809
67	0x3f36a630	0.7134733
68	0xbf0fccc7	-0.5617184
69	0x3f232279	0.63724476
70	0xbf4598e6	-0.7718643
71	0xbe2dcc42	-0.1697245
72	0xbee6ac65	-0.45053402
73	0xbe7b6911	-0.24551798
74	0xbee7a76a	-0.45244914
75	0xbf69a9d5	-0.9127477
76	0x3e208b39	0.15678109
77	0x3f515017	0.8176283
78	0xbe2af62b	-0.16695468
79	0x3ef90cb3	0.486425
80	0x3e358173	0.17725162
81	0xbe2a026f	-0.16602491
82	0x3f45ecce	0.7731446
83	0x3e4f3290	0.20234132
84	0x3f875377	1.0572346
85	0xbf014bf0	-0.50506496
86	0x3f437305	0.7634738
87	0x3d789a55	0.060694057
88	0xbe259124	-0.16168648
89	0xbdd94c52	-0.1061026
90	0xbdd219e9	-0.10258848
91	0x3eb62526	0.35575217
92	0x3fcd1da6	1.6024673
93	0x3efcae73	0.49351844
94	0x4027cfea	2.622065
95	0xbe420231	-0.18946148
96	0x3f7a855c	0.9785974
97	0xbe40eacb	-0.18839566
98	0x3f5ebcd3	0.8700687
99	0x3f2c4257	0.67288727
100	0xbe9cee05	-0.30650344
101	0x3f4c2cc1	0.7975579
102	0x3e4b4d11	0.19853617
103	0x3ee4e847	0.44708464
104	0x3f98abd5	1.1927439
105	0xbf88c57f	-1.0685271
106	0xbf883b1a	-1.0643036
107	0xbd8f772d	-0.07005153
108	0x3e15ea42	0.14640144
109	0xbd96447a	-0.073372796
110	0xbe886f75	-0.26647535
111	0x3eb997e5	0.362487
112	0x3ebb77d1	0.3661485
113	0x3fac5768	1.3464174
114	0x3f70cc16	0.9406141
115	0x3ead141b	0.33804402
116	0xbe311149	-0.1729175
117	0xbf2bee9c	-0.67160964
118	0x3e18de11	0.14928462
119	0xbf64afdd	-0.89330846
120	0xbe03a43b	-0.12855618
121	0xbf9aa1ff	-1.2080687
122	0x3fc5e80d	1.5461441
123	0x3ec85457	0.39126846
124	0xbe8ca859	-0.2747219
125	0x3f4cbacc	0.7997253
126	0x3eafb150	0.34314966
127	0xbf0fadae	-0.5612439
128	0xbeb0bf9d	-0.3452119
129	0x3fa20a4a	1.265939
130	0xbefa5d85	-0.48899475
131	0xbea4c246	-0.3217947
132	0x3e44978c	0.19198436
133	0xbe3da931	-0.18521573
134	0xbfb3e43e	-1.4054029
135	0xbf1b0546	-0.6055492
136	0xbeb373f7	-0.35049412
137	0xbf80ad8f	-1.0052966
138	0x3f07ba70	0.53018856
139	0x3ea5b6b6	0.3236596
140	0xbf4abf31	-0.79197985
141	0x3d2673e8	0.04063788
142	0x3f57c359	0.8428245
143	0x3f95e856	1.1711528
144	0xbd8593ac	-0.06522307
145	0x3fa5f8d4	1.2966561
146	0x3f019f31	0.5063353
147	0x3e610bec	0.21977204
148	0x3dd71fb6	0.10504095
149	0x3e155f0f	0.14587043
150	0xbc25756b	-0.010098795
151	0x3f2ec39d	0.6826723
152	0xbf4b1c90	-0.7934046
153	0x3f4081e3	0.7519819
154	0xbeebd3e6	-0.46060103
155	0x3f525574	0.8216164
156	0xbfac3a8c	-1.3455367
157	0xbfab0af5	-1.3362719
158	0xbf2717fc	-0.6527097
159	0xbde46418	-0.11151904
160	0x3e8d26b8	0.27568603
161	0x3ee1c109	0.44092587
162	0x4013dc15	2.3103077
163	0x3ff8113c	1.938026
164	0x3ea7e4fd	0.32791892
165	0x3e9b2c3d	0.3030719
166	0xbedb1744	-0.42791188
167	0xbf2d8567	-0.6778168
168	0xbe6efe1f	-0.23339127
169	0xbf54db58	-0.8314719
170	0x3f533eda	0.8251778
171	0xbf03c633	-0.51474303
172	0x3ee69074	0.45032084
173	0xbea1941d	-0.31558314
174	0xbe156759	-0.14590205
175	0xbf8666da	-1.0500138
176	0x3f14888d	0.5802086
177	0x3f9fd5b4	1.2487092
178	0xbf8e90eb	-1.1137975
179	0xbeaee06c	-0.34155595
180	0xbd90d690	-0.070721745
181	0x3e3c1329	0.18366684
182	0x3e032ab6	0.12809262
183	0xbf1567b1	-0.58361346
184	0x3eb56824	0.35431015
185	0x3fd247e3	1.6428188
186	0xbe692664	-0.22768551
187	0xbe2a1f57	-0.16613518
188	0xbe9228d7	-0.28546783
189	0x3f8084cb	1.0040525
190	0xbe770281	-0.24122049
191	0xbe310e78	-0.17290676
192	0x3eb4168d	0.35173455
193	0x3fa4d43b	1.2877268
194	0xbfda61f6	-1.7061145
195	0xbdb5d829	-0.0887912
196	0x3f138bd2	0.57635224
197	0x3f84a6a0	1.036335
198	0xbf7fa7a0	-0.9986515
199	0xbed1fce8	-0.41013265
200	0x3e88b294	0.26698744
201	0x3ee90cf9	0.4551771
202	0x3e22cfe6	0.1589962
203	0xbdb0e994	-0.086383015
204	0x3cc72c0e	0.024313
205	0x3f2be97f	0.6715316
206	0x3f527556	0.8221029
207	0xbe9211ff	-0.28529355
208	0xbe52dc7a	-0.20591918
209	0x3e5b7fdf	0.21435498
210	0xbf8685a5	-1.0509535
211	0x3f0c60ef	0.5483541
212	0xbfe73c7f	-1.8065337
213	0xbf64d5cc	-0.8938873
214	0xbea4b5fb	-0.3217009
215	0xbfedd04b	-1.8579191
216	0x3ec0aa3a	0.37629873
217	0x3f490511	0.78523356
218	0x3faf672f	1.3703364
219	0x3c284ff1	0.010272966
220	0x3f0c260b	0.5474555
221	0x3f71cba5	0.9445136
222	0x3fd9da43	1.7019733
223	0xbf1cfa24	-0.61319184
224	0x3f271098	0.65259695
225	0xbe432024	-0.1905523
226	0xbf7e9736	-0.9944948
227	0x3ccd6001	0.025070192
228	0x3d06e87c	0.032936558
229	0x3fdedc05	1.7410895
230	0xbd5f7f4c	-0.05456476
231	0x3f499e44	0.7875712
232	0xbf0a39b7	-0.53994316
233	0xbf980e9e	-1.1879461
234	0x3ca1021c	0.019654326
235	0x3f8b8763	1.0900692
236	0xbf7f7ee5	-0.99803
237	0x3dabf177	0.08395665
238	0xbf283705	-0.65708953
239	0xbe3ecd6e	-0.18633053
240	0xbd882e6c	-0.06649479
241	0xbf58b4fb	-0.84651154
242	0x3da5dc11	0.08098615
243	0x3f9b5fed	1.2138649
244	0x3e4ff35f	0.20307682
245	0xbeafc597	-0.34330437
246	0xbf69e8ac	-0.91370654
247	0xbf232f2a	-0.6374384
248	0x3f210b57	0.6290793
249	0xbdd498d5	-0.10380713
250	0x3f311710	0.69175816
251	0xbf70f3dc	-0.941221
252	0x400fc235	2.2462285
253	0x3e246d0e	0.16057226
254	0x4012f686	2.2962966
255	0xbe672817	-0.22573887

bias f4 [20]
0	0x3e90ecb3	0.28305587
1	0x3d5e450f	0.05426508
2	0xbdc55ab1	-0.09636439
3	0xbe7da23c	-0.24768919
4	0x3f034e0a	0.51290953
5	0x3f309b46	0.6898693
6	0xbdc92ca1	-0.098229654
7	0xbe1443c2	-0.14478973
8	0x3f5bec3d	0.85907346
9	0x3f02c4d1	0.5108157
10	0xbecd38db	-0.4008244
11	0x3f527ac2	0.82218564
12	0x3e40e303	0.18836598
13	0x3c23108d	0.0099526765
14	0x3f7a994f	0.9789018
15	0xbd859c6b	-0.06523975
16	0xbeeaa01c	-0.4582528
17	0x3fab23cd	1.33703
18	0xbe2ffd18	-0.17186391
19	0xbf2e0a8b	-0.6798484

weight f4 [20, 20]
0	0xbcb7d836	-0.022441965
1	0x3e2db7e2	0.16964677
2	0xbe67142f	-0.22566293
3	0xbf418bf2	-0.75604165
4	0x3d201ff6	0.03909298
5	0x3ed5e62b	0.41777167
6	0x3f8b4c2a	1.0882618
7	0x3ebfb9fe	0.37446588
8	0x3a0b4b1d	0.0005313622
9	0x3dbe1a62	0.09282376
10	0x3fa58910	1.2932453
11	0x3ef26615	0.47343507
12	0x3f8a8ea5	1.0824782
13	0x3f9edbcb	1.2410825
14	0xbe677203	-0.22602086
15	0xbe86dc79	-0.26340082
16	0x3f0682b8	0.5254321
17	0xbe877db0	-0.2646308
18	0x3f26f69b	0.6522004
19	0x3f4bfe47	0.7968487
20	0xbec86727	-0.391412
21	0xbf1af652	-0.60532105
22	0x3fcfc447	1.6231774
23	0x3e7611af	0.24030183
24	0x3e88efcd	0.26745453
25	0x3d8be5e5	0.06830958
26	0xbf0ae439	-0.5425449
27	0xbf4e0c94	-0.8048794
28	0xbee85856	-0.45379895
29	0x3ec27b6a	0.37984782
30	0x3dc42d5f	0.09578966
31	0xbf6df5b3	-0.9295303
32	0xbfd17abe	-1.6365583
33	0xbe2dcd0b	-0.16972749
34	0xbfabf206	-1.3433235
35	0x3ec2eb8a	0.38070327
36	0xbf164877	-0.5870432
37	0xbf17993e	-0.59218204
38	0x3cdd0a13	0.026982343
39	0xbf5f6ca8	-0.8727517
40	0xbe715e05	-0.23571022
41	0xbebad3cc	-0.36489713
42	0x3f66b3a8	0.90117884
43	0xbde868e8	-0.11348134
44	0x3eefa5a9	0.46806076
45	0x3e2056ed	0.1565816
46	0xbda495ce	-0.080363855
47	0xbf10b20d	-0.56521684
48	0xbef60dfc	-0.48057544
49	0x3e42617f	0.18982504
50	0xbf6df4f3	-0.9295189
51	0x3f79f655	0.976415
52	0x3f07e0ce	0.530774
53	0xbf7bd1d6	-0.9836706
54	0x3ec27343	0.37978563
55	0x3e4d5604	0.20052344
56	0xbe82497f	-0.25446698
57	0xbe341757	-0.17587028
58	0x3de3f8cb	0.11131438
59	0x3ee58fe6	0.44836348
60	0x3f17b234	0.5925629
61	0xbf035456	-0.5130056
62	0xbf43c477	-0.76471657
63	0xbeed21eb	-0.4631494
64	0x3da3be35	0.079952635
65	0xbfed184a	-1.8523037
66	0x3ebb7474	0.36612284
67	0x3f3c93e6	0.73663175
68	0x3e404d51	0.18779494
69	0xbeaeb445	-0.3412191
70	0x3f27c7a8	0.65539026
71	0xbe760ab6	-0.24027523
72	0x3ee01d65	0.43772426
73	0x3f024aa4	0.5089514
74	0xbe76359b	-0.24043886
75	0xbf22ba01	-0.6356507
76	0x3f5dcf31	0.86644274
77	0xbea61c0f	-0.32443282
78	0xbdfd946c	-0.12381825
79	0x3f908252	1.1289771
80	0x3d38bf35	0.045104224
81	0xbbb1b007	-0.0054225954
82	0x3ec6b8f3	0.3881298
83	0xbdf8c7a6	-0.12147455
84	0x3ea1c5bd	0.31596175
85	0x3f4a2c27	0.7897362
86	0x3ed95bfb	0.42452988
87	0xbe5e8212	-0.21729305
88	0xbed1934e	-0.40932697
89	0x3f48f8ee	0.78504837
90	0x3e8fe21f	0.28102204
91	0xbd8dac93	-0.069176815
92	0x3ef7aa08	0.4837191
93	0x3c698dbe	0.014254985
94	0xc01e52de	-2.4738078
95	0xbdf27336	-0.11838381
96	0xbef51218	-0.47865367
97	0x3f100c84	0.562691
98	0x3f08642b	0.53277844
99	0x3ef71227	0.48256037
100	0xbd37ede0	-0.04490459
101	0x3d6b34bb	0.057423335
102	0xbe35e432	-0.17762831
103	0xbc632a2e	-0.013865037
104	0x3e85ba6b	0.26118788
105	0x405a7bdd	3.41381
106	0x3e032e64	0.12810665
107	0x3f2995cb	0.6624419
108	0x3e4c0eba	0.19927493
109	0xbee5d871	-0.44891694
110	0xbe09933c	-0.13435072
111	0x3ea8d311	0.3297353
112	0x3ebca5be	0.368452
113	0x3d1981be	0.037477247
114	0x3e01d685	0.12679489
115	0x3e4ef8b6	0.20212063
116	0xbec05200	-0.3756256
117	0x3d8ac1fe	0.06775282
118	0xbb8dac7e	-0.004323541
119	0x3e6d63b3	0.23182563
120	0xbe139a42	-0.14414313
121	0xbedc3b55	-0.43014017
122	0xbe8c3507	-0.27384207
123	0xbebd91fa	-0.37025434
124	0x3f63dd53	0.8900959
125	0xbdfdf4a5	-0.12400178
126	0x3f69c5e9	0.9131761
127	0x3ecfe85c	0.40606964
128	0xbb5f747a	-0.0034096525
129	0xbde82117	-0.113344364
130	0xbda70a1f	-0.08156227
131	0x3d8d1aec	0.068899006
132	0x3fae79f8	1.3630972
133	0x3d83eef7	0.06442063
134	0x3f1beab0	0.6090498
135	0x3f4c8d1d	0.7990282
136	0x3e74778b	0.23873727
137	0x3f686939	0.9078556
138	0x3ec43273	0.3831974
139	0x3f161612	0.58627427
140	0xbf0c3696	-0.5477079
141	0x3dd626ff	0.10456657
142	0xbd33b6cf	-0.04387551
143	0xbe5a166b	-0.21297614
144	0xbdec7ca4	-0.11547211
145	0x3ea381ad	0.31934872
146	0xbe22753e	-0.15865037
147	0xbe916382	-0.2839623
148	0x3e606643	0.2191401
149	0xbe62edb4	-0.22160989
150	0xbf041a8e	-0.5160302
151	0xbe126159	-0.14294948
152	0xbe560138	-0.20898902
153	0xbfd58267	-1.6680421
154	0xbd284921	-0.041085366
155	0xbe83a3c8	-0.25710893
156	0xbea6ae65	-0.32554927
157	0xbf128163	-0.5722868
158	0x3f4faff6	0.8112787
159	0x3ea56dc6	0.32310313
160	0xbf9dc429	-1.2325488
161	0xbf6af184	-0.91774774
162	0x3ec44667	0.38334963
163	0x3c227472	0.009915458
164	0xbf5ed0fb	-0.8703763
165	0xbeb07db0	-0.34470892
166	0x3ec30155	0.38086954
167	0xbf1d1565	-0.6136077
168	0xbf140576	-0.5782083
169	0x3f87901c	1.0590854
170	0x3fe7c70b	1.8107618
171	0xbf03ac75	-0.51435024
172	0x3f9733bf	1.1812667
173	0x3faa54c9	1.3307124
174	0xbebe7f8d	-0.3720669
175	0xbf4786bd	-0.7793997
176	0xbfdf856b	-1.7462591
177	0xbee45957	-0.4459941
178	0x3dc76a88	0.09737116
179	0x3f4fb950	0.8114214
180	0xbd98eac6	-0.074666545
181	0x3ec68064	0.3876983
182	0x3dbc5dc9	0.091975756
183	0x3eabe524	0.33573258
184	0x3e92518a	0.28577834
185	0xbea9a7d3	-0.33135852
186	0xbe6f0f23	-0.23345618
187	0x3de13aeb	0.10997566
188	0xbd7364a7	-0.05942216
189	0xbdbf86a3	-0.09351852
190	0xbeba369e	-0.36369795
191	0x3f8ac67a	1.084182
192	0x3c9bc039	0.019012557
193	0xbb051ec8	-0.0020312537
194	0xbf9e8960	-1.2385674
195	0xbe0cefb5	-0.13763316
196	0xbdbe70d0	-0.09298861
197	0xbe4cf24c	-0.20014304
198	0xbf05d03f	-0.52270883
199	0x3cb1fb25	0.0217262
200	0x3f6b21c7	0.91848415
201	0xbef05888	-0.46942544
202	0xbeb19411	-0.34683278
203	0xbeb3a064	-0.35083306
204	0x3f40df78	0.75340986
205	0xbfae5fa3	-1.3622936
206	0x3d01e6cd	0.03171425
207	0x3f25ed2a	0.6481501
208	0x3d126af3	0.035746526
209	0x3e88c431	0.26712182
210	0x3ee9faf1	0.45699266
211	0x3e7e2da1	0.24822094
212	0xbe2752c8	-0.16340172
213	0xbf0d64b2	-0.55231774
214	0x3fa83ef0	1.3144207
215	0x3f2c7235	0.67361766
216	0x3e623866	0.22091827
217	0xbf9abf5a	-1.2089646
218	0x3f23e698	0.64023733
219	0x3d8505fc	0.06495282
220	0xbf77ba1c	-0.96768355
221	0xbd7cf2f1	-0.061755124
222	0xbf0d9e24	-0.5531943
223	0xbef734fa	-0.48282605
224	0xbe038cdc	-0.12846702
225	0x3e17b013	0.1481326
226	0x3e83b15e	0.25721258
227	0x3f64c816	0.89367807
228	0xbf0262a1	-0.50931746
229	0xbeda7ab8	-0.42671752
230	0x3efb5176	0.49085587
231	0x3fe4ff96	1.7890499
232	0x3f120156	0.5703329
233	0x3fcac010	1.5839863
234	0xbe547dd1	-0.2075112
235	0xbe929536	-0.28629464
236	0xbe6ba72f	-0.23012994
237	0xbd459e76	-0.048246823
238	0xbe3a1ee2	-0.18175843
239	0x3ebef1e5	0.37293926
240	0x3e87ed5e	0.26548284
241	0x3f0694cc	0.52570796
242	0x3f43f906	0.76551855
243	0xbe8682ba	-0.2627161
244	0xbe22739f	-0.15864418
245	0x3d027dba	0.031858183
246	0xbe68ec31	-0.2274635
247	0xbd60bfab	-0.05487029
248	0x3f8d6abd	1.1048199
249	0xbe3c1895	-0.18368752
250	0xbebd2288	-0.36940408
251	0xbe4653c6	-0.19367895
252	0xbf7db53f	-0.99104685
253	0xbe75bd0f	-0.23997901
254	0xc0060196	-2.0938468
255	0x3c9e9cb6	0.019361835

bias f4 [20]
0	0xbe1f1801	-0.155365
1	0x3f138582	0.5762559
2	0xbe80b681	-0.2513924
3	0xbedeedf4	-0.4354092
4	0x3f23c0f9	0.6396633
5	0xbec7aa3e	-0.38997072
6	0xbd6c42ae	-0.05768078
7	0xbe31264a	-0.17299762
8	0xbe6c825e	-0.23096606
9	0xbe8e3b5b	-0.2777966
10	0xbf08cfe3	-0.5344221
11	0xbee3ef60	-0.44518566
12	0xbf44e254	-0.7690785
13	0x3e050c09	0.12992872
14	0x3ea1daeb	0.31612334
15	0x3dda240e	0.10651408
16	0xbf0d66fd	-0.5523527
17	0xbde16db0	-0.11007249
18	0xbebc2598	-0.36747432
19	0xbf6e1f5d	-0.93016607
