programming_homework/03/code/part_1/encoder.pt (torch, 18390 bytes, 13 tensors)

weight f4 [29, 20]
1.5260905 0.4145171 -1.4169238 0.854905 1.4608709 -0.7915733 -0.18698396 0.12570813
-1.0614185 -0.24250841 -0.20026259 2.2974875 -0.6879638 -0.25202432 -0.15431207 0.5227427
2.6427386 1.2574197 0.100286946 0.25526002 0.47484204 2.615015 -0.15878627 1.4910005
-1.4629985 -0.36259466 0.5470336 0.15514776 1.2258658 0.001325911 -0.2849171 0.22792415
0.37705013 0.23787878 0.86336386 -0.5493615 0.38618195 0.8768366 0.532787 1.4520009
0.48176733 0.5308217 0.14871849 0.42287305 -0.9907018 -0.08676901 0.2141895 1.4625866
0.43398008 1.8538496 0.51859957 0.3493135 -1.0035164 -1.5195848 1.7905455 2.0194879
-1.0670424 0.9811351 -0.41315252 -1.2220799 1.239672 -0.46552688 0.22224037 1.490579
0.11207305 0.83590853 -0.031759877 0.57086456 1.3435296 -0.0076385275 -0.5248514 0.32873473
0.4125666 0.40230754 -1.794459 0.698061 -1.0636088 -0.14414833 0.35726446 1.4011232
-1.1083069 0.1706691 -0.50903493 1.7559239 1.0490857 0.30034858 -0.21432842 1.5127426
-0.9559514 -0.40633434 -0.016605085 0.22201902 0.65326416 -0.29478857 -0.3193486 -1.3725803
-0.70842767 -0.43020043 -0.1690002 -0.27766597 -0.07385392 0.24554406 0.49060914 0.09161141
-1.2601386 0.19203351 0.7042017 0.46218118 -0.8802772 -1.093426 -0.5849516 0.13094825
-0.027588047 -0.28679994 0.19374374 -0.06806926 1.1226603 -1.0902542 -1.2041411 -0.30489737
-0.3962258 -0.21883605 -0.20679197 0.038835816 -0.038668077 -0.6149118 -0.45751664 0.86192584
2.0619366 -0.16236305 0.8359749 -1.3230674 -0.8336433 1.308895 0.14632782 -1.2877982
0.46766686 0.41960472 1.0935587 -1.2472457 1.0770718 0.0069958335 -0.6175013 0.2937863
0.091896586 -0.4075993 1.9671129 1.5758076 0.3327896 0.49171078 -1.1232375 -1.4269655
-0.065192446 -0.37352753 -1.2102927 1.9966085 -0.6664716 0.5644812 -1.4752992 0.8062494
-0.31528637 0.6972817 -0.54274625 0.36192468 0.5568645 0.5918231 0.9780865 1.3959563
-0.2004694 1.5932211 -1.268019 -0.3814778 0.73377526 1.1365052 0.5532828 1.3032504
-0.24986231 -1.4362785 0.8038328 0.4777842 -0.7100515 0.31119522 -0.41386905 -0.35213265
-0.21756034 -1.291459 0.44475135 -1.8295615 0.61053723 -2.0926783 0.33058754 0.51284844
-0.42023817 0.86764294 0.4921832 0.18920775 -1.0865426 0.19754559 0.08662281 -0.76432323
0.65526664 -0.05116066 0.12777823 -0.8066669 0.45059383 0.62398964 0.38440862 1.4767313
2.6323776 -1.3079346 1.5694205 -0.40283185 -1.2165903 1.5245042 -0.40659094 0.4439415
0.027769268 -0.03193644 -0.8334694 1.3140808 -0.26412556 -1.7943851 0.6033548 0.14206037
-0.060055196 1.0846664 0.36733392 1.3051852 1.0501842 -1.3132615 1.1605784 0.966234
-1.1514126 0.37147197 3.0331867 0.4276677 -0.03229653 -0.5904893 -0.5366914 0.9449432
0.39633113 -0.039518405 0.39584297 -1.3952112 0.11539337 0.17905441 0.46856466 0.865183
0.07188665 -1.0430799 0.92399544 -0.152057 0.7579101 1.3133376 1.7656461 0.36573872
00000000: ef56 c33f 963b d43e c25d b5bf 0edb 5a3f
00000010: d1fd ba3f 8ca4 4abf b978 3fbe a2b9 003e
00000020: 90dc 87bf 2054 78be a311 4dbe 090a 1340
00000030: 651e 30bf 5509 81be fc03 1ebe 77d2 053f
00000040: a122 2940 21f3 a03f 3e63 cd3d 71b1 823e
00000050: 7f1e f33e 685c 2740 de98 22be 1bd9 be3f
00000060: 8943 bbbf 02a6 b9be 650a 0c3f 0edf 1e3e
00000070: 2ce9 9c3f 31ca ad3a a7e0 91be f364 693e
00000080: b70c c13e 7f96 733e 6a05 5d3f f5a2 0cbf
00000090: a4b9 c53e 5d78 603f bb64 083f 2adb b93f
000000a0: 35aa f63e eee3 073f a949 183e d182 d83e
000000b0: a29e 7dbf f3b3 b1bd 7e54 5b3e 0a36 bb3f
000000c0: a332 de3e f24a ed3f f1c2 043f 38d9 b23e
000000d0: 3a73 80bf c181 c2bf 9830 e53f 4a3f 0140
000000e0: d894 88bf ab2b 7b3f ba88 d3be 1d6d 9cbf
000000f0: 92ad 9e3f 8a59 eebe fb92 633e 4bcb be3f
00000100: 8e86 e53d 1afe 553f a516 02bd 2e24 123f
00000110: c7f8 ab3f 9d4c fabb a95c 06bf eb4f a83e
00000120: ee3b d33e 41fb cd3e d5b0 e5bf 20b4 323f
00000130: 5524 88bf 9f9b 13be 5eeb b63e 0158 b33f
00000140: 00dd 8dbf e1c3 2e3e 1d50 02bf 1dc2 e03f
00000150: 7148 863f 4ac7 993e e978 5bbe 8da1 c13f
00000160: 3bb9 74bf 0e0b d0be 6307 88bc f458 633e
00000170: 523c 273f 87ee 96be a981 a3be b6b0 afbf
00000180: 845b 35bf 3b43 dcbe 630e 2dbe 3c2a 8ebe
00000190: b940 97bd e76f 7b3e 1f31 fb3e c39e bb3d
000001a0: 394c a1bf 6fa4 443e 9046 343f 03a3 ec3e
000001b0: d959 61bf 62f5 8bbf 63bf 15bf 4c17 063e
000001c0: 5400 e2bc 71d7 92be c264 463e e567 8bbd
000001d0: 55b3 8f3f 738d 8bbf 4c21 9abf 821b 9cbe
000001e0: 1cde cabe 8f16 60be 46c1 53be 4e12 1f3d
000001f0: 6b62 1ebd dc6a 1dbf 9f3f eabe 2ca7 5c3f
00000200: c5f6 0340 8042 26be 7302 563f 465a a9bf
00000210: a669 55bf df89 a73f f6d6 153e 92d6 a4bf
00000220: 0872 ef3e 6ed6 d63e bbf9 8b3f bfa5 9fbf
00000230: 7ddd 893f 4e3d e53b 9114 1ebf 286b 963e
00000240: 4734 bc3d dbb0 d0be 5bca fb3f 10b4 c93f
00000250: 6663 aa3e 84c1 fb3e 3fc6 8fbf cea6 b6bf
00000260: 9e83 85bd 003f bfbe dfea 9abf de90 ff3f
00000270: e29d 2abf d781 103f 9bd6 bcbf 5c66 4e3f
00000280: 376d a1be 0e81 323f 6bf1 0abf 314e b93e
00000290: ac8e 0e3f b881 173f e063 7a3f b2ae b23f
000002a0: da47 4dbe abee cb3f 724e a2bf 0f51 c3be
000002b0: b2d8 3b3f 0179 913f f1a3 0d3f e9d0 a63f
000002c0: e8db 7fbe f9d7 b7bf fdc7 4d3f 21a0 f43e
000002d0: efc5 35bf fb54 9f3e a5e6 d3be bb4a b4be
000002e0: 23c8 5ebe 874e a5bf 73b6 e33e 122f eabf
000002f0: 2b4c 1c3f 71ee 05c0 c542 a93e 094a 033f
00000300: 7529 d7be d91d 5e3f 70ff fb3e adbf 413e
00000310: d413 8bbf 6449 4a3e 4d67 b13d b0aa 43bf
00000320: 8ebf 273f d78d 51bd 4cd8 023e b981 4ebf
00000330: 3cb4 e63e c9bd 1f3f 35d1 c43e 8805 bd3f
00000340: e078 2840 676a a7bf c5e2 c83f fa3f cebe
00000350: 3bb9 9bbf f422 c33f b02c d0be 4d4c e33e
00000360: 607c e33c c9cf 02bd 405e 55bf cd33 a83f
00000370: 773b 87be 69ae e5bf 7675 1a3f 4678 113e
00000380: 70fc 75bd 59d6 8a3f 3113 bc3e 4f10 a73f
00000390: 706c 863f f418 a8bf d58d 943f 1d5b 773f
000003a0: 7d61 93bf 9331 be3e bb1f 4240 43f7 da3e
000003b0: 5e49 04bd 4f2a 17bf 9c64 09bf cce7 713f
000003c0: eaeb ca3e 0dde 21bd eeab ca3e 4896 b2bf
000003d0: 5c53 ec3d 0a5a 373e b5e7 ef3e a27c 5d3f
000003e0: 4f39 933d a483 85bf f78a 6c3f d5b4 1bbe
000003f0: 6506 423f 721b a83f b100 e23f 1b42 bb3e

weight f4 [20, 20]
0.089714415 -0.33030114 -0.26394254 0.07397209 0.6758329 -0.5237831 -0.33807683 0.2728425
-0.5426301 -0.70492184 0.40773842 1.1180834 -0.53850734 0.82467514 0.4340446 0.4192251
-0.3369431 0.13071793 0.44914705 -0.7756693 0.49636257 0.6271972 0.15090238 -0.01716997
0.43656626 0.38817638 0.2041013 0.873069 0.8304334 -0.71790665 -0.27870506 0.4598122
0.5431462 0.47919634 1.2047212 -0.27091864 0.48034185 0.045796387 0.29906106 -0.35747573
0.36553496 -0.4985413 -0.028780906 -0.11767727 0.19213764 0.043503173 -0.026613746 1.314689
0.39038125 0.43172413 0.47506586 -0.05336734 0.3633609 0.36090118 -0.07830891 0.71721756
0.53054774 -0.36603436 0.4373014 -0.43259943 0.4842463 0.024707561 -0.6852206 -0.35933864
1.2402003 -1.0220928 -0.068360664 -1.4863918 0.6603907 -0.15239698 0.5272744 0.009415519
0.17239517 -0.0662749 -0.42515734 -0.034599807 0.19568183 1.0593333 0.80053765 -0.58444226
0.07021148 -0.13456853 -0.17822297 0.8008798 0.044794668 -0.95365494 -0.8994923 0.39139876
0.25922793 0.31934527 -0.47200772 -0.51575506 0.11591841 -0.31371686 -0.2799393 1.0722165
0.25553852 0.8048165 -0.07817835 0.40756413 0.08864881 0.5299017 0.18517159 -0.036131404
-0.050284814 0.34845558 0.6585775 -0.81748086 -0.6728205 -0.22842816 0.38135424 -0.6566064
0.23359944 0.79426444 0.28209388 0.5178827 -0.43948215 -0.19994 -0.06879943 0.9827645
1.1244713 -0.04175529 0.30977082 0.24441053 0.6176423 -0.019346796 -0.48648694 0.046035178
0.20056435 -0.26467735 -0.307451 -0.20384575 0.14006622 -0.59624076 0.32564378 -0.49672946
0.20700452 0.5513245 -0.054005396 -0.83666414 -0.033574935 0.036958765 1.26108 -0.4251543
0.17833553 -0.1441796 0.28448537 -0.32778928 0.5502329 -0.25247836 0.44292635 0.29141703
0.8911116 0.68806154 0.80253166 0.26446438 -0.088317275 0.110833324 -0.7804618 -0.75979835
-0.73606485 0.019460315 0.2093944 -0.2636229 -0.10843398 0.51195425 0.0506473 1.2536643
0.06261177 0.0068835015 -0.8771175 0.105203085 0.22665282 -0.39964524 0.13001478 -0.035786133
0.68223774 -0.011039933 0.50674975 -0.15673612 0.37536594 0.2361098 0.21173583 0.31460425
-0.0008852564 -0.25286347 -0.030750439 0.9700406 -0.025475103 -0.1651374 0.15559134 -0.4120876
-0.6620006 0.61844695 0.494289 -1.1204507 -0.5629935 -0.7796108 0.2738732 -0.6756205
-0.18928935 0.7376858 0.707268 -0.63774085 0.45008963 -1.2034613 0.0012249342 -0.82229346
0.77129304 -0.1367885 -0.5291733 -0.622379 0.08992496 -0.22199227 -0.9969531 -0.42765617
0.38007724 1.1407961 1.0400875 -0.021730687 0.07423232 -0.280514 -0.30705652 -0.57435
-0.18001767 -0.23137255 0.9319953 0.20636605 -0.09422831 -0.5524674 1.0244747 -0.9793548
0.4613955 0.021268401 0.6507565 0.055543147 0.9385123 -0.014109952 -0.40957448 -0.30367723
-0.20603946 -0.2988351 -0.053395048 0.24192417 0.17274818 0.075327456 -0.33934313 -0.35521844
0.107005864 -1.5050302 0.13607955 0.7467581 0.090698555 -0.5121837 -0.3829598 -0.15371795
00000000: 31bc b73d 3b1d a9be 7a23 87be ae7e 973d
00000010: 6303 2d3f a616 06bf 6818 adbe 03b2 8b3e
00000020: cee9 0abf c275 34bf 17c3 d03e 5b1d 8f3f
00000030: 9edb 09bf e91d 533f 183b de3e aca4 d63e
00000040: ce83 acbe ecda 053e 9af6 e53e 4392 46bf
00000050: 3c23 fe3e ff8f 203f 2786 1a3e 09a8 8cbc
00000060: 9d85 df3e 0ebf c63e eeff 503e 7381 5f3f
00000070: 4997 543f bbc8 37bf 6eb2 8ebe 816c eb3e
00000080: a10b 0b3f 3959 f53e 4e34 9a3f d9b5 8abe
00000090: 5eef f53e fe94 3b3d 881e 993e 0f07 b7be
000000a0: 6627 bb3e ce40 ffbe efc5 ebbc c800 f1bd
000000b0: bbbf 443e 6230 323d 1205 dabc bb47 a83f
000000c0: 0de0 c73e f20a dd3e d53b f33e b697 5abd
000000d0: 710a ba3e 0ac8 b83e 6c60 a0bd 929b 373f
000000e0: fad1 073f db68 bbbe f8e5 df3e ac7d ddbe
000000f0: 22ef f73e 8367 ca3c 9e6a 2fbf 3cfb b7be
00000100: e2be 9e3f f0d3 82bf ad00 8cbd 1642 bebf
00000110: 5d0f 293f f40d 1cbe 75fb 063f 8d43 1a3c
00000120: 5c88 303e 23bb 87bd 39ae d9be 87b8 0dbd
00000130: d160 483e 3c98 873f 09f0 4c3f 029e 15bf
00000140: 09cb 8f3d 55cc 09be 1580 36be 7506 4d3f
00000150: 9d7a 373d bb22 74bf 2145 66bf 6b65 c83e
00000160: 86b9 843e 3981 a33e ffaa f1be 8608 04bf
00000170: a266 ed3d 7f9f a0be 3454 8fbe 643e 893f
00000180: f2d5 823e 7408 4e3f f91b a0bd 3fac d03e
00000190: 828d b53d a3a7 073f 9f9d 3d3e 86fe 13bd
000001a0: 73f7 4dbd c568 b23e 8998 283f 6d46 51bf
000001b0: f73d 2cbf 12e9 69be dd40 c33e 5b17 28bf
000001c0: b134 6f3e ea54 4b3f 9c6e 903e f693 043f
000001d0: ce03 e1be 12bd 4cbe b7e6 8cbd 7496 7b3f
000001e0: adee 8f3f 9807 2bbd 489a 9e3e c146 7a3e
000001f0: ce1d 1e3f 2c7d 9ebc d114 f9be 628f 3c3d
00000200: be60 4d3e ca83 87be 386a 9dbe f1bc 50be
00000210: 856d 0f3e 3ca3 18bf c8ba a63e 5353 febe
00000220: fef8 533e 9a23 0d3f c334 5dbd 9f2f 56bf
00000230: df85 09bd 1362 173d 126b a13f d3ad d9be
00000240: 979d 363e d1a3 13be 11a8 913e ffd3 a7be
00000250: 10dc 0c3f d844 81be 3ec7 e23e 9d34 953e
00000260: e41f 643f cd24 303f b772 4d3f e067 873e
00000270: b0df b4bd 95fc e23d 58cc 47bf 2582 42bf
00000280: bf6e 3cbf 3d6b 9f3c 7c6b 563e 95f9 86be
00000290: a212 debd 6f0f 033f 8b73 4f3d 1278 a03f
000002a0: 9a3a 803d ff8e e13b c68a 60bf b774 d73d
000002b0: ad17 683e 4d9e ccbe 9822 053e 7b94 12bd
000002c0: 22a7 2e3f d6e0 34bc 5aba 013f 6f7f 20be
000002d0: f72f c03e c4c6 713e 47d1 583e cf13 a13e
000002e0: 8d10 68ba 5277 81be 58e8 fbbc 9554 783f
000002f0: 2ab1 d0bc c719 29be 5653 1f3e 25fd d2be
00000300: df78 29bf 8a52 1e3f 7313 fd3e ee6a 8fbf
00000310: 5820 10bf 9394 47bf 1c39 8c3e 77f5 2cbf
00000320: 11d5 41be fad8 3c3f 840f 353f fc42 23bf
00000330: 2672 e63e 050b 9abf f98d a03a d381 52bf
00000340: 7673 453f 4912 0cbe e777 07bf 3b54 1fbf
00000350: 942a b83d f151 63be 5238 7fbf c0f5 dabe
00000360: 7c99 c23e 9b05 923f 9621 853f 8e04 b2bc
00000370: 1d07 983d 889f 8fbe 8336 9dbe 9a08 13bf
00000380: 8d56 38be edec 6cbe 3e97 6e3f 9f51 533e
00000390: c6fa c0bd 816e 0dbf fd21 833f ffb6 7abf
000003a0: 083c ec3e 123b ae3c fa97 263f 3681 633d
000003b0: 5842 703f 6e2d 67bc bfb3 d1be 957b 9bbe
000003c0: 02fc 52be ea00 99be c4b4 5abd f8ba 773e
000003d0: e6e4 303e 4845 9a3d 62be adbe 31df b5be
000003e0: e425 db3d d4a4 c0bf 7058 0b3e 8a2b 3f3f
000003f0: 2ac0 b93d 791e 03bf 4f13 c4be 3d68 1dbe

bias f4 [20]
0.21501188 0.6585047 -0.15871708 -0.26275134 0.11635235 0.0011016341 0.33210486 0.26045072
0.17133126 0.656571 -0.22242312 0.04677878 -0.0888041 0.7867152 0.13532743 -0.23604622
0.25988534 0.021107871 0.40655294 0.85703135
00000000: 132c 5c3e c493 283f bb86 22be 5887 86be
00000010: 244a ee3d b564 903a a609 aa3e cc59 853e
00000020: 7671 2f3e 0915 283f e3c2 63be 1b9b 3f3d
00000030: edde b5bd 2b66 493f 4693 0a3e 1ab6 71be
00000040: b10f 853e 6aea ac3c b527 d03e 6866 5b3f

weight f4 [20, 20]
-0.4773483 -0.5445644 0.108746536 0.18174936 0.7780889 0.28679198 -0.47274706 -0.13708411
0.30342072 0.6572897 -0.2746491 -0.6143099 0.71971774 -0.5671752 -0.25159416 -0.9641192
0.03739611 0.28328764 0.42636806 0.8916851 -1.0483131 -0.23806934 0.26743487 0.15249905
0.07965019 -0.1225659 -0.41696426 0.5091888 0.0632371 0.46524224 0.16720712 -0.4864242
-0.18721634 -0.3931158 -0.19910902 0.22474267 0.00038218684 0.24218892 -0.19307442 -0.81284356
-0.4143436 0.21446294 0.32243422 0.76732 -0.5917719 0.18751681 -0.026341915 0.3638687
0.22849628 0.16868554 -0.033231426 -0.33285016 -0.33027303 0.42022842 -0.09091194 0.07995456
-0.3696069 -0.6864984 -0.24183054 -0.065923594 -0.22043113 -0.3211072 0.11310147 -0.065795034
-0.606416 -0.29165193 -0.43463722 0.4893695 0.3980357 0.9815259 0.4537663 -0.42790854
0.05412881 -0.054446153 0.04314944 0.1885163 -0.598952 -0.17689438 0.27893654 0.021747526
0.24584323 -0.5444774 -0.32153094 -0.36360922 0.32382897 0.79755473 -0.24249281 -0.29378447
-0.047597416 0.35863134 0.08854269 0.08271735 0.13161226 -0.32471645 0.68067366 -0.03464937
0.1105701 1.1583648 -0.19959685 -0.273955 0.4102025 -0.012218357 -0.14787985 -0.03281066
0.2787439 -0.007325159 0.06280973 0.20300224 0.4002901 -0.07900833 -0.40122247 0.42270327
0.20209266 0.13982923 0.1567432 -0.22110246 -0.40558898 0.4131263 0.28214446 0.00087001256
0.1400382 0.29123673 0.79373085 -0.6652398 0.1249091 1.0704652 -0.58535916 0.50183487
-0.057895765 -0.22477312 0.6942771 0.08777193 0.2507585 -0.2759424 -0.82195294 -0.3096141
0.10565298 0.6958932 -0.23972562 -0.49740568 -0.016115969 -0.16219768 0.3333783 0.11395964
-0.7697342 0.19778554 0.0918714 0.12774427 -0.13382041 0.55589867 0.054892395 -0.93129826
-0.5241865 0.10511573 -0.3542925 0.15196241 -0.8367561 0.12381192 0.43573672 0.30102465
0.16598397 0.067072935 -0.00024192945 0.6705681 0.67771816 -0.11329118 -0.82977617 0.62609315
0.07281887 0.7615154 1.2829831 -0.33097953 -0.23811157 0.15588105 -0.7542594 0.6234291
-0.06489183 0.027333181 -0.021186084 0.09209275 0.03647745 0.42437407 -0.18051077 -0.5162718
0.4024314 0.70141274 -0.04682329 -0.025260005 -0.5415931 -0.15981823 -0.5165482 -0.3871885
0.6383866 0.3027322 0.30978706 0.5021907 -0.3132309 -0.39436728 0.52940655 -0.11544265
-0.023657298 0.35805452 0.20907275 0.111160025 -0.5944751 -0.2193351 -0.26918176 0.36471456
-0.3345145 -0.38055202 -0.0365851 0.2571985 -0.45220226 0.40756604 -0.24083982 0.35880628
-0.33479044 -0.18198109 0.025709197 0.70874953 0.061753467 -0.37168837 -0.10111494 0.25629872
-0.22936618 -0.09234064 -0.4161592 0.26322588 0.30543742 0.3070182 -0.6004156 -0.5286161
-0.096198365 -0.019438135 0.23774801 0.049033113 0.3350863 0.13798663 0.45181784 -0.16747567
-0.12063457 -0.7324891 0.12512632 -0.18952191 -0.22655818 0.08267684 -0.15806445 0.1311661
-0.11126551 -0.7827964 -0.4600869 0.15230907 0.38199267 0.30629286 0.7599116 -0.08521803
00000000: ff66 f4be 9368 0bbf 81b6 de3d 811c 3a3e
00000010: d630 473f 66d6 923e e70b f2be c75f 0cbe
00000020: f659 9b3e 2344 283f cf9e 8cbe 6a43 1dbf
00000030: 6c3f 383f 6532 11bf f3d0 80be 84d0 76bf
00000040: aa2c 193d 140b 913e ea4c da3e 7a45 643f
00000050: 202f 86bf 73c8 73be 39ed 883e b628 1c3e
00000060: a41f a33d d503 fbbd 577c d5be 325a 023f
00000070: 7482 813d 3b34 ee3e 5838 2b3e 980c f9be
00000080: a4b5 3fbe 7946 c9be 3ce3 4bbe f122 663e
00000090: 4060 c839 5f00 783e 4db5 45be 8416 50bf
000000a0: d824 d4be 2c9c 5b3e 1916 a53e 156f 443f
000000b0: 5d7e 17bf 6804 403e 00cb d7bc 004d ba3e
000000c0: eefa 693e e7bb 2c3e ad1d 08bd 566b aabe
000000d0: 8c19 a9be 2e28 d73e 0a30 babd 37bf a33d
000000e0: 1e3d bdbe 5cbe 2fbf 6da2 77be f302 87bd
000000f0: b3b8 61be 2a68 a4be bea1 e73d 8cbf 86bd
00000100: 143e 1bbf 6753 95be c588 debe a48e fa3e
00000110: 56cb cb3e 4845 7b3f 0e54 e83e d416 dbbe
00000120: 2cb6 5d3d ee02 5fbd 78bd 303d 6b0a 413e
00000130: eb54 19bf cd23 35be c5d0 8e3e de27 b23c
00000140: 54be 7b3e df62 0bbf b49f a4be fd2a babe
00000150: e9cc a53e 8c2c 4c3f 0950 78be eb6a 96be
00000160: 82f5 42bd 879e b73e df55 b53d b767 a93d
00000170: 5dc5 063e 3c41 a6be a140 2e3f 7fec 0dbd
00000180: 9472 e23d 4c45 943f 1e63 4cbe d443 8cbe
00000190: 1006 d23e 812f 48bc d16d 17be 7864 06bd
000001a0: 85b7 8e3e e307 f0bb 63a2 803d d2df 4f3e
000001b0: d3f2 cc3e 1fcf a1bd 086d cdbe 906c d83e
000001c0: 61f1 4e3e 652f 0f3e 4a81 203e af68 62be
000001d0: 5ca9 cfbe 4a85 d33e 3d75 903e 8e11 643a
000001e0: 2d66 0f3e fb1c 953e f231 4b3f 284d 2abf
000001f0: 58d0 ff3d 0105 893f 19da 15bf 4078 003f
00000200: 1c24 6dbd ed2a 66be 25bc 313f c5c1 b33d
00000210: 6b63 803e 5248 8dbe 826b 52bf bd85 9ebe
00000220: 9760 d83d 0f26 323f a27a 75be f5ab febe
00000230: a305 84bc 2617 26be 8fb0 aa3e ac63 e93d
00000240: 4d0d 45bf 4b88 4a3e 1327 bc3d 65cf 023e
00000250: 3808 09be 604f 0e3f d9d6 603d 9069 6ebf
00000260: 1631 06bf ea46 d73d d465 b5be 099c 1b3e
00000270: a635 56bf 1b91 fd3d e218 df3e e71f 9a3e
00000280: b4f7 293e 895d 893d 71ae 7db9 5aaa 2b3f
00000290: f07e 2d3f 3505 e8bd 366c 54bf a447 203f
000002a0: 0f22 953d acf2 423f ca38 a43f 2676 a9be
000002b0: 85d3 73be 489f 1f3e 2517 41bf 0d99 1f3f
000002c0: 02e6 84bd d6e9 df3c 708e adbc 209b bc3d
000002d0: 6169 153d 8f47 d93e d1d7 38be 642a 04bf
000002e0: 7d0b ce3e c98f 333f c7c9 3fbd 12ee cebc
000002f0: d8a5 0abf 64a7 23be 813c 04bf 923d c6be
00000300: 4e6d 233f b7ff 9a3e 699c 9e3e 928f 003f
00000310: cd5f a0be 82ea c9be 3087 073f 326d ecbd
00000320: f3cc c1bc ec52 b73e 2b17 563e dea7 e33d
00000330: 852f 18bf 6199 60be 31d2 89be debb ba3e
00000340: 7c45 abbe b7d7 c2be 42da 15bd 86af 833e
00000350: 0e87 e7be 7fac d03e b79e 76be 75b5 b73e
00000360: a769 abbe 4059 3abe 189c d23c 9c70 353f
00000370: 34f1 7c3d f04d bebe 5a15 cfbd 9639 833e
00000380: f8de 6abe 171d bdbd d212 d5be 8bc5 863e
00000390: 4b62 9c3e 7d31 9d3e d6b4 19bf 6253 07bf
000003a0: a603 c5bd b93c 9fbc 3774 733e f2d6 483d
000003b0: 6e90 ab3e 5e4c 0d3e ab54 e73e be7e 2bbe
000003c0: 420f f7bd 6884 3bbf 1d21 003e 0812 42be
000003d0: defe 67be 7a52 a93d a6db 21be 6850 063e
000003e0: 2cdf e3bd 5865 48bf 8390 ebbe e9f6 1b3e
000003f0: 8b94 c33e 6bd2 9c3e 9189 423f ca86 aebd

bias f4 [20]
-0.106849514 -0.53054315 0.04675556 -0.18603776 -0.15966788 0.6744859 -0.38296303 0.014409549
-0.29208 -0.4412265 0.24067323 0.04621109 0.12627643 -0.53888714 0.28408882 0.33078492
-0.5449779 0.19589385 -0.19671862 -0.38893402
00000000: ebd3 dabd add1 07bf c282 3f3d af80 3ebe
00000010: fa7f 23be 1cab 2c3f bb13 c4be 0716 6c3c
00000020: 828b 95be 71e8 e1be 0b73 763e d747 3d3d
00000030: 9c4e 013e 82f4 09bf 1774 913e a45c a93e
00000040: ac83 0bbf 6698 483e 9b70 49be 5c22 c7be

weight f4 [20, 20]
-0.28913796 0.31340578 -0.45301807 0.29259008 -0.4917797 -0.29936656 0.0647935 -0.4194371
0.12416946 -0.30289823 -0.3413732 0.1511372 0.06283606 0.44540694 -0.41058353 0.6843869
-0.3138928 -0.50359166 -0.58225894 -1.2128321 -0.09470699 0.46955428 -0.2149183 0.20448728
-1.000715 -0.40312985 0.17389862 0.2915653 0.053526342 -0.8666793 -0.058800012 -0.049430132
-0.09388185 0.47617176 0.30033615 -0.6113623 0.4574067 -0.23031795 0.19495904 0.035553873
0.30476665 -0.1728313 -0.004506887 -0.19669181 0.1073364 0.17835471 -0.097310364 0.20170929
-0.26296675 -0.5512239 -0.011121922 0.11175911 -0.08323866 -0.1828125 0.14262037 0.083286546
0.19968899 0.1461776 0.13446943 0.25011992 0.059006225 0.0075963866 0.02998624 -0.1594793
-0.45796087 0.409986 0.04793888 0.25239295 0.26998022 0.06907058 -0.42751995 0.36313653
-0.017883435 0.16764688 -0.17068864 0.0911048 0.37748516 0.41779467 -0.38532943 0.20435701
0.08128911 0.8946656 0.18685772 -0.15161517 -0.4672395 0.027485786 0.5572665 -0.480674
0.08871182 -0.44089854 -0.18326823 0.4135599 -0.846085 -0.38042116 0.8265271 -0.33227515
0.73443335 0.26783153 0.33201173 -0.52160835 0.09654733 -0.09025438 0.23170748 -0.17295979
-0.38803008 -0.00963017 -0.0773278 -1.079593 -0.18319839 -0.12449128 -0.106935814 -0.17805836
0.18053004 -0.3440012 -0.25278065 -0.20595863 0.22963387 -0.20229258 -0.08218865 -0.17882146
-0.32248694 -0.46897894 0.0927728 0.058636684 0.6833203 -0.3009652 -0.68293285 -0.2910722
0.17816383 0.16774547 0.07891479 0.6664776 0.0005398241 0.077112354 0.28642395 0.3108616
-0.077666335 0.12591533 -0.09853332 -0.5472681 -0.016129078 0.40189192 -0.48028436 0.664654
-0.17704925 -0.19578823 0.112760834 0.57466686 -0.74576795 0.16054128 0.5186233 0.22136992
0.041961152 -0.2772691 -0.08777412 0.44010353 0.60836196 -0.41863266 -0.35993746 -0.005893637
-0.031704325 -0.29083735 -0.02396032 0.023844576 0.10435734 -0.14027736 -0.48812687 0.052380577
0.08126655 1.0260696 0.26527002 -0.6386684 0.17969535 0.7939132 -0.93560827 0.25543043
0.38246095 -0.053852774 0.04616917 -0.15552561 -0.23644848 -0.4507055 0.65576136 -0.058135893
0.10487637 0.38467553 0.26900336 0.8910876 0.19995947 0.43771052 -0.45590496 -0.2505606
0.2137046 -0.11208264 0.2497656 -0.3283713 0.33519846 0.10209217 0.6699526 -0.11722348
0.24983703 0.10489364 0.09388297 -0.35875437 -0.12778556 0.42834544 0.123754755 -0.2271208
-0.05963664 -0.6030159 -0.42294157 0.21008794 -0.3548616 -0.28218865 -0.3429135 -0.12763049
0.099266455 0.1871729 0.44669822 0.046215802 -0.11069134 -0.29811186 0.5422712 0.06822863
-0.28245232 -0.11749768 0.012605863 1.1019813 -0.035230085 -0.6059788 0.04661872 -0.3656691
-0.05154387 0.1620289 0.095849216 -0.21257648 -0.08106687 -0.43359742 -0.13435197 0.22002453
0.27885842 -0.72975504 -0.808899 -0.06411446 0.05163566 -0.32953572 0.09340693 -0.37497303
-0.6806637 1.3719705 -0.19242126 -0.19678615 -0.81968653 -0.0033681274 -0.13750592 0.39558372
00000000: e409 94be b976 a03e fcf1 e7be 5ece 953e
00000010: 8dca fbbe 9346 99be 74b2 843d 76c0 d6be
00000020: 8f4c fe3d 7a15 9bbe 78c8 aebe b6c3 1a3e
00000030: 31b0 803d 610c e43e 0138 d2be fb33 2f3f
00000040: 8fb6 a0be 62eb 00bf ec0e 15bf 153e 9bbf
00000050: bdf5 c1bd 6b69 f03e 8b13 5cbe 1d65 513e
00000060: 6e17 80bf 0967 cebe 7b12 323e 0c48 953e
00000070: 703e 5b3d b2de 5dbf 48d8 70bd 4077 4abd
00000080: 2145 c0bd c9cc f33e a9c5 993e 3d82 1cbf
00000090: 3631 ea3e 78d8 6bbe 58a3 473e f0a0 113d
000000a0: 600a 9c3e b0fa 30be 82ae 93bb 9469 49be
000000b0: 30d3 db3d 9ea2 363e a84a c7bd e18c 4e3e
000000c0: 94a3 86be 021d 0dbf b938 36bc f6e1 e43d
000000d0: 0879 aabd 3333 3bbe 130b 123e 2392 aa3d
000000e0: 457b 4c3e 95af 153e 5bb2 093e b80f 803e
000000f0: 83b0 713d 1ceb f83b b4a5 f53c 8b4e 23be
00000100: d979 eabe afe9 d13e 8f5b 443d a639 813e
00000110: d93a 8a3e e074 8d3d e5e3 dabe 08ed b93e
00000120: 4880 92bc a0ab 2b3e 01c9 2ebe 2795 ba3d
00000130: bc45 c13e 2fe9 d53e e649 c5be f742 513e
00000140: e87a a63d ce08 653f a157 3f3e 0241 1bbe
00000150: 043a efbe df29 e13c 04a9 0e3f e71a f6be
00000160: 8bae b53d 74bd e1be abaa 3bbe 20be d33e
00000170: 0799 58bf 90c6 c2be 4897 533f f81f aabe
00000180: d303 3c3f 3721 893e 71fd a93e 2088 05bf
00000190: 9bba c53d 4ad7 b8bd ba44 6d3e 5f1c 31be
000001a0: e1ab c6be dcc7 1dbc 0a5e 9ebd 1a30 8abf
000001b0: 5c98 3bbe 49f5 febd 2a01 dbbd ee54 36be
000001c0: dedc 383e ed20 b0be 776c 81be d2e6 52be
000001d0: 2425 6b3e c925 4fbe 8652 a8bd f91c 37be
000001e0: 021d a5be 021e f0be aaff bd3d 052d 703d
000001f0: 14ee 2e3f 1c18 9abe b0d4 2ebf 6a07 95be
00000200: 9470 363e 78c5 2b3e 149e a13d 479e 2a3f
00000210: fb82 0d3a 15ed 9d3d 29a6 923e 4029 9f3e
00000220: 870f 9fbd f3ef 003e d6cb c9bd c319 0cbf
00000230: 2121 84bc c7c4 cd3e d5e7 f5be c426 2a3f
00000240: 664c 35be b67c 48be 27ef e63d 5e1d 133f
00000250: a6ea 3ebf ef64 243e 7fc4 043f ccae 623e
00000260: 75df 2b3d 37f6 8dbe ebc2 b3bd 4055 e13e
00000270: 9cbd 1b3f 0557 d6be b949 b8be 691f c1bb
00000280: 65dc 01bd a2e8 94be 6f48 c4bc b355 c33c
00000290: 4db9 d53d dea4 0fbe c4eb f9be 048d 563d
000002a0: 146f a63d 4056 833f 79d1 873e c67f 23bf
000002b0: 0f02 383e e53d 4b3f 0684 6fbf c7c7 823e
000002c0: ecd1 c33e ba94 5cbd e21b 3d3d 1b42 1fbe
000002d0: 8d1f 72be dfc2 e6be fadf 273f e71f 6ebd
000002e0: 6cc9 d63d 31f4 c43e cfba 893e 511e 643f
000002f0: 2dc2 4c3e 981b e03e 606c e9be 7b49 80be
00000300: 61d5 5a3e 958b e5bd 8ec2 7f3e 4820 a8be
00000310: 229f ab3e b315 d13d 0382 2b3f dd12 f0bd
00000320: 47d5 7f3e 7ad2 d63d b745 c03d a7ae b7be
00000330: 38da 02be 1850 db3e 2273 fd3d 5b92 68be
00000340: 8d45 74bd 405f 1abf cc8b d8be 4b21 573e
00000350: 6bb0 b5be 087b 90be 5c92 afbe 91b1 02be
00000360: 364c cb3d 41aa 3f3e a1b5 e43e c84c 3d3d
00000370: 24b2 e2bd 1ea2 98be 49d2 0a3f 74bb 8b3d
00000380: 979d 90be a0a2 f0bd d288 4e3c b90d 8d3f
00000390: 6c4d 10bd 6d21 1bbf 45f3 3e3d fb38 bbbe
000003a0: aa1f 53bd e7ea 253e 984c c43d a6ad 59be
000003b0: 6306 a6bd 7b00 debe 9093 09be 1c4e 613e
000003c0: 88c6 8e3e 3ad1 3abf 0114 4fbf 714e 83bd
000003d0: ea7f 533d e8b8 a8be 224c bf3d 77fc bfbe
000003e0: fa3f 2ebf bb9c af3f 140a 45be 4f82 49be
000003f0: fad6 51bf cdbb 5cbb 5ace 0cbe f389 ca3e

bias f4 [20]
0.3540368 -0.10595834 0.29183507 -0.70661557 0.26097724 -0.26167747 -0.04799298 0.038080595
-0.4835755 -0.5650798 -0.21405527 0.1874603 -0.11655701 0.2405753 0.20947751 0.6973406
-0.2870752 -0.30593863 -0.493644 0.18414769
00000000: 5044 b53e b000 d9bd 686b 953e c2e4 34bf
00000010: cf9e 853e 97fa 85be 4994 44bd 66fa 1b3d
00000020: 3597 f7be 12a9 10bf 4e31 5bbe 98f5 3f3e
00000030: 71b5 eebd 5f59 763e 4681 563e ea84 323f
00000040: 85fb 92be fda3 9cbe e8be fcbe 3691 3c3e

weight f4 [20, 20]
1.5583308 -1.321409 1.069391 0.30778992 0.24488124 -0.6159682 0.32859746 0.6627714
-0.8418584 0.931691 -0.5263032 0.38058892 0.22096315 -2.4668713 -1.3091542 0.2166812
0.12614565 0.45930275 2.4102747 -0.6586144 0.013248605 -0.4222326 -0.15105642 -0.34957933
-0.27588236 -1.7334964 -0.14303744 -0.55780774 1.9263383 1.0320703 0.124483936 -0.6797353
0.041604042 0.51757985 0.012849691 -0.69239104 0.6658462 1.3810377 -1.234068 -0.5960101
0.224523 -0.23986343 0.17402972 0.14342119 0.08343513 -0.28569368 0.34743568 0.53288877
0.72452486 0.5845844 0.41000628 -0.1869648 -0.08758834 -0.053605437 -2.0469296 0.466687
0.36135104 0.4641902 -0.023506194 0.06841898 -0.017046062 0.06038791 0.20721622 -0.1910351
0.4622503 0.324842 -0.1420369 0.09327016 -0.31606457 0.81491095 0.018605225 -0.5274041
0.00957428 -0.043300014 -0.18639356 -0.2256359 0.15854248 -0.14117633 0.056279257 -0.14235759
0.42808113 -1.5099669 1.1384457 2.4151027 0.08951106 1.1811963 -0.43208987 0.4459538
-0.4557974 0.84360427 -0.44049907 -0.32666874 -0.12409758 -1.6413354 -1.3894274 0.14084849
0.13114311 0.28834808 0.0865557 0.12715726 0.01842845 -0.18492003 0.18825667 0.28216535
0.032607943 0.14797848 -0.00071794225 0.12742087 -0.14289464 -0.023518376 -0.2882252 0.009515092
0.06841128 -0.025796317 -0.37687722 0.11945679 -0.052079868 0.015177308 0.02770249 -0.0015168554
0.7249321 -2.514434 0.5642485 1.5728085 0.3822692 1.3588376 -0.49708226 -0.22015968
-1.1148597 0.98816776 0.70881224 0.029432243 -0.3207856 -1.5877124 -1.0834576 1.2352582
-0.15962262 0.5538889 1.8401582 -0.43220198 -0.5250612 -1.1264111 -0.29988775 0.72092295
-0.45536637 0.5490433 -0.044584002 0.43095654 0.30181092 -0.12696311 0.10100821 0.0125961015
0.13791153 -0.22245173 -0.78938365 -0.1790917 -0.3392359 0.36485773 -0.69595486 0.37942454
1.0259387 0.77135587 0.84327406 -1.0028878 0.8162272 1.3993698 0.2337581 -0.13569441
-0.8191476 0.51430726 0.52928823 -0.35120788 0.6222528 -0.91799086 -1.1448573 0.19876057
0.2599227 0.8782669 -0.83225286 0.21021624 0.28337783 -0.77654326 0.11425956 0.9863664
-0.09188731 0.59606236 -0.27161017 0.60837996 -1.3030642 -0.41504282 -0.68472713 -0.9184462
-0.016593527 -1.2616628 -0.53526896 0.14233896 -0.36205217 0.7904672 -0.0107122 0.42942613
-0.28404525 0.55539185 -0.2134693 -0.31689993 -0.14919835 -0.6047018 0.23150869 0.031820353
0.6483196 -0.3268468 -0.2638632 -0.41972035 -0.45658028 0.84643835 -0.34712967 -0.24068218
-0.40699103 -0.38139606 0.14237198 0.054354485 0.18929175 -0.59216523 1.0378745 0.31985816
0.18731703 -0.0016619904 -0.123890296 0.67258185 0.50973666 -0.09969926 -0.3008148 0.28865907
0.25333712 -0.040205922 -1.9848056 -0.22749181 -0.12143802 1.11811 0.35224745 0.46576628
0.0686087 0.031741384 0.3603535 1.2588247 0.20532346 0.267311 -0.5010043 0.48471925
-0.931427 0.37806618 -0.35705864 -0.6178878 0.11210681 -1.7951157 -0.95910764 0.47500077
00000000: 6277 c73f ee23 a9bf cee1 883f a496 9d3e
00000010: 26c2 7a3e 18b0 1dbf ed3d a83e 63ab 293f
00000020: 0884 57bf 4d83 6e3f cebb 06bf 8ddc c23e
00000030: 2a44 623e 38e1 1dc0 5d92 a7bf ade1 5d3e
00000040: 532c 013e bb29 eb3e f141 1a40 f49a 28bf
00000050: ad10 593c df2e d8be 89ae 1abe 10fc b2be
00000060: 7440 8dbe 36e3 ddbf 6878 12be 7dcc 0ebf
00000070: 4192 f63f e11a 843f 6ff1 fe3d 2203 2ebf
00000080: 0069 2a3d 1d80 043f 8387 523c 8a40 31bf
00000090: e674 2a3f d8c5 b03f f1f5 9dbf 1e94 18bf
000000a0: 5be9 653e c29e 75be d934 323e 01dd 123e
000000b0: 0ae0 aa3d 7146 92be 17e3 b13e 666b 083f
000000c0: 767a 393f 53a7 153f 58ec d13e b373 3fbe
000000d0: 8461 b3bd 6091 5bbd e500 03c0 99f1 ee3e
000000e0: 0103 b93e 57aa ed3e 1090 c0bc 401f 8c3d
000000f0: 2fa4 8bbc 5059 773d 7d30 543e b59e 43be
00000100: 12ac ec3e b151 a63e 1f72 11be 6d04 bf3d
00000110: 37d3 a1be 019e 503f fc69 983c f503 07bf
00000120: 71dd 1c3c 5b5b 31bd f4dd 3ebe 190d 67be
00000130: f658 223e 8790 10be 1485 663d 30c6 11be
00000140: 732d db3e 9846 c1bf 97b8 913f 0b91 1a40
00000150: 9351 b73d 7131 973f e23a ddbe 0e54 e43e
00000160: 475e e9be 73f6 573f 1889 e1be 2041 a7be
00000170: df26 febd 4717 d2bf c2d8 b1bf 963a 103e
00000180: 614a 063e 5ca2 933e 1d44 b13d 8335 023e
00000190: 43f7 963c ad5b 3dbe 5bc6 403e fa77 903e
000001a0: e88f 053d ac87 173e 4a34 3cba 9e7a 023e
000001b0: f952 12be 9ca9 c0bc 4192 93be 30e5 1b3c
000001c0: 371b 8c3d cc52 d3bc 0df6 c0be c3a5 f43d
000001d0: b351 55bd 3eaa 783c 55f0 e23c 39d1 c6ba
000001e0: 2695 393f 7dec 20c0 9772 103f ca51 c93f
000001f0: cab8 c33e 64ee ad3f 9181 febe 8a71 61be
00000200: b9b3 8ebf 90f8 7c3f b874 353f e31b f13c
00000210: 033e a4be 293a cbbf bdae 8abf f11c 9e3f
00000220: 1d74 23be aacb 0d3f 4e8a eb3f 9449 ddbe
00000230: 696a 06bf 3d2e 90bf e38a 99be 688e 383f
00000240: c825 e9be 1a8e 0c3f b79d 36bd 56a6 dc3e
00000250: f686 9a3e 9e02 02be 64dd ce3d e15f 4e3c
00000260: ae38 0d3e 63ca 63be 0c15 4abf d163 37be
00000270: 54b0 adbe a2ce ba3e 192a 32bf ef43 c23e
00000280: f651 833f 9477 453f cfe0 573f a15e 80bf
00000290: 44f4 503f 8d1e b33f 495e 6f3e 7af3 0abe
000002a0: a8b3 51bf a4a9 033f 6f7f 073f 85d1 b3be
000002b0: f64b 1f3f 7301 6bbf af8a 92bf e487 4b3e
000002c0: 9714 853e 19d6 603f 860e 55bf ed42 573e
000002d0: e616 913e 8acb 46bf eb00 ea3d 8282 7c3f
000002e0: 6a2f bcbd 8b97 183f 7d10 8bbe cabe 1b3f
000002f0: cfca a6bf 7e80 d4be 474a 2fbf 4a1f 6bbf
00000300: 26ef 87bc 2b7e a1bf 6307 09bf 4ec1 113e
00000310: e75e b9be 0f5c 4a3f 3982 2fbc bedd db3e
00000320: 616e 91be 292e 0e3f b297 5abe b540 a2be
00000330: 74c7 18be bdcd 1abf 9d10 6d3e 0f56 023d
00000340: 46f8 253f 7758 a7be 1419 87be 96e5 d6be
00000350: e4c4 e9be 2fb0 583f fbba b1be 6475 76be
00000360: 2161 d0be 5846 c3be f6c9 113e cfa2 5e3d
00000370: b2d5 413e 2498 17bf 12d9 843f 73c4 a33e
00000380: 09d0 3f3e 25d7 d9ba 32ba fdbd 532e 2c3f
00000390: 1a7e 023f 202f ccbd 6604 9abe 1fcb 933e
000003a0: 67b5 813e f7ae 24bd 1c0e febf 9df3 68be
000003b0: 7fb4 f8bd 3a1e 8f3f c759 b43e eb78 ee3e
000003c0: b882 8c3d 4103 023d 4180 b83e 2b21 a13f
000003d0: 5040 523e fddc 883e d141 00bf 1f2d f83e
000003e0: 0072 6ebf e491 c13e 64d0 b6be e52d 1ebf
000003f0: 4198 e53d 5ac6 e5bf 1488 75bf 4d33 f33e

bias f4 [20]
-0.4673527 -0.44183704 0.05737976 0.038782638 -0.42874303 0.87689996 -0.51246893 0.06424818
-0.17350662 -0.49348006 0.580306 -0.017486295 0.28840038 -0.20257129 0.15511 0.0023487553
-0.57630634 0.29911235 -0.21029828 -0.1410215
00000000: da48 efbe 7738 e2be 0a07 6b3d 8bda 1e3d
00000010: 3584 dbbe 847c 603f 2a31 03bf 8d94 833d
00000020: b8ab 31be 6ba9 fcbe ef8e 143f 6b3f 8fbc
00000030: 37a9 933e d96e 4fbe 28d5 1e3e 93ed 193b
00000040: d088 13bf 4125 993e 6f58 57be f167 10be

weight f4 [20, 20]
0.2469327 0.34462592 -0.6832594 0.673899 2.750831 0.0097440975 -0.7066155 0.7508317
-0.7507684 0.47160962 -0.6304468 1.3314967 -0.043320533 -1.0515009 1.081316 0.41581294
0.2861159 0.31489676 2.2178023 -0.20539622 0.32688728 -0.6521864 0.8411076 -0.14506598
0.69546574 0.9015149 0.2675913 0.2650331 -1.3627814 0.08545748 -1.2416157 -0.58475906
0.7529417 -0.9915691 0.21286902 0.39116392 -0.33255994 -0.8825311 1.4444153 0.7620986
1.0164632 -1.3992103 0.05782649 -0.8853093 -0.48783317 1.0412437 0.28953278 0.03218613
-0.76820195 0.5110017 -0.7281847 -1.0849262 -0.68333614 -0.53678834 -1.3069923 -0.30403212
0.27003258 0.13027163 0.27752036 -0.18653692 0.08913086 -1.7224284 0.0022940373 0.58732665
-0.21089156 0.6038722 -0.006515378 0.34776062 -0.3840481 0.6361851 -0.5844908 -1.309867
-0.101432666 -1.2168252 -1.0295591 -0.30469695 0.23065946 0.2829479 -0.26466554 -0.35361296
1.6444383 -0.10305508 -0.9369772 0.71434915 0.7887067 0.60863054 -0.16173208 1.0057763
-0.13224219 -0.52792054 0.24798791 -0.682019 1.4872133 0.21876487 -0.93805057 -1.0449986
-0.8016898 -0.4671953 0.369444 0.29291144 -0.26674667 -0.22802489 0.22648433 1.1045082
0.047230337 0.7299365 -0.35293078 0.7393456 -0.3189978 0.24824254 -0.7731194 0.48772758
0.23564549 -0.25572595 -1.0073131 -1.0373968 0.19731045 0.39700344 -0.32584465 -0.2812973
0.96445894 -0.72596276 0.64143187 1.3693911 1.2100563 0.6724799 1.2560943 0.60719395
-1.7979963 -0.15298952 -0.8368125 0.12481918 -1.5314782 -0.66775876 0.42919818 0.029334752
-0.4361793 -0.84002805 0.7724942 0.69193894 0.5725784 -0.26776823 0.40025878 -0.07048278
0.32464802 -0.6238705 -0.7036207 0.33364084 -0.11225751 1.1035763 -0.22044456 0.83376193
-0.62652814 -0.4889018 -1.0152848 0.66351324 -0.076375686 -1.4507244 0.87205565 -0.022511153
-0.2758775 0.22661705 0.5606112 0.13633168 1.5384818 -0.018968297 -0.2643486 0.022650657
-2.66227 -0.36844444 -0.38020527 0.18498328 -0.6130062 -0.017056737 0.6238367 -0.03630065
-0.1160051 -0.4696333 0.7299113 -0.04396495 0.17660633 -0.73199457 0.60156214 0.45010543
-0.8423382 1.4126801 -1.7791499 -0.22287808 -0.26963753 1.8459835 0.03752364 -1.2558078
-0.08872492 -1.2626964 -0.42893842 -0.4416041 -0.12306815 0.021206778 0.6504329 -0.37532592
0.58734834 0.16853744 0.85559154 1.9420998 0.7847885 1.2699999 -0.52503836 -0.13825086
-1.510144 -0.7466857 -0.9445544 0.2034986 -0.35109943 -0.7490434 0.28282547 -0.028306354
-0.16986197 -0.22257616 0.8710237 0.0033752138 -0.0014210371 -1.2144154 -0.85337734 -1.0823826
-0.10899414 2.6291754 0.30552244 -0.1499428 -0.5921424 1.126293 -0.38643876 -0.8604767
-1.0727383 0.4890133 -0.32123756 -0.62222284 0.2790454 -0.50687027 0.211168 0.08088338
0.17615505 0.23252454 -1.276778 0.033666372 0.14011669 0.20315635 0.639406 0.5789683
0.34884736 -0.3602501 2.023926 -0.7957689 0.5718189 -0.8688322 0.21327573 0.29414073
00000000: eddb 7c3e cf72 b03e 17ea 2ebf a584 2c3f
00000010: 9d0d 3040 b5a5 1f3c c1e4 34bf 8236 403f
00000020: 5c32 40bf d176 f13e f664 21bf 7c6e aa3f
00000030: df70 31bd 9597 86bf 9068 8a3f 6fe5 d43e
00000040: c97d 923e 263a a13e 79f0 0d40 6353 52be
00000050: c55d a73e b0f5 26bf d452 573f 2d8c 14be
00000060: 0b0a 323f aec9 663f ba01 893e 6bb2 873e
00000070: 9f6f aebf 5504 af3d 43ed 9ebf c5b2 15bf
00000080: cac0 403f 79d7 7dbf 56fa 593e a346 c83e
00000090: 4c45 aabe 8fed 61bf 9ae2 b83f e518 433f
000000a0: 771b 823f 5319 b3bf 78db 6c3d a1a3 62bf
000000b0: 45c5 f9be 7947 853f a43d 943e 9ad5 033d
000000c0: e2a8 44bf 02d1 023f 506a 3abf ddde 8abf
000000d0: 1eef 2ebf f66a 09bf 864b a7bf 19aa 9bbe
000000e0: b641 8a3e ed65 053e 2617 8e3e 8903 3fbe
000000f0: 3e8a b63d 8978 dcbf 8f57 163b 0a5b 163f
00000100: f5f3 57be 5e97 1a3f f47e d5bb ae0d b23e
00000110: f4a1 c4be 07dd 223f 30a1 15bf b9a9 a7bf
00000120: eebb cfbd eec0 9bbf 98c8 83bf 3d01 9cbe
00000130: fe31 6c3e 8cde 903e 3e82 87be c20c b5be
00000140: f47c d23f 8b0e d3bd bddd 6fbf 96df 363f
00000150: afe8 493f 36cf 1b3f 189d 25be 47bd 803f
00000160: 7f6a 07be cd25 07bf 8bf0 7d3e cc98 2ebf
00000170: 015d be3f e603 603e 1524 70bf 84c2 85bf
00000180: 8b3b 4dbf 3934 efbe c427 bd3e 7df8 953e
00000190: 0593 88be 5b7f 69be 82eb 673e 8660 8d3f
000001a0: 9974 413d 1edd 3a3f 58b3 b4be c145 3d3f
000001b0: ae53 a3be 4b33 7e3e 27eb 45bf 6eb7 f93e
000001c0: 0d4d 713e 83ee 82be a3ef 80bf 6bc9 84bf
000001d0: c00b 4a3e 0944 cb3e 1cd5 a6be 3306 90be
000001e0: c8e6 763f b2d8 39bf e134 243f 3548 af3f
000001f0: 20e3 9a3f a527 2c3f b3c7 a03f 1071 1b3f
00000200: be24 e6bf 49a9 1cbe 5839 56bf 33a1 ff3d
00000210: 7a07 c4bf 3df2 2abf ddbf db3e 6f4f f03c
00000220: e552 dfbe 140c 57bf 2ec2 453f e922 313f
00000230: 7f94 123f eb18 89be b8ee cc3e 4759 90bd
00000240: 4438 a63e fab5 1fbf 7c20 34bf f9d2 aa3e
00000250: 44e7 e5bd fd41 8d3f 38bc 61be 6c71 553f
00000260: 2664 20bf 5651 fabe daf4 81bf 01dc 293f
00000270: db6a 9cbd 56b1 b9bf 0a3f 5f3f 4f69 b8bc
00000280: d13f 8dbe 4d0e 683e 3784 0f3f 889a 0b3e
00000290: f9ec c43f 6763 9bbc b358 87be df8d b93c
000002a0: a262 2ac0 c0a4 bcbe 44aa c2be 426c 3d3e
000002b0: f9ed 1cbf 92ba 8bbc c3b3 1f3f feaf 14bd
000002c0: 1594 edbd c773 f0be 78db 3a3f 9714 34bd
000002d0: 4ad8 343e ff63 3bbf faff 193f 3874 e63e
000002e0: 7aa3 57bf b4d2 b43f 2fbb e3bf 273a 64be
000002f0: ee0d 8abe 3049 ec3f 63b2 193d 4fbe a0bf
00000300: 69b5 b5bd 09a0 a1bf d19d dbbe ef19 e2be
00000310: 270b fcbd d6b9 ad3c c582 263f b82a c0be
00000320: 765c 163f 1495 2c3e 0c08 5b3f ba96 f83f
00000330: e6e7 483f 5b8f a23f ea68 06bf a291 0dbe
00000340: 664c c1bf cb26 3fbf 51ce 71bf f061 503e
00000350: 4ec3 b3be 4fc1 3fbf 80ce 903e bae2 e7bc
00000360: 4cf0 2dbe 01eb 63be 69fb 5e3f b132 5d3b
00000370: 1842 baba f771 9bbf f076 5abf 838b 8abf
00000380: 5238 dfbd 6944 2840 706d 9c3e 9b8a 19be
00000390: a596 17bf 5e2a 903f 4ddb c5be 3348 5cbf
000003a0: 7d4f 89bf f45f fa3e 4079 a4be ff49 1fbf
000003b0: 0adf 8e3e 40c2 01bf 6d3c 583e 2fa6 a53d
000003c0: fd61 343e ea1a 6e3e 766d a3bf c0e5 093d
000003d0: c07a 0f3e 3808 503e 1db0 233f 4437 143f
000003e0: 1f9c b23e b372 b8be 0188 0140 83b7 4bbf
000003f0: b962 123f c96b 5ebf f464 5a3e 9d99 963e

bias f4 [20]
-0.048124604 0.6842544 -0.17033924 -0.12555645 0.3203957 0.06006998 0.16330722 0.14380343
0.2227793 0.6138505 0.010007387 -0.07925656 -0.20856048 0.93489665 0.3858791 -0.37788817
0.4059188 0.005259718 0.7039593 1.1413234
00000000: 4e1e 45bd 4c2b 2f3f 696d 2ebe df91 00be
00000010: e80a a43e f00b 763d 023a 273e 3541 133e
00000020: 4220 643e 4e25 1d3f 06f6 233c 4351 a2bd
00000030: e190 55be 6355 6f3f f291 c53e 8f7a c1be
00000040: 97d4 cf3e b659 ac3b ad36 343f e316 923f

weight f4 [20, 20]
3.2205904 0.40635893 0.5087848 -0.13462655 0.19483142 0.64637995 0.4778161 -0.31797448
0.14819297 0.003363687 0.34705138 0.10937721 0.16058852 0.51319075 0.32895532 -0.104196005
0.37531006 0.052980434 -1.0433769 -0.7220931 -0.15149502 1.1113273 -0.91506547 0.019519048
-0.64216626 -0.037477024 0.0030992867 0.1314446 2.73262 0.16355339 1.1162287 0.123377115
0.67373455 0.14238948 -0.63492155 -0.3651312 0.22327319 0.22566181 -0.560606 0.013925134
0.7116914 -1.503439 0.46405742 -0.21998067 -0.3846904 1.3113197 0.2228322 -0.97688484
-0.32621208 0.46672022 0.43113112 -0.23398593 -0.36567494 -0.33714396 0.19441651 0.37164044
0.0059317537 0.2033979 0.022609338 0.26966953 0.13831039 -0.6674847 0.2606722 0.86810994
0.5431541 -0.57755744 -0.20293851 0.79341537 -0.8002612 0.1960894 -0.83424264 0.07178474
0.15539399 -1.2005662 0.50338846 -0.4780774 0.16228923 0.36723372 -0.019852994 0.048700158
1.2444642 0.14172995 0.7760383 0.66612613 1.4388212 -0.92805594 -0.4352253 0.71286744
-0.44369772 0.4868893 -1.1408988 0.0021047154 0.07795863 0.29950783 0.6676319 -0.23475432
-0.18212877 0.38953057 -0.1479553 -0.34678274 -0.07916684 -0.4152211 0.005894037 0.41409194
0.08052462 0.3916058 0.1479372 0.16087244 -0.66756916 -0.18470278 -0.7836493 -0.016803492
-0.043072388 -0.19959016 -0.12300231 -0.26416937 0.050258037 0.0275773 0.08751838 0.22001986
-0.42331597 0.73701084 0.7421447 -2.029461 -0.83408225 0.24033268 1.8761951 -0.33326855
-0.08052423 -0.0708892 0.89602077 -0.564985 1.0216508 0.15789147 -0.1056495 0.7852004
-0.033663206 -0.18703225 -0.37199143 -0.20940381 -0.08317693 0.6712688 0.061102156 1.0939598
0.10503159 0.5526599 -0.084599845 0.78002685 0.0800281 0.6708997 0.10576635 0.37522003
-0.18210652 0.33645952 -0.108503856 -1.0326171 -0.2308439 -0.7539729 -0.33449456 -0.02636638
-0.5708734 0.73791826 -1.5557219 0.09015497 -0.614365 0.10481116 0.32743117 -0.17527646
2.4589324 1.0796448 1.1829932 -0.9801132 -0.096320145 -0.5307635 -0.82901764 -0.654805
0.11409678 0.7492245 -0.21958876 0.1953695 0.083909005 0.08625049 0.58267885 0.79401314
0.6183826 0.94548446 -0.4942684 -0.4539561 -1.7067925 0.7075426 -1.0819325 -0.21800043
0.18153024 -1.3701655 0.11574763 0.62375325 -0.50302136 -0.58059 -0.2026813 -0.10945511
-0.6263592 0.95514643 -1.2948203 -1.0281106 -0.05405517 0.30095986 0.49833745 0.20489128
2.4597602 0.34286883 1.4644717 -0.2913666 -0.17733735 0.576796 -0.6534119 -0.17065531
-0.20928864 0.42438504 -0.41834378 0.15887177 -0.28100953 0.56348264 0.4458046 -0.27711195
-0.015335394 0.30193493 0.16974989 0.2199323 0.7169874 -0.29806718 0.037566297 0.72584826
0.17450647 0.48771235 0.22678822 -0.1853495 0.09681889 0.47751772 -0.07659142 -0.12520951
-1.0214472 -0.57833076 0.75023735 -1.2232312 -1.1507851 -0.50679433 0.14711753 -0.13407038
0.6274971 -0.28550383 -0.5433434 -0.5083734 1.6346029 -0.086363725 -0.5671367 0.6370171
00000000: 271e 4e40 470e d03e b83f 023f 8bdb 09be
00000010: e381 473e 2879 253f 50a4 f43e 8dcd a2be
00000020: e6bf 173e 4e71 5c3b b8b0 b13e 2901 e03d
00000030: 5171 243e 7860 033f d56c a83e b764 d5bd
00000040: a428 c03e 0302 593d 608d 85bf 18db 38bf
00000050: 8321 1bbe f93f 8e3f bb41 6abf 69e6 9f3c
00000060: 0265 24bf 8281 19bd 671d 4b3b 6a99 063e
00000070: 3fe3 2e40 8a7a 273e 95e0 8e3f 24ad fc3d
00000080: de79 2c3f 8cce 113e 388a 22bf 7af2 babe
00000090: baa1 643e e413 673e e083 0fbf 3f26 643c
000000a0: 6831 363f b070 c0bf ef98 ed3e 9d42 61be
000000b0: 24f6 c4be 53d9 a73f 202e 643e 2015 7abf
000000c0: 4505 a7be f4f5 ee3e 38bd dc3e 029a 6fbe
000000d0: bf39 bbbe 229e acbe 1f15 473e a847 be3e
000000e0: 285f c23b 8a47 503e 3837 b93c 2012 8a3e
000000f0: 3da1 0d3e 47e0 2abf d476 853e 743c 5e3f
00000100: 260c 0b3f ceda 13bf 1dcf 4fbe 451d 4b3f
00000110: ebdd 4cbf a9cb 483e ed90 55bf e103 933d
00000120: 9a1f 1f3e 27ac 99bf 11de 003f 90c6 f4be
00000130: 262f 263e 0f06 bc3e bfa2 a2bc d179 473d
00000140: 9a4a 9f3f a821 113e 72aa 463f 3e87 2a3f
00000150: 4b2b b83f 1395 6dbf dad5 debe 7b7e 363f
00000160: 592c e3be 8e49 f93e f908 92bf 44ef 093b
00000170: c6a8 9f3d 1759 993e ede9 2a3f 7063 70be
00000180: f77f 3abe 8d70 c73e 9881 17be 828d b1be
00000190: 3922 a2bd dc97 d4be c422 c13b dc03 d43e
000001a0: 18ea a43d 8e80 c83e d97c 173e bfbb 243e
000001b0: d0e5 2abf ba22 3dbe 3e9d 48bf 7aa7 89bc
000001c0: ac6c 30bd 5d61 4cbe a3e8 fbbd 3541 87be
000001d0: 5fdb 4d3d cae9 e13c d63c b33d e34c 613e
000001e0: dfbc d8be beac 3c3f 32fd 3d3f b0e2 01c0
000001f0: 6a86 55bf c519 763e 2927 f03f 2da2 aabe
00000200: e3e9 a4bd 5b2e 91bd 9e61 653f dba2 10bf
00000210: 74c5 823f 4dae 213e c45e d8bd e502 493f
00000220: 6ee2 09bd 6285 3fbe a975 bebe f46d 56be
00000230: ab58 aabd 46d8 2b3f 4146 7a3d e006 8c3f
00000240: cd1a d73d 1f7b 0d3f af42 adbd d7af 473f
00000250: c6e5 a33d 15c0 2b3f 079c d83d d71c c03e
00000260: 227a 3abe 6c44 ac3e 4537 debd cc2c 84bf
00000270: 5862 6cbe 5e04 41bf df42 abbe 4efe d7bc
00000280: c224 12bf 36e8 3c3f e521 c7bf 2ba3 b83d
00000290: 0647 1dbf 3ca7 d63d 0fa5 a73e ac7b 33be
000002a0: 265f 1d40 cd31 8a3f 526c 973f b3e8 7abf
000002b0: 7f43 c5bd 1ee0 07bf 803a 54bf 4da1 27bf
000002c0: 93ab e93d 2dcd 3f3f e0db 60be f10e 483e
000002d0: 7cd8 ab3d 19a4 b03d 712a 153f 7244 4b3f
000002e0: 524e 1e3f 450b 723f bf10 fdbe ef6c e8be
000002f0: 2d78 dabf 8321 353f c47c 8abf 813b 5fbe
00000300: 10e3 393e 9561 afbf 180d ed3d 4bae 1f3f
00000310: 02c6 00bf 8ca1 14bf b08b 4fbe 002a e0bd
00000320: 1459 20bf 7a84 743f acbc a5bf 2199 83bf
00000330: f468 5dbd 6917 9a3e 1626 ff3e 05cf 513e
00000340: b66c 1d40 818c af3e cf73 bb3f 012e 95be
00000350: ec97 35be e7a8 133f 0146 27bf 44c0 2ebe
00000360: c34f 56be ff48 d93e 2831 d6be 48af 223e
00000370: 7be0 8fbe 6640 103f 8040 e43e 9ee1 8dbe
00000380: 4e41 7bbc 3797 9a3e ead2 2d3e ef35 613e
00000390: 7c8c 373f 439c 98be 1edf 193d 31d1 393f
000003a0: d3b1 323e 6fb5 f93e 2c3b 683e 42cc 3dbe
000003b0: fb48 c63d 347d f43e f6db 9cbd ec36 00be
000003c0: c8be 82bf 7c0d 14bf 8e0f 403f d792 9cbf
000003d0: ed4c 93bf 46bd 01bf faa5 163e bf49 09be
000003e0: a6a3 203f 8f2d 92be 8e18 0bbf c224 02bf
000003f0: ab3a d13f 77df b0bd df2f 11bf 8d13 233f

bias f4 [20]
-0.14097811 -0.14524618 0.24139576 0.09006214 -0.115335874 -0.29409498 0.36017776 -0.1341549
-0.14103624 -0.42094785 -0.029006429 0.21903074 -0.25958535 0.9579693 0.27886 0.040752523
-0.20224172 -0.50968844 -0.67729807 -0.3950323
00000000: 915c 10be 6abb 14be 7330 773e 8072 b83d
00000010: 3735 ecbd 9e93 96be 3869 b83e e75f 09be
00000020: ce6b 10be 7a86 d7be e49e edbc 9849 603e
00000030: 5fe8 84be 7a3d 753f bdc6 8e3e 1eec 263d
00000040: 7418 4fbe f17a 02bf 6863 2dbf ac41 cabe
