programming_homework/03/code/part_3_2/decoder.pt (torch, 142283 bytes, 46 tensors)

weight f4 [29, 20]
000000 b7 7e bb 3e 69 df 5e 3c 77 9e 6b bd c6 81 b3 3e
       0.36620113 0.01360307 -0.05752417 0.35059947
000010 a4 82 39 bf 50 be da be 4f a8 e2 3f 0d 0c 0c 3f
       -0.72464967 -0.42723322 1.7707614 0.5470589
000020 f7 f5 e4 be 89 2b 27 bf 0a 2d 31 bf 1a 8a f8 be
       -0.44718906 -0.65300804 -0.6920935 -0.48542863
000030 3b 37 33 3f bc 58 54 3f 74 11 75 be 62 3a 2f 40
       0.7000615 0.829479 -0.23932439 2.7379384
000040 b1 02 8b 3e 94 57 72 be a4 0b 5c bf 4c fb 37 bf
       0.2715049 -0.23666221 -0.8595526 -0.71867824
000050 24 55 b6 3e e8 0d 91 bc f9 a4 f4 3e c4 f8 c1 be
       0.35611832 -0.017706826 0.47782114 -0.37885106
000060 f0 e5 79 3e fd 53 02 3e fe 4e 76 3f c4 d5 a7 3e
       0.2440412 0.12727351 0.9621428 0.32780278
000070 35 7b ff be 4c b5 fd be 1c 25 96 bf 2f 04 71 bf
       -0.49898687 -0.4955238 -1.1730075 -0.9414701
000080 ae 04 81 3f 67 a4 9e bf 7c 73 9e 3e 39 48 16 bf
       1.0079553 -1.2393922 0.30947483 -0.58703953
000090 2a ef dd be 34 35 8f be 7a a2 b2 3f 75 3d 67 bf
       -0.4334653 -0.27970278 1.3955834 -0.9032815
0000a0 c5 2d 7d 3f d9 dd 0e 3e 4f 19 a5 3d 9d 00 19 3f
       0.98897964 0.13951816 0.08061468 0.5976656
0000b0 a4 88 b1 3f 78 9f 2e 3e 65 e3 5f be b8 9a 8a bd
       1.3869824 0.1705302 -0.21864088 -0.067677915
0000c0 c1 20 99 3e 77 83 c2 3f cb f4 90 bc 07 02 51 bf
       0.29907802 1.519637 -0.017694851 -0.8164372
0000d0 fc 43 cb be a0 2d 7d 3d 5d 27 b3 bf 6f 04 b5 3e
       -0.39700305 0.06181109 -1.3996388 0.35354945
0000e0 64 08 8f 3f 1b 0b 11 bf 04 19 26 be 0e a7 09 40
       1.1174436 -0.5665757 -0.1622048 2.1508212
0000f0 8a f7 c9 bd 88 80 88 be c4 0c 85 be 84 30 e8 3e
       -0.098616675 -0.26660562 -0.25986302 0.45349514
000100 8c 4a 11 3e 99 fc 85 be 2d ce 2c be 39 44 bd bf
       0.14188594 -0.2616928 -0.16875525 -1.4786445
000110 d2 c5 15 c0 df 5a de bc 9b 08 ac 3f 12 a3 1c bf
       -2.340199 -0.02714294 1.3440126 -0.61186326
000120 bf bb 6a 3d 0c fa 92 3e 37 18 78 3f d4 9b 5b bf
       0.057307955 0.28706396 0.9691195 -0.8578465
000130 2e 49 1f 3b 83 c8 89 bf 95 29 cc bd b3 1a b9 3d
       0.0024305093 -1.0764316 -0.09968869 0.090382956
000140 84 57 b0 be 7b 23 65 be f9 50 f1 3e 5a 77 6e bf
       -0.3444177 -0.22376816 0.4713209 -0.93150866
000150 88 e7 4f bf 10 05 c2 3f f7 55 3f be a5 d3 2a bf
       -0.81212664 1.5157795 -0.18685137 -0.66729194
000160 24 5d 9e 3f ed b3 92 bf 31 3d 81 be 13 95 02 3c
       1.2372174 -1.1461159 -0.25241998 0.007970112
000170 95 5f a0 be 94 17 9a 3e 76 d7 02 40 1b 16 8b 3e
       -0.31322923 0.30096114 2.0444007 0.27165303
000180 9f da 3a bf dd 3c 44 bf d6 9e f7 3f 17 81 f7 bd
       -0.7298984 -0.7665537 1.9345348 -0.12085169
000190 26 44 03 3f 4e c3 65 3d ac 8d 81 3f 1b e8 0c 3e
       0.5127586 0.05609446 1.012136 0.13760416
0001a0 83 01 99 be 11 30 38 3e 0f 24 8b 3f 6d 0c c2 3f
       -0.29883966 0.17987086 1.0870379 1.5160042
0001b0 76 8e c0 3f a3 06 27 bf 93 02 41 be 8a 0d a8 3e
       1.5043476 -0.652445 -0.18848638 0.3282283
0001c0 57 00 1e bf 8b 26 ad be 63 b8 87 bf 01 2a ee be
       -0.6171927 -0.33818468 -1.0603145 -0.4651642
0001d0 4b 72 94 3d 80 0d c4 3d 8e 1b 56 3f d8 1a 11 3f
       0.07248362 0.095728874 0.83635795 0.56681585
0001e0 03 ae 1d 3f 9c 5b ba bd 04 50 f3 3e 7d f4 54 3f
       0.61593646 -0.09099504 0.47521985 0.8318556
0001f0 60 f2 87 3f 49 98 7e bf 1d 2f 12 be 11 0d 21 3e
       1.0620842 -0.9945112 -0.14275785 0.1572764
000200 ac 07 fd be b0 0b 52 bf f4 09 8c 3f 6f f3 ae 3e
       -0.49419916 -0.82049084 1.0940537 0.341701
000210 97 86 9e bf 71 b4 3a 3f ed 3e 2a 3f f2 6c 14 be
       -1.2384824 0.7293158 0.6650227 -0.14494684
000220 5b 6b 16 3f c5 bf 9a 3c 8c 88 f4 bf 3b 06 b5 bd
       0.5875756 0.018890271 -1.9104171 -0.08839079
000230 0e f8 82 3e 5a 90 78 3e 81 c8 d1 3e 09 ba 67 3f
       0.25579876 0.24273816 0.40973285 0.9051824
000240 47 31 b4 3f 81 57 24 bf e0 88 27 bf 34 c1 c7 3e
       1.4077538 -0.6419602 -0.6544323 0.3901459
000250 4d 70 9a be be 91 54 ba ec 4c 58 3f 67 47 7b bc
       -0.30163804 -0.00081088755 0.84492373 -0.015336848
000260 17 c8 c4 bd 81 1c 87 bf 16 df 1c 3f 5d ce fe bf
       -0.096084766 -1.0555574 0.612779 -1.9906727
000270 30 2b a2 be 96 a0 17 c0 6c b2 3b bf 48 32 3a bc
       -0.31673574 -2.3691764 -0.73319125 -0.011364527
000280 d8 42 4e bd 1f 93 f2 bd 77 b3 bd 3e c4 13 7f 3f
       -0.050356716 -0.11844467 0.37050983 0.99639535
000290 f7 35 ca be 5e 91 b4 be d9 5f 88 3f 43 03 c3 3d
       -0.39494297 -0.35267156 1.065425 0.095221065
0002a0 c5 a0 a3 bf ce b3 10 3f bd 5f 4f bf 73 0d 1e 40
       -1.2783438 0.5652436 -0.8100546 2.4695709
0002b0 1b e7 6e bf e7 90 ab 3e 9a 8a 8b be 5c 86 6b bf
       -0.9332139 0.3350899 -0.27254182 -0.9200189
0002c0 66 7c ca 3f 90 0c 6c bf eb e9 8a 3f 42 2c 3f 3e
       1.5819213 -0.9220667 1.0852636 0.18669227
0002d0 b5 4b 7b 3d ce 39 db be b5 f3 77 3f 1a 0f 00 bf
       0.061351497 -0.4281754 0.9685624 -0.50023043
0002e0 55 83 a0 bf bd 4a 0a bf e0 87 8b 3f 37 6c 70 be
       -1.2540079 -0.5402029 1.0900841 -0.2347878
0002f0 48 a5 94 bd 5c 78 ee bf 0e b8 1b 40 93 f3 41 bf
       -0.072580874 -1.8630481 2.4331088 -0.7576229
000300 3a 99 a1 3d bb 7a 27 3f 12 cf 52 3e 33 99 cd bd
       0.07890554 0.65421647 0.20586804 -0.10038986
000310 63 b3 8f bf 0c 8e b1 3e dc d6 55 bd c4 6c 99 bf
       -1.122662 0.34678686 -0.05220686 -1.1986318
000320 7b 65 dd be 8a 9f c0 be ec b7 a4 3d 6b 35 b8 3d
       -0.43241486 -0.3762172 0.08042893 0.08994564
000330 a5 65 58 be eb f8 4c 3f 34 64 28 be 2c 5e ce bf
       -0.21132524 0.8006732 -0.16444474 -1.6122489
000340 54 c2 54 3f 2d 10 4d 3e 8b 0a 3f bf 72 40 c1 3f
       0.8310902 0.20025702 -0.7462546 1.5097792
000350 ab e5 10 c0 b4 ab 86 3e ea a0 11 40 01 9e 2f 3f
       -2.2640178 0.26302874 2.2754464 0.6860047
000360 b5 e3 30 3e 6f 74 3c bf 36 5f b1 be 3c b4 51 3f
       0.17274363 -0.73615164 -0.34642953 0.8191564
000370 51 12 e9 3e 3c bc 44 3e 97 74 8a 3e e4 f4 06 3d
       0.45521787 0.1921243 0.27042076 0.03294839
000380 6d 68 36 3f 05 0a bf be c7 cb 8e be 34 6b 3b bf
       0.7125309 -0.37312332 -0.27889845 -0.73210454
000390 a9 2a 4b 3f 4b 83 28 3f 54 de 4a be 36 65 61 bf
       0.7936197 0.6582534 -0.19811374 -0.8804506
0003a0 55 ec 61 be d2 17 e9 bf 0a 19 0b 3e ce df f0 be
       -0.2206281 -1.8210394 0.1358377 -0.4704575
0003b0 76 21 99 be 64 f7 2b be bc 61 26 c0 a1 fa 85 bd
       -0.2990834 -0.16793591 -2.5997152 -0.06541944
0003c0 c4 d6 49 3e f8 38 96 be c9 00 31 3e 20 ad 7f bf
       0.19710833 -0.2934034 0.17285456 -0.9987354
0003d0 e3 c9 3d be 57 1d 0e bf 09 52 87 bf 36 27 ab bf
       -0.18534045 -0.5551352 -1.057191 -1.3371341
0003e0 c1 f3 c5 be ac 1f c2 be e6 8b da be 27 1c 8b bf
       -0.38662532 -0.3791479 -0.4268486 -1.0867966
0003f0 c4 86 21 be 91 e1 90 be f6 a4 ce 3f 88 09 66 3f
       -0.15774065 -0.28297094 1.6144092 0.89858294

weight f4 [20, 20]
000000 6c 0a 33 bc 48 c8 ff bf 62 44 c9 be 54 c6 0b 3e
       -0.010927778 -1.9982996 -0.39309984 0.13649875
000010 3f 41 04 3f d8 56 6d 3e f4 f9 95 3d 5c fe cc 3b
       0.5166206 0.2317766 0.073230654 0.006255908
000020 d0 28 bf 3e fa 5a c3 3d bb 0c cf bc b5 34 6a 3e
       0.37335825 0.09538837 -0.025274625 0.22871669
000030 4d 59 10 bd ea 1e 32 be 25 90 87 be 47 6a 3f 3d
       -0.035241414 -0.17394605 -0.2647716 0.046732213
000040 02 d9 29 3e 66 6a 47 bc 89 68 ef 3b 7b c0 96 be
       0.16586688 -0.012171363 0.0073061627 -0.29443726
000050 2d 04 8b 3e e4 d4 60 3e ba 99 f7 3e 9d 22 9d bd
       0.27151623 0.21956211 0.48359472 -0.076726176
000060 4a 98 ad 3e e6 ec 4b be ef 1d 37 be a5 e7 10 be
       0.3390525 -0.19914588 -0.17882513 -0.14150865
000070 70 e1 a6 be 99 10 fc be c1 81 78 3d 13 81 a4 3e
       -0.3259387 -0.49231413 0.060670618 0.32129726
000080 42 d5 21 3d 31 b7 e9 3d 36 27 ee 3c 57 51 be 3d
       0.03951002 0.11411894 0.029071432 0.09292858
000090 53 29 14 be a4 e1 5e 3d b0 25 fd bc 4a 16 cc bd
       -0.14468889 0.054414406 -0.03090176 -0.09965189
0000a0 3e fd 0a be e1 29 ec 3f cf aa 0e bf 83 ad b5 3e
       -0.13573167 1.845028 -0.55729383 0.3548394
0000b0 b5 e8 84 be 6a 26 aa be bf 1e 25 bd aa 66 5d 3e
       -0.2595879 -0.33232433 -0.040312525 0.21621194
0000c0 f4 2f 31 be 0c af 8a 3c 91 46 18 3e cb 91 9a be
       -0.17303449 0.016929172 0.14870669 -0.30189356
0000d0 c8 1b 22 be b5 dd 06 3e 66 6b f8 3e 08 9b 54 3e
       -0.1583091 0.13170512 0.48519439 0.20762265
0000e0 94 9e c5 3d 5e 2e 5d 3e ec b9 c0 3e c8 c1 35 3e
       0.09649387 0.21599719 0.37641847 0.17749703
0000f0 84 21 97 3f 83 fd 21 3e 8b c5 a4 be cf 95 60 bc
       1.1807103 0.15819363 -0.32181963 -0.013707592
000100 cc 48 a0 be a4 64 51 3f fa 1b 9a be 48 05 40 3e
       -0.3130554 0.8179419 -0.3009947 0.18752015
000110 36 1a 84 be 50 21 8a 3c 3f 54 3a 3e 52 4d e1 3e
       -0.25801247 0.016861588 0.181962 0.44004303
000120 2a db c6 bd 58 b6 cc be 12 8a 13 3d 0f 27 67 3e
       -0.09709771 -0.39982867 0.036020346 0.22573493
000130 f6 c6 2b be 99 77 19 3e 96 05 06 3e 44 35 13 be
       -0.16775116 0.14987029 0.13088068 -0.14375788
000140 12 d7 fc 3f 6a 31 c8 be 84 48 63 bf 45 62 f7 3e
       1.9753134 -0.391002 -0.88782525 0.4831716
000150 44 88 11 be f6 89 78 bf 62 22 b0 3e 5e 97 ab be
       -0.14212137 -0.9708551 0.34401232 -0.33513921
000160 ef e3 22 3f 75 bb 9d bd 8c e6 f4 bd c9 4e 6d 3e
       0.6362905 -0.0770177 -0.11958036 0.23174585
000170 42 af ed 3e 80 13 92 be 2c cc 48 3f 7f 29 b7 be
       0.46422774 -0.28530502 0.7843654 -0.35773847
000180 be d6 16 bd 8e 0a 40 3e 96 ea 34 3f 23 bf 01 bd
       -0.036825888 0.18754026 0.7067045 -0.031676423
000190 72 93 3c bf cb 07 b4 bf b1 aa 85 3f be 55 fb 3e
       -0.73662484 -1.4064878 1.0442716 0.49088854
0001a0 e5 13 1c 3e df 05 11 3f bd 52 8c be 5b 9d 30 3f
       0.15241964 0.56649584 -0.27406874 0.68990105
0001b0 06 98 95 be 68 99 a4 be 94 70 a6 be 83 77 db be
       -0.29217547 -0.3214829 -0.32507765 -0.42864618
0001c0 f7 5a 63 bd f6 c3 b6 be c7 83 45 3e 4c e9 65 3d
       -0.055506673 -0.3569638 0.1928855 0.056130692
0001d0 51 ee 7a 3e 37 39 ce bc 72 3d 39 3e 00 c4 66 3e
       0.24504973 -0.025173767 0.18089846 0.22535706
0001e0 2b 97 5f 3f 40 5a aa 3f 9c 0c 0a 3f 21 35 64 3f
       0.8734004 1.3308792 0.5392549 0.8914357
0001f0 34 b5 89 bf b5 41 2d bd b4 8e 9d be 69 1f 1e 3e
       -1.0758424 -0.04229899 -0.30772936 0.1544167
000200 ff b4 a5 be f7 cd d0 bd d6 0e 5a be c4 36 9c bd
       -0.32364652 -0.10195535 -0.21294722 -0.07627633
000210 4f 12 87 be 8f 1a 75 3d fa 76 7c 3e 44 38 07 be
       -0.26381156 0.05983978 0.24654761 -0.13205057
000220 4f 1c b0 be 99 43 f2 3e e1 f5 af 3e 53 22 b6 3d
       -0.34396598 0.47317198 0.34367278 0.088932656
000230 07 dd f8 3f 88 cf cc 3f c3 2c fc be a1 c4 c6 bf
       1.9442452 1.6000834 -0.492529 -1.5528756
000240 72 5c e9 bd 2a 04 0f 3f 20 3c 5e 3d 4e cb 75 be
       -0.11394586 0.5586573 0.05425656 -0.24003336
000250 7b f4 88 be ef 18 7e bd 0d 23 ca 3e ec e3 3f 3f
       -0.26749024 -0.062035497 0.39479867 0.74957156
000260 ef c5 d5 bd 3e af 9f bc 48 ff b3 be 50 5c 41 3e
       -0.104381435 -0.019492742 -0.35155702 0.1888287
000270 b0 40 c1 be 7b dd 39 be 3a ea 74 bd 6e b5 a5 be
       -0.37744665 -0.18150894 -0.05979369 -0.32364982
000280 f6 3d f1 3e b9 d4 ff 3e bd f8 00 bf cd 87 6c bf
       0.47117585 0.49966982 -0.50379544 -0.92394716
000290 5a af 78 3d d1 e9 6e 3d c2 5a ca 3e 18 e2 d1 bb
       0.060714103 0.058328453 0.39522368 -0.0064051263
0002a0 45 f6 a0 3b 68 7b 72 3b c1 69 33 3e 94 b1 8c 3e
       0.00491217 0.0036999825 0.1752081 0.2747923
0002b0 4e e1 ab bd 31 8d 0b be 29 89 a3 bd c9 19 6c be
       -0.08392583 -0.13628079 -0.079851456 -0.23056711
0002c0 f9 f4 85 3c 62 bd 2f 3e 3f 04 86 b9 0f e3 bd be
       0.016352164 0.17162088 -0.00025561635 -0.37087294
0002d0 a9 7a fe bf 16 78 b0 3f 8f 51 05 be 99 2d bf bf
       -1.9881183 1.3786647 -0.13019393 -1.493579
0002e0 cc 7a 00 3f 18 65 90 be c8 63 c4 3e f1 b1 37 3f
       0.50187373 -0.28202128 0.38357377 0.7175589
0002f0 19 ad 83 bd 7a 25 f3 3c 58 4f 88 3d a0 7c 00 bd
       -0.064295 0.029680956 0.066557586 -0.03136885
000300 5a 0a 12 be c0 ac be bd 78 0a 80 be 80 42 9e 3e
       -0.14261761 -0.09310293 -0.25007987 0.3091011
000310 d5 2d 98 3e b6 27 22 be eb 53 96 be 3f ed 0c be
       0.29722467 -0.15835461 -0.293609 -0.13762377
000320 44 28 84 3e c7 05 47 bf b2 2d 94 3f 1f 66 46 bf
       0.2581197 -0.7774319 1.1576445 -0.77499574
000330 df b5 45 be 3e 0d a6 3f 4c e5 ab be 8a 86 c1 3d
       -0.1930766 1.2972791 -0.33573377 0.094494894
000340 c9 48 b8 be 16 c8 b0 bb 27 a2 8d be 39 47 b3 3e
       -0.3599303 -0.005394946 -0.27662775 0.35015276
000350 bd 59 25 3e 9f f8 b7 be 6f 9a 36 bf f4 bb a7 bd
       0.16147514 -0.3593187 -0.71329397 -0.08190146
000360 05 27 b6 bc 5d 62 9f be 96 ff 6e be ca d8 6d be
       -0.022235403 -0.31129733 -0.23339686 -0.2322723
000370 26 16 c2 3f a3 ce 95 bf 86 9b 05 bd 36 f8 87 3f
       1.5163009 -1.1703686 -0.03261902 1.0622623
000380 b4 8f 5e bf 60 00 93 3d 05 5e 5c be f0 79 df be
       -0.86938024 0.07177806 -0.2152024 -0.43647718
000390 25 25 97 3e c8 57 70 3c 9f 1a 85 bd 4f d6 4e be
       0.29520527 0.014669366 -0.06499218 -0.2019894
0003a0 66 08 c2 3d ff f3 a5 bd 18 a7 33 3f 91 2a 9f be
       0.09474258 -0.08103179 0.7017684 -0.31087163
0003b0 e5 cd 5c be 64 cb e4 3c 0a b6 19 be 76 73 77 3e
       -0.21562918 0.027929015 -0.15010849 0.24165139
0003c0 fe c8 db bf d3 28 d3 be 2e 2b 06 3e 16 d4 35 3f
       -1.7170713 -0.41242084 0.13102409 0.7102674
0003d0 4e 2e 29 be b0 ae 70 be 52 5b 60 bd 8c 6b 37 be
       -0.1652157 -0.23504138 -0.05477459 -0.1791212
0003e0 a0 f5 e4 3e 1e af 77 be f9 ff 4e bc b6 09 22 be
       0.44718647 -0.24187896 -0.012634271 -0.15824017
0003f0 00 88 08 3e ac 3b 89 3e 41 8f 98 bd 0f b2 79 bc
       0.1333313 0.2680334 -0.074491985 -0.015240206

bias f4 [20]
000000 d3 97 9e be 50 90 25 be 21 15 7e 3e 86 2e bd be
       -0.30975208 -0.16168332 0.24812748 -0.36949557
000010 e3 6e 1e be 04 e7 99 bc ab 95 8a 3e e3 05 d4 bd
       -0.15471987 -0.018786915 0.27067313 -0.10352685
000020 dd d3 84 3e a3 51 26 3e aa 10 4b be cd 05 4a be
       0.2594289 0.1624208 -0.19830576 -0.19728775
000030 94 b1 67 3e a7 1a 8d bc 8d 24 2d be f0 53 48 be
       0.22626334 -0.017224623 -0.16908474 -0.1956327
000040 2a df 67 3e 30 b4 8c 3c 02 86 45 bd c6 2e 57 bd
       0.22643724 0.017175764 -0.048223503 -0.05253484

weight f4 [20, 20]
000000 84 66 af bf 12 8b a2 bf 89 1d 83 bd ee 40 6f 3d
       -1.370316 -1.2698691 -0.06402118 0.05841153
000010 8d 56 99 3e 00 87 58 be 5f b6 15 3d 7e 59 af 3e
       0.29948846 -0.21145248 0.036550876 0.34247965
000020 e0 f1 52 3e f7 d1 69 be b6 f7 f1 3d b3 c1 da be
       0.2060008 -0.22834001 0.11814825 -0.42725906
000030 8b bb 4a 3e 26 1e d3 3d 26 e5 50 3d 56 88 36 bd
       0.19798104 0.10308485 0.050999783 -0.044563614
000040 c3 78 37 3e 94 5b 52 3e f2 00 e6 bd 6a ec cf 3e
       0.1791716 0.20542747 -0.11230649 0.40610057
000050 37 96 9e 3e 83 13 b5 bd 45 52 dc bd d9 0f 81 be
       0.3097398 -0.08841612 -0.10757879 -0.25207403
000060 24 23 15 3c 58 20 a7 bd 33 2b 6c 3d 90 89 03 3d
       0.009102616 -0.08160466 0.057658385 0.03211361
000070 f4 a0 8c bd e7 b2 c4 3e 39 9d fe bd 61 9e 05 bd
       -0.06866637 0.38417742 -0.124323316 -0.032621745
000080 9d 78 50 bd 9a 3c 38 3c 32 d4 8e 3d d7 af 83 3d
       -0.050896276 0.011244917 0.06974067 0.06430023
000090 6d 80 d0 be 1e fb 64 be b4 3a 85 3d 30 d8 84 3e
       -0.4072298 -0.22361419 0.06505337 0.25946188
0000a0 7d 81 a7 3f e7 9a b2 3f 02 7a d8 bd 02 38 8a 3e
       1.3086392 1.3953522 -0.10570146 0.26995856
0000b0 be dc 55 be e5 0a ac be 9b bc 87 3e 68 f8 21 bf
       -0.20884988 -0.33602062 0.26511082 -0.6326966
0000c0 77 5c b0 3e bc 0b b6 bd 31 ff ca 3d 60 37 0d 3e
       0.34445545 -0.08888957 0.09911955 0.13790655
0000d0 bc 3f 05 be 2d 3a e2 bd fa 93 5c 3e 8d fc 74 bd
       -0.13012594 -0.110462524 0.21540824 -0.059811164
0000e0 81 a3 4d 3e da a2 70 bd 6a a0 4f 3e e9 a4 8a be
       0.20081903 -0.058749057 0.20276037 -0.2707894
0000f0 a0 dd 8f 3f eb b6 6d bf 2b b7 cd bb a6 15 de bd
       1.123951 -0.92857236 -0.006277939 -0.10843973
000100 30 b1 12 be bf f3 22 3f fa 89 a1 3d 69 eb a3 3d
       -0.14325404 0.6365318 0.07887645 0.08003885
000110 70 de 1b be 7a 04 02 be c9 51 d6 3e 74 4e db 3d
       -0.15221572 -0.1269702 0.41859272 0.10708323
000120 f7 3e 88 3e 94 8d 7b be be b7 10 bc ff c0 e5 3b
       0.26610538 -0.24565727 -0.00883287 0.0070115323
000130 a3 59 e2 3e 56 32 88 be 6f b7 cd be 0b 1c d4 3d
       0.44209012 -0.26600903 -0.4017901 0.10356911
000140 2f 01 82 3f a9 ca e5 bf d0 03 3e bf 3c 2b 7f 3f
       1.0156611 -1.7952472 -0.7422457 0.99675345
000150 e5 f3 85 be a0 d7 bf be c8 95 e0 bd 5c 10 fd be
       -0.2616264 -0.37469196 -0.109660685 -0.49426544
000160 f7 87 1e 3f 1d af 6e 3d 45 5a 64 be c3 6a 29 3d
       0.61926216 0.05827247 -0.2230006 0.04136158
000170 78 51 ca 3e d0 0c 94 3e 55 97 27 3b e4 78 a7 be
       0.3951528 0.28916025 0.0025572379 -0.3270942
000180 88 be f8 be 23 6d bc 3b aa f2 00 3e bd a4 f4 bd
       -0.48582864 0.005750315 0.12592569 -0.11945484
000190 bf a9 da bf af 8f 9d be d8 2b ae 3f c3 6a 1d 3e
       -1.7083052 -0.30773684 1.360713 0.15372758
0001a0 06 f2 f3 3d bd ac e0 3e 36 13 34 be af 5e a4 be
       0.11911397 0.4388179 -0.17585453 -0.32103488
0001b0 3d d1 4f be f0 ea dc 3d 57 af 2e be e0 de a1 be
       -0.20294662 0.10786998 -0.17059074 -0.31615353
0001c0 79 60 c2 be 8f 86 d6 3d 2e e2 0b bf 56 0d aa 3d
       -0.37964228 0.10474884 -0.54642 0.08303325
0001d0 49 bd c6 3e 43 b1 4a be 8b 24 c0 be 50 33 98 be
       0.38816288 -0.19794182 -0.3752788 -0.29726648
0001e0 a1 3f ca 3f 33 ae cd 3e a9 63 33 3f ac d5 1a 3f
       1.5800668 0.40171966 0.70073944 0.6048229
0001f0 40 22 1c bf 85 f6 e6 3e 44 9a 0a bf 82 ac 0e bf
       -0.6098976 0.45109954 -0.5414164 -0.55731976
000200 93 d8 e6 bd a4 db 93 bc 77 8c 9a bd d5 e5 ff bd
       -0.11271777 -0.018049069 -0.07546323 -0.12495009
000210 93 00 93 be 70 68 b3 be c5 09 ae 3e a6 ba 35 ba
       -0.28711376 -0.35040617 0.3399183 -0.0006932415
000220 0b 91 9b be 2a 23 c7 be 04 8f dc bd 2a 9e 04 be
       -0.30384097 -0.38894016 -0.107694656 -0.1295096
000230 a2 e8 01 40 c3 25 cc be 56 08 86 bf 0e 83 80 bf
       2.0298238 -0.3987256 -1.0471294 -1.0039995
000240 13 bc 89 bd 8a 3c a9 3e b9 78 03 3e 91 f9 81 3e
       -0.067253254 0.33054 0.12839021 0.25385717
000250 e9 d8 96 be f0 59 bf bd 1a 0c 8e 3e 8c 7f 61 3f
       -0.29462364 -0.09343326 0.27743608 0.88085246
000260 40 4b 4c 3e 56 fa 65 bd 22 10 2d 3e 56 9c cf bd
       0.1995058 -0.056146942 0.16900685 -0.101372406
000270 20 fa bd be 41 82 4c be 8d 55 dc bd 7c 2d 6f 3e
       -0.37104893 -0.19971563 -0.10758505 0.23357195
000280 4b 40 37 3f 21 23 8d be 72 a2 49 bf 71 41 39 bf
       0.7158248 -0.27565864 -0.78763497 -0.7236548
000290 ac 7e ef 3e 99 86 c9 bd f2 06 8b bc 11 2c 23 bd
       0.4677633 -0.098401256 -0.016971085 -0.039836947
0002a0 df f2 56 3d 3b cb 88 3d fe 45 18 3e f1 b3 e0 3e
       0.052477714 0.06679388 0.1487045 0.43887284
0002b0 f2 3e da 3a cb 23 43 3e 6d 96 0d 3e a0 7b 17 3d
       0.0016650839 0.19056623 0.13826914 0.036983132
0002c0 ad 64 6b be 7f 82 8e bd 17 2c 8e 3e 2e 8b 47 3e
       -0.22987624 -0.06958484 0.27768013 0.19486687
0002d0 b8 be d8 be 85 9c 0a 40 78 0f 37 bf 02 0b ac bf
       -0.42333007 2.1658032 -0.7150798 -1.3440859
0002e0 de 96 2f 3f ed 25 77 bd a2 49 dc 3e 11 d3 98 be
       0.6858958 -0.060338903 0.43024927 -0.2984853
0002f0 12 d6 81 bd 45 5e 98 bd ff af 81 3e bb 1f 74 3e
       -0.06339659 -0.074398555 0.25329587 0.23840229
000300 c3 d3 29 be 68 f3 c9 3e c5 85 e7 be 49 26 6b be
       -0.16584687 0.39443517 -0.45219246 -0.22963823
000310 1f 86 40 3e a5 4a 6b b8 8f 18 d4 3d 58 4e 7b be
       0.18801163 -5.6097884e-05 0.10356247 -0.24541605
000320 6e eb ef be b9 08 27 bf 1e 4e e8 3e f2 01 13 bf
       -0.46859306 -0.65247685 0.453721 -0.57424843
000330 de a9 70 3e 98 a0 8a 3f 39 98 9e be 0c 19 08 3f
       0.23502299 1.0830259 -0.30975512 0.5316322
000340 3f 01 46 bf db 42 a6 3d 72 7c 07 3e 04 e2 18 3d
       -0.7734565 0.081182204 0.13231066 0.03732492
000350 3c 10 48 be 75 62 0a bd 13 27 8c be 72 9b db 3e
       -0.19537443 -0.033785302 -0.2737356 0.42892033
000360 c4 61 09 3e 21 eb d8 bc 19 ef 07 bf 0b ac 12 be
       0.13416201 -0.026479306 -0.5309921 -0.14323442
000370 55 3e 77 3e 56 41 b2 bf 7c 46 d4 3e 63 16 9d 3f
       0.24144872 -1.3926189 0.41460025 1.2272457
000380 f5 a7 4c be 9e 38 a8 3e d9 3f 62 be 6e d1 fa 3d
       -0.19985946 0.32855695 -0.22094668 0.12246977
000390 e2 1c 17 3e 83 1a 0e 3e ba 86 87 be d1 39 ef bd
       0.14757112 0.13877301 -0.26469976 -0.116809495
0003a0 95 43 c2 3e 51 1a 02 be d7 2a 12 3b de af 9a 3d
       0.37942186 -0.12705351 0.0022303367 0.07553075
0003b0 a7 de 8e bc c6 ad 76 be 7c b2 13 3d 80 54 0a be
       -0.017440153 -0.24089727 0.036058888 -0.13508797
0003c0 dd 2d 9a bf 91 f8 70 3f 44 f1 77 3e 66 44 d8 3e
       -1.2045246 0.9412928 0.2421313 0.42239684
0003d0 ac 1f 1a bd 53 e4 b5 be 6f f1 d4 3d c8 2e 98 3e
       -0.03762786 -0.3552576 0.10397612 0.2972319
0003e0 6a c6 28 bd 11 ea af 3e 71 6c 64 be 15 22 29 bf
       -0.041204847 0.34358266 -0.22306992 -0.6606763
0003f0 19 ed 84 bd fb 63 08 3e 8c 7e 84 3e e2 e9 01 3d
       -0.06490535 0.1331939 0.25877798 0.03171719

bias f4 [20]
000000 86 ad 96 3d fc 66 04 bd d1 84 07 3e 45 50 ea 3e
       0.07357316 -0.032324776 0.13234259 0.45764366
000010 86 e3 9d 3e d5 e3 80 3d 24 ec 86 3e 21 c7 cf 3e
       0.3083765 0.062934555 0.26352036 0.4058161
000020 9d 93 08 3d 51 cb b0 be 53 87 48 3d 8d 85 cf 3e
       0.0333439 -0.34530118 0.04895718 0.4053158
000030 75 e7 4e be 11 f1 07 be c6 96 63 be 4e bd 48 3d
       -0.20205481 -0.13275553 -0.22225484 0.04900866
000040 93 54 fc 3d 39 e1 06 3e c7 6b e2 3e 89 3b 5e 3e
       0.12320819 0.13171853 0.44222853 0.21702398

weight f4 [20, 20]
000000 cb 30 77 3e dc 5f f0 be 9b 0d a6 bd e8 e6 ea 3d
       0.24139707 -0.46948135 -0.08108064 0.11469823
000010 40 c9 0b be dd a8 7f 3d 59 6a a7 be 13 b0 4a be
       -0.1365099 0.0624169 -0.32698324 -0.1979373
000020 6a f4 9d 3e 8a df c6 3c 51 9c 82 3e ea 7a 82 3e
       0.30850536 0.024276514 0.25509885 0.254844
000030 8d db 1c 3b a0 82 a0 be 9e f4 1e 3f 88 64 3e be
       0.0023934573 -0.3134966 0.62092006 -0.18593037
000040 42 3b 5c be 01 6c eb bd fe fe 64 3c 8b 4d 93 3b
       -0.2150698 -0.114952095 0.0139768105 0.004495328
000050 d1 10 09 3f f6 7d 49 3f 07 3b 5b be 34 29 03 be
       0.53541285 0.78707826 -0.21409236 -0.12808686
000060 78 1a 4a be 60 2d 1e be ac 98 8a 3e 29 6f 08 be
       -0.1973666 -0.15446997 0.27069604 -0.13323654
000070 1f d4 55 be ff 92 a9 be 7e 74 56 3e 39 b4 08 3e
       -0.20881699 -0.33119962 0.20942876 0.1335
000080 0a e1 bf bb f4 16 a9 3d 9e fa 97 3d 86 68 45 3d
       -0.005855684 0.08256331 0.07420848 0.048195384
000090 36 82 27 be 79 b9 44 be 6a 7b 81 3e 01 21 b6 be
       -0.16358265 -0.19211377 0.2528947 -0.35572055
0000a0 4f 8b 4c 3e 79 88 1e 3c fb 75 b2 be a5 c9 ec be
       0.19975017 0.009676092 -0.34855637 -0.46247593
0000b0 88 91 a5 be b1 17 ce bd 67 50 f2 be e6 28 4b bb
       -0.32337594 -0.100631125 -0.47326967 -0.003099972
0000c0 95 3f a9 bb 57 9b 24 bd 90 a0 e1 3e 57 0d 4d be
       -0.0051650503 -0.040187206 0.44067812 -0.2002462
0000d0 5e 76 75 bf 62 81 52 3e 20 1d 35 3f 51 52 6c 3e
       -0.9588374 0.20557168 0.70747566 0.23078276
0000e0 21 e9 cd be c0 b8 a0 3e 67 d1 9d 3e e6 c6 f7 be
       -0.40216926 0.31390953 0.30823824 -0.48393935
0000f0 05 ac 83 bd 04 98 aa bd f4 d3 17 3e 93 f2 58 bd
       -0.064292945 -0.08329776 0.14826947 -0.05296571
000100 23 4b 09 bf e9 44 a1 3e b8 27 22 3e 2f 1e 86 bc
       -0.53630275 0.31497887 0.15835464 -0.016371815
000110 bb f9 ca be 20 19 5c be 40 c4 e8 be 58 b6 11 bf
       -0.39643654 -0.2149396 -0.45462227 -0.5691886
000120 53 df a8 3e c9 5d dd 3d c2 8e 99 bd da 32 0e be
       0.32982883 0.10808904 -0.07497932 -0.13886586
000130 8c 98 f2 3e 9a 94 38 3e 7c 8b 55 3e 80 14 f1 bd
       0.4738201 0.18025437 0.2085399 -0.11771488
000140 6d fc ba be ae d6 91 bd f6 93 92 be d9 4a fe 3e
       -0.3652071 -0.07121025 -0.2862851 0.4966648
000150 cf a6 a0 be f9 46 4d 3e 46 4d 7a bd 79 ea 14 bd
       -0.31377265 0.20046605 -0.06110885 -0.036356423
000160 58 89 32 bf 3b e2 ad be 4d fb 97 3d bd c1 a5 be
       -0.6974082 -0.33961663 0.07420979 -0.32374373
000170 47 78 5f 3e 53 f1 a7 3e 08 09 2c 3f 22 bc bf 3e
       0.21823226 0.32801303 0.6720128 0.3744822
000180 c3 cb 18 bf cd 28 b8 be 66 3f 29 bf 4b ca 67 bf
       -0.59685916 -0.3596863 -0.66112363 -0.9054305
000190 eb ea 12 be cb c2 bb 3e 2d 5a af 3e b8 2a e3 3d
       -0.14347427 0.36672053 0.34248486 0.11092132
0001a0 b1 02 07 be 7c 1a c6 be 0f d5 14 3e 14 9b aa be
       -0.1318462 -0.3869208 0.145344 -0.3332144
0001b0 ea f4 be be a3 cc 8e be a7 19 81 3f e7 aa 39 be
       -0.3729623 -0.278905 1.0085953 -0.181316
0001c0 c4 62 04 be 48 f2 7b bd 6e 43 9a 3e 2c 30 a0 3e
       -0.12928301 -0.061510354 0.3012957 0.31286752
0001d0 06 2d 3e 3f 23 ab 4d be ed 00 3e bf ab 4f b1 3d
       0.7428745 -0.20084815 -0.7422016 0.086577736
0001e0 28 d9 a8 bc 30 e2 43 3e 7e 09 78 be f7 e7 dc bd
       -0.02061136 0.19129252 -0.24222371 -0.10786431
0001f0 43 0b 01 be 2c 3b 72 be 70 ab 18 bf b9 86 03 bf
       -0.12601952 -0.23655385 -0.5963659 -0.51377445
000200 f2 6a b7 be 83 84 ec 3e 9e 04 3a be ac 26 18 bf
       -0.3582378 0.46194848 -0.18165824 -0.5943401
000210 a3 91 7c be 30 27 c8 be 6c bc 00 3f 36 0d 74 3e
       -0.24664931 -0.39092398 0.5028751 0.23833165
000220 7b 58 b9 3e bd bc 4b be 29 91 5d bf d6 55 e8 3d
       0.36200318 -0.19896217 -0.8654962 0.11344497
000230 b0 09 9f be c9 d5 8e bc b5 82 83 3e a4 1f a8 3e
       -0.31062078 -0.017435925 0.2568566 0.3283664
000240 2a 4f 33 3f 3c 2e 96 3e 6c 9e c3 bd e0 1d 82 be
       0.7004267 0.2933215 -0.09551701 -0.25413418
000250 3a eb 69 3f 29 61 8e 3e 01 75 00 3f 36 88 0a 3d
       0.9137455 0.27808502 0.50178534 0.033821307
000260 6d 35 56 be 65 aa 9e 3d 82 47 25 bc dc ae d8 be
       -0.20918818 0.07747344 -0.01008785 -0.42320907
000270 b0 9f 33 bf 0b 2e ba be 3d f2 b5 3e 75 fc 15 3f
       -0.7016554 -0.36363253 0.35536376 0.58588344
000280 9a 36 5e be 29 13 80 be d0 bd a9 be f7 58 8a bd
       -0.21700516 -0.25014618 -0.33152628 -0.0675525
000290 ce 29 91 be 74 0a 59 bd ab d1 21 3e 17 83 c2 bd
       -0.28352207 -0.052988485 0.15802638 -0.0949766
0002a0 cf 73 78 bf b2 91 4a 3e 34 d0 3f be 7f de 89 bd
       -0.9705171 0.19782141 -0.18731767 -0.06731891
0002b0 06 0a f1 3d 66 55 92 3e 42 3f 5f bd 41 7b 84 3d
       0.1176949 0.2858078 -0.054503687 0.06468821
0002c0 4f 00 0a 3e ca 70 04 3d e5 a0 4a 3f f9 a1 fa be
       0.1347668 0.032334127 0.79151756 -0.489517
0002d0 9c 8f f5 be b4 d2 6d 3e 87 4c 52 3e 9e 98 a7 be
       -0.47961128 0.23224908 0.20537005 -0.32733625
0002e0 c9 ca 06 bd 05 56 46 3d 8a b1 f0 bb 44 5d 10 be
       -0.032908235 0.04842188 -0.007345383 -0.14098078
0002f0 97 3e fc 3e 59 10 5e 3d d9 7a a1 be 94 f2 71 be
       0.49266502 0.05421481 -0.31539038 -0.23627692
000300 2a 50 9a 3f b0 62 24 bf c5 3b 05 3e d9 75 1c 3e
       1.2055714 -0.64213085 0.13011082 0.1527933
000310 03 96 77 bb 3a ae 4a be e1 7c a6 3e 98 ee 71 3e
       -0.0037778623 -0.19793025 0.3251715 0.23626173
000320 69 4f ce bd 1c c5 a3 be 61 e0 87 3e 0b 78 56 bf
       -0.1007374 -0.3198632 0.26538375 -0.8377692
000330 c9 76 09 3f dc 00 5f 3d 18 77 79 be 7e e3 86 bd
       0.53696877 0.05444418 -0.24361837 -0.065863594
000340 81 be 00 3e 41 0a e2 3e 92 8a 44 bd 7b 64 9c be
       0.12572671 0.44148448 -0.047983713 -0.3054541
000350 1f 58 5a be fc 4c ab be 44 48 45 3e f0 19 d6 be
       -0.21322678 -0.33457172 0.19265848 -0.41816664
000360 4b 68 9e be 33 f8 03 be 1b 12 ac 3e cf 58 ea bc
       -0.30938944 -0.12887649 0.33607563 -0.0286068
000370 fe 22 31 3e 36 26 85 be 58 31 cb be 64 a2 21 be
       0.17298505 -0.26005715 -0.39686084 -0.15784603
000380 55 4d 82 bd 30 7b 9b 3e 56 fe 15 3f bc 46 ac bb
       -0.06362406 0.30367422 0.5859121 -0.0052574556
000390 e9 91 a7 3f da b1 57 bf d9 a2 4b 3e b8 a3 06 bf
       1.3091403 -0.84255755 0.1988634 -0.52593565
0003a0 85 84 b7 3e a7 ab 11 bd 80 91 6f 3e 84 b1 89 3e
       0.35843292 -0.03556409 0.23395348 0.26893246
0003b0 21 8b c8 be 21 7e 73 3d a0 5b d8 3e 38 47 dd be
       -0.39168647 0.059446458 0.42257404 -0.43218398
0003c0 75 d6 93 be 20 db 1a bf 30 5c 6d 3e 30 31 1e bd
       -0.28874555 -0.6049061 0.23179698 -0.038621128
0003d0 01 91 da be c5 b4 81 3d e6 9c 17 3e 9b 3b 62 bd
       -0.42688754 0.06333307 0.14805946 -0.055232625
0003e0 8a 75 1a 3f 96 45 16 3e 81 22 31 3e a5 f0 c9 3e
       0.603356 0.14674982 0.17298318 0.3944141
0003f0 11 45 13 bf ea 80 f8 3c be f3 10 bf 05 5b 28 3e
       -0.5752726 0.030334909 -0.5662192 0.16440971

bias f4 [20]
000000 3c 64 01 be 4a 1b 8e 3e 5f 43 91 bd a9 20 09 3d
       -0.12635893 0.27755195 -0.07092928 0.033478413
000010 0c 5a e8 bc 66 8c 7d bd dc 92 59 be 7a 4c 36 bd
       -0.02836325 -0.061901473 -0.21247429 -0.044506527
000020 b8 c0 e5 bd e8 a1 b2 bd 05 2c 58 3e 26 c4 71 be
       -0.11218399 -0.087222874 0.21110542 -0.23609981
000030 48 b8 9c 3d fc cf 2e be 52 8c 3b bd 5d 92 a3 be
       0.07652336 -0.17071527 -0.045788117 -0.31947604
000040 0b 4a 30 3e 58 97 33 be f0 02 7c 3e 71 10 1e 3e
       0.17215745 -0.17538202 0.24610496 0.1543596

weight f4 [20, 20]
000000 92 6b 9d bd 56 d7 a6 be 2f 92 90 3d b8 55 c6 bd
       -0.07686533 -0.32586163 0.07059132 -0.09684318
000010 e8 47 4d 3e 9d 57 f3 3d f7 fb c5 3d 2c 9f 6c bd
       0.20046961 0.11881945 0.09667199 -0.057768986
000020 78 4e 06 3e fe 50 5a 3d f3 da d4 bd 2d 3b 3e be
       0.13115871 0.053299896 -0.10393324 -0.18577261
000030 54 97 c0 bd 3e 54 93 bd 4f fb 94 bd 82 1b b7 3c
       -0.094038635 -0.07193802 -0.07274496 0.022351984
000040 2e cc 8a bc 96 35 5d bd c5 c8 61 be 71 45 fc bc
       -0.016943064 -0.05400618 -0.22049244 -0.030794831
000050 52 25 01 be ea 61 16 3e 20 5d 47 3e e7 ca 4a 3c
       -0.12611893 0.14685789 0.19469118 0.012377477
000060 82 7f 11 be 1b 9e 3f be 2e d5 56 3d 4c 28 31 bd
       -0.14208797 -0.18712656 0.052449398 -0.04325132
000070 21 50 5d be 85 33 82 bd 9c 50 58 bd 94 07 ed 39
       -0.21612598 -0.06357483 -0.05281125 0.0004520981
000080 a4 75 b8 3d 29 58 a0 bd 01 96 c6 bd 46 cd 1a 3e
       0.09006813 -0.07829315 -0.0969658 0.15117368
000090 ed e3 e9 bc 46 ec 2c be a3 ed 41 bd b7 b6 a5 3d
       -0.028551066 -0.16887006 -0.04734577 0.08091491
0000a0 05 27 cc 3b 5f 64 8f 3d 7c ca b4 bd 38 6a 24 3e
       0.0062302374 0.07001566 -0.08827683 0.16056144
0000b0 bd 53 98 be 02 c1 b9 bd 78 a8 a7 bd 7e 4c 49 3e
       -0.29751387 -0.090700164 -0.0818643 0.19658086
0000c0 1f a6 e6 bd 7d 87 4e 3e ef ed 94 3c 18 f7 45 bc
       -0.11262154 0.20168872 0.018179862 -0.0120828375
0000d0 f8 29 a5 bd fe 06 7f be 8d b1 30 bd de c9 ec 3d
       -0.080646455 -0.24905011 -0.043138076 0.115619406
0000e0 11 1c 83 3d ac d3 6f 3e 13 3a 46 3d 1d 04 7f bd
       0.064018376 0.2342059 0.048395228 -0.062259782
0000f0 6c 0b b2 3c 9b 42 e0 3d d4 21 46 3e 53 d2 97 3d
       0.021733962 0.10950204 0.19348842 0.07413163
000100 ed c9 bf bd 62 3f d6 bd df 47 98 bd 42 70 1c 3e
       -0.09364686 -0.10461308 -0.07435583 0.15277198
000110 53 2d d2 bd 92 d9 b4 3b 70 f4 63 3b 13 71 d0 bd
       -0.10262551 0.0055191005 0.0034783147 -0.10177817
000120 3d c7 42 3d 36 52 ae bd d0 3c e3 3c 19 bb 3e 3d
       0.04755329 -0.08511774 0.027738959 0.04656515
000130 5f cd 15 3e c3 22 32 3d c4 80 6b bc c1 f6 22 be
       0.14629124 0.043490183 -0.014373962 -0.15914442
000140 a3 7a 69 bc 0a cd 9f 3e dd 3d f9 bd f7 c3 15 3e
       -0.01425043 0.3121112 -0.121700026 0.14625536
000150 39 98 23 3b f8 c6 1f 3d fa b2 06 be 74 c2 ff 3c
       0.0024962558 0.03900811 -0.13154212 0.031220652
000160 00 24 9b bd 63 0d 82 bd 93 5d 06 3d 22 48 e6 3b
       -0.07575226 -0.063502096 0.032804083 0.007027642
000170 96 70 4a be 0b 8f 83 be 7c 43 e4 3d ee c7 38 be
       -0.1976951 -0.2569507 0.11145684 -0.18045017
000180 25 bf 7b 3d 2d ee 78 3d 98 09 54 bc de 95 24 3e
       0.061461587 0.060774017 -0.01294174 0.16072795
000190 d1 76 56 bd 1b b3 b1 3d 0a a3 d8 bd 6f 74 92 3d
       -0.052359406 0.0867674 -0.10577972 0.07151114
0001a0 34 85 fa ba 10 c1 e4 bc d7 05 a1 bd 70 4d de bc
       -0.0019113184 -0.02792409 -0.07862442 -0.027136534
0001b0 7b d6 83 be 77 ac 2f bd d5 e3 45 3d 24 2c 92 3c
       -0.25749573 -0.042889085 0.04831298 0.017843314
0001c0 7c 99 55 bd 38 da fa bd 65 34 af bd 8d 0d 0e bd
       -0.052148327 -0.12248653 -0.08554915 -0.03468089
0001d0 8f ce ae 3d 35 7a de 3d 15 fb 96 bd d0 00 9f 3d
       0.08535492 0.10863153 -0.07372109 0.07763827
0001e0 40 44 8e 3d 1a 21 03 bd 17 f7 fa b8 82 87 b6 3c
       0.069466114 -0.03201399 -0.00011966953 0.022281412
0001f0 45 6c 85 be 00 04 1c be 7d f8 3b bd ad 2a 83 3c
       -0.26059166 -0.15235901 -0.045891274 0.01601156
000200 46 ca 3b bb 01 0d 84 3c d1 5a ba bd 9e 89 67 bd
       -0.00286545 0.016119482 -0.09099353 -0.056527726
000210 90 34 bd bd 9b 42 cb bd 54 55 ff 3d 5a 61 b3 bd
       -0.09238541 -0.09924813 0.12467447 -0.08758803
000220 8a 15 16 bd e2 87 cd 3b ec 2f 28 bd 7c bb 4a 3e
       -0.036641635 0.006272302 -0.041061327 0.19798082
000230 c0 44 50 bc 3b 05 eb bd 09 7d a0 3d 33 09 4e be
       -0.012711704 -0.11475607 0.078363486 -0.20120697
000240 3e 66 18 3e d5 db d0 3d 8a e0 6d 3d 23 01 8a be
       0.14882752 0.1019818 0.058075465 -0.26953992
000250 be 8c 2d 3e f9 0b 22 bd 02 01 d9 3c b0 c3 c8 3d
       0.1694822 -0.0395622 0.026489738 0.098029494
000260 66 b3 50 bd 5b 68 a4 3e 69 f7 b0 bd eb 8d bb 3d
       -0.050952338 0.32110867 -0.0864094 0.09157928
000270 cc 71 2c 3c aa c9 1c be 8b b3 40 3e 78 97 1a be
       0.010525178 -0.15311304 0.1881849 -0.15096843
000280 53 90 f8 3d 65 20 88 bd 96 9f f1 bd fc 47 8f be
       0.12136903 -0.06646804 -0.11798017 -0.27984607
000290 3a b0 09 bd ba fa 49 bd 28 12 9f 3d 4c 75 d0 bd
       -0.03361533 -0.049311377 0.07767135 -0.101786226
0002a0 5b a9 10 bd d1 9c 03 3d 80 9d 34 3e 15 4e 1c bd
       -0.03531776 0.032131974 0.17638206 -0.038160402
0002b0 9a 03 09 be 43 06 14 bd 46 23 17 be 39 21 0d 3e
       -0.1338028 -0.036138784 -0.1475955 0.13782205
0002c0 67 3d 41 bd 4f d9 67 be b3 19 a0 be 8c 34 82 3d
       -0.0471777 -0.2264149 -0.31269607 0.06357679
0002d0 ce b6 96 bc 58 70 95 3d 92 88 dc bc b0 43 0d 3d
       -0.018397715 0.072968185 -0.02692059 0.03448838
0002e0 7d 0c fe 3c a7 5a 1e 3d 3b 44 9c bd b1 88 59 be
       0.031011814 0.03866067 -0.076302014 -0.2124355
0002f0 fb 76 1b 3d f7 6b 55 be ed 01 bf bd 01 a4 c5 3d
       0.037955265 -0.20841967 -0.09326539 0.09650422
000300 60 ef e4 3d f4 60 42 3d 0e 03 79 bb d5 61 79 bd
       0.1117847 0.047455743 -0.0037996206 -0.060884316
000310 fb cd 37 3d 37 ab bc bd 78 82 c0 bc b0 9d b7 bd
       0.044874173 -0.09212344 -0.023499712 -0.089656234
000320 5b a0 51 bd a1 59 3a 3d 30 0a 78 3d 67 62 9c 3d
       -0.051178318 0.045495633 0.06055659 0.07635956
000330 df a3 30 be d2 6b 54 be 68 83 2f 3d 86 7c 2b 3e
       -0.17250012 -0.20744255 0.04284993 0.1674672
000340 66 5b 4f bb f2 19 16 bd ba b3 56 3d cd f7 66 bd
       -0.003164017 -0.036645837 0.052417494 -0.056388665
000350 b8 1c ac bd 43 fc 81 be 34 78 19 be 93 87 ac 3d
       -0.08403915 -0.25387773 -0.1498726 0.08424296
000360 4f 1b 08 be 8a 65 43 bc 7e 07 a6 bd 67 83 09 bc
       -0.13291667 -0.011926064 -0.08106898 -0.008393145
000370 ae 90 7f bd db 5b 83 3e b1 3e fe 3b 09 e4 ad 3d
       -0.062393837 0.25656018 0.0077589382 0.0849076
000380 04 8f d8 3c b3 53 05 be 22 cd 8b 3d fc 48 d9 bc
       0.026435383 -0.1302021 0.06826235 -0.02652406
000390 2c ec 8f 3d 6b ed 8b 3d 22 5a 5a be ba ef 21 bc
       0.07027468 0.06832393 -0.21323445 -0.009883815
0003a0 57 62 53 bc ee a3 19 bd 7e 7c b5 3d d2 19 55 bd
       -0.012901864 -0.03750985 0.088616356 -0.052026577
0003b0 9b 0b f6 3d a6 26 1e 3d ce 68 76 3e 09 cc 00 3c
       0.12013932 0.038611077 0.24063417 0.007861146
0003c0 49 c4 65 bc be 66 46 bd a3 4c d9 bd 40 f9 87 bd
       -0.014023849 -0.048437826 -0.106103204 -0.066393375
0003d0 9f 8f 98 bd a6 e9 02 3e 00 eb 91 bd 5d 2d 4d 3e
       -0.074492685 0.12784442 -0.07124901 0.20036836
0003e0 8c 51 e9 3d 64 ef 05 3c b0 a4 95 3e d3 34 b3 3d
       0.11392507 0.008174751 0.2922721 0.0875031
0003f0 af 1e 1f bd 6c 61 b3 be 3f 15 7c 3e 42 f8 53 be
       -0.03884762 -0.35035264 0.2461748 -0.20700172

bias f4 [20]
000000 5a 37 14 bf 75 02 b8 3e 5f 0c c1 3e 4c 0d 52 3c
       -0.5789696 0.35939375 0.3770475 0.012820553
000010 0b e9 81 3e fe a6 97 3d 1f 32 07 be fc 20 1c bf
       0.2537311 0.07404898 -0.13202713 -0.6098783
000020 05 c7 21 bc 9a 2b da 3d 17 50 e7 3e a5 88 7d 3e
       -0.00987411 0.106528476 0.4517829 0.24759157
000030 a0 2e 92 3e ab ff 2c 3f db 9e 92 be 76 7a 47 3f
       0.28551197 0.6757762 -0.28636822 0.77921236
000040 12 25 9e be ed c6 60 be 74 81 2b bf 91 4e db 3d
       -0.30887657 -0.21950884 -0.66994405 0.10708345

weight f4 [20, 20]
000000 69 ba 6d be 3c af 31 3d 3c 1a fe bd d6 ba 5f 3e
       -0.23215641 0.043380007 -0.124073476 0.21848616
000010 1e 69 be 3d 35 8b 5d 3e f4 85 48 bd 7b 6f 1d 3e
       0.09297393 0.21635135 -0.048955873 0.15374558
000020 e1 9a b3 bd 4c 93 57 bd 15 6c 0d be ad f5 e6 3c
       -0.08769775 -0.052630708 -0.13810761 0.02819332
000030 de 31 83 3d 02 74 df bd 68 01 96 bc 04 a8 95 bd
       0.06405996 -0.109107986 -0.018311217 -0.07307437
000040 cd 42 44 bd 5b 31 7d 3e 89 d6 bf bd 4d 5a 03 bd
       -0.04791527 0.24725859 -0.09367091 -0.03206854
000050 3c c4 4d 3e f6 67 8c bb be 65 ce bd d4 15 83 bd
       0.20094389 -0.004284854 -0.100779995 -0.06400648
000060 1d 92 1d be 8f 0e c1 3d 2d ed 80 bd 46 c1 28 bc
       -0.15387769 0.09426605 -0.06295238 -0.010299986
000070 64 39 20 3d 12 51 b0 3d ec ea 82 bc 7f 88 e8 3d
       0.039117232 0.08609213 -0.01598116 0.113541596
000080 28 6f 94 be c7 52 51 3e 04 73 d6 3d fa 7d 49 bd
       -0.28991055 0.20441733 0.10471156 -0.049192406
000090 9d 1f be 3d 7f 41 d3 bd 99 ec 65 3d d4 fb 0e 3e
       0.092833735 -0.10315227 0.05613384 0.13963252
0000a0 b9 28 83 3d a2 05 4d 3d 37 9d 61 bc c4 cf fc bd
       0.064042516 0.0500542 -0.013770393 -0.12344316
0000b0 6c 92 05 3e 14 3c 9f 3d 43 b1 3b bd 28 31 89 be
       0.13044137 0.07775131 -0.045823347 -0.26795316
0000c0 6a 11 ca bd 3f b6 00 3e 2f a2 c2 bb 93 89 c0 bc
       -0.09866603 0.12569521 -0.005939744 -0.0235031
0000d0 70 56 b3 bd 99 8d 42 bd b1 f0 01 3e 09 cc 9c 3e
       -0.08756721 -0.04749832 0.12689473 0.30624416
0000e0 2a 3e 18 be fb 59 e4 bd b4 07 50 3e 66 a5 82 3c
       -0.14867464 -0.11149975 0.20315439 0.015948009
0000f0 20 a6 84 3e 2c 95 e3 3c 06 0d 09 be d1 0a 95 bd
       0.25907993 0.027781092 -0.13383874 -0.07277454
000100 b0 03 b3 3d 98 b8 35 3d 24 c6 7a bd af e7 03 bd
       0.08740938 0.044365495 -0.061224118 -0.032203373
000110 e7 e0 10 be b6 53 0a be bd 29 02 3c c2 f8 d9 bc
       -0.14148293 -0.13508496 0.0079445215 -0.026607875
000120 c7 6f ce 3d 61 2d 2a bc 71 7a 05 be 9b 4e 8f 3d
       0.100799136 -0.010386796 -0.13034989 0.06997415
000130 3a c5 8b 3c 84 23 04 bd f8 d9 35 3e a2 58 dd 3d
       0.017061818 -0.032260433 0.1775893 0.10807921
000140 db 5f fc 3c 3a 98 df bc c6 50 07 3e d5 cd c2 bc
       0.030807426 -0.027294267 0.13214406 -0.023779789
000150 21 e6 c0 bc d9 23 63 3e 2a d5 96 bd db 99 85 bd
       -0.023547234 0.22181644 -0.073648766 -0.06523486
000160 bf 3c c3 3d cc 4c 50 3d a6 10 a6 bd c1 bc b2 3d
       0.09533071 0.05085449 -0.08108644 0.08727408
000170 0e d7 28 3d 7d d3 bd 3d f1 67 22 be 74 92 3f 3e
       0.041220717 0.09268854 -0.15859963 0.18708211
000180 c0 53 0f 3d e4 1b ae bd d6 7e eb bc 34 ae e3 bc
       0.03499198 -0.085014135 -0.028747004 -0.027793027
000190 11 31 5d 3d 19 ae 9c 3d 7e c3 0f bd 8a dd 46 3d
       0.05400187 0.07650394 -0.035098545 0.04855112
0001a0 c5 0d 00 3d 30 33 42 3d 0d bc f5 3d 29 9b 70 bd
       0.03126313 0.047412097 0.119987585 -0.058741722
0001b0 75 bc 88 bc a2 e9 80 3d ac aa 21 be 04 21 25 3e
       -0.016691426 0.06294562 -0.15787762 0.16125876
0001c0 87 c3 80 3d 8e f5 e8 3d 8a 6f 4d bc ba 44 e6 3d
       0.06287294 0.11374961 -0.0125388 0.11243577
0001d0 fe f5 0b be 26 09 b1 3d 77 e3 12 be 4a d7 18 bd
       -0.13668057 0.08644323 -0.14344583 -0.03731469
0001e0 a5 5d b0 3c e2 45 62 bd 1e 24 52 be ca 22 37 bd
       0.021529028 -0.055242427 -0.2052159 -0.04471091
0001f0 e4 a2 ec 3d f2 c4 ea 3d 19 fb 2f bc 1d 9b 84 3d
       0.115545064 0.114633456 -0.010741019 0.06474898
000200 02 0c d6 bc fe 3a 0e 3e 36 8e 12 3e 4b 15 11 3d
       -0.026128773 0.13889691 0.14312062 0.035420697
000210 2c 06 19 3d 58 25 68 3d 4f d4 64 3d 34 1c ff bc
       0.0373594 0.05667624 0.055866536 -0.031141378
000220 5a d3 fb 3d 05 2a a0 3d 0c b4 9c 3d b3 9e 07 3d
       0.122961715 0.078205146 0.07651529 0.03311033
000230 87 c7 53 bd bc 5f 5b 3e e4 64 bf 3c 44 a0 19 bd
       -0.051703956 0.21423239 0.023363538 -0.037506357
000240 20 f2 0c bd 15 92 ea 3d 67 06 39 3e 29 92 47 3e
       -0.034410596 0.11453644 0.18068849 0.1948935
000250 9b 4b cf bd 55 17 62 bd be 24 de 3d 47 95 1e bd
       -0.101218425 -0.055198032 0.10846852 -0.03871658
000260 c0 61 9a 3e bd dd 33 bc ef 66 28 bc e5 c2 5c be
       0.30152702 -0.0109781595 -0.0102784475 -0.21558721
000270 02 9b 4d be b9 c7 1f 3e 3a 4f 48 bd 70 04 7f bd
       -0.20078662 0.15603532 -0.04890368 -0.06226009
000280 bf ef 48 3e 0e 7a e9 3c aa ec 5f be 26 2f 82 3d
       0.19622706 0.028500583 -0.21867624 0.06356649
000290 22 3e 87 bd 55 0d 21 3d 77 09 84 bd bc a9 77 3d
       -0.06603648 0.039319355 -0.06447118 0.060464606
0002a0 64 58 3d 3c 4d bf 25 3e 61 5e 13 be d5 53 8a be
       0.0115567185 0.16186257 -0.14391471 -0.27017084
0002b0 23 43 d5 bd 67 e9 08 3e 0c ff 7b 3d 7a dc 3c be
       -0.10413196 0.13370286 0.06152253 -0.1844348
0002c0 f2 95 21 3e 50 06 26 3e a3 cb 80 bc 15 54 9b 3d
       0.15779856 0.16213346 -0.015722102 0.07584397
0002d0 d4 5f 14 3e 43 0e cf bd 47 8a db 3c 5a 3b 72 bd
       0.1448968 -0.10110142 0.026799334 -0.059138633
0002e0 5c 39 09 be 0c 4a e8 bc 74 88 00 bc 15 3d 0c 3e
       -0.13400787 -0.02835562 -0.007845033 0.13695176
0002f0 c0 b2 4a 3d 85 30 1f be 10 0d 5f 3e 39 a6 e7 3d
       0.049486876 -0.15545852 0.21782327 0.11311001
000300 85 b1 48 bb 18 65 e0 3d e9 49 09 be 1c 39 84 bd
       -0.0030623388 0.10956782 -0.134071 -0.06456205
000310 8a 58 18 3d 09 3d 5c bd 1e ab d0 3b 29 73 59 bd
       0.037193812 -0.053769145 0.006368055 -0.05308834
000320 50 2d 87 3d 68 52 66 3d 43 0a 9f bd 77 41 83 bd
       0.066004395 0.056230932 -0.07765629 -0.06408971
000330 dd a5 ee 3b 67 8b a3 3d 37 81 ea bd 46 04 72 be
       0.007282956 0.07985573 -0.11450427 -0.23634443
000340 0e 68 e9 3d a5 4c 03 3e 4c 4b 16 3e 6d 47 10 3e
       0.113968 0.12822206 0.14677161 0.14089747
000350 1e d0 96 be 4b 36 fc 3b 2d 58 28 3d 29 ed f5 bb
       -0.29455656 0.007696902 0.041099716 -0.0075050783
000360 d0 87 bd 3d 61 38 01 be 5c 35 4a 3e 0e 90 93 bd
       0.0925442 -0.12619163 0.19746917 -0.072052106
000370 55 8f 0f bd dc 74 47 be c2 64 26 3d 3f 06 b9 bd
       -0.0350488 -0.19478172 0.040623434 -0.090343945
000380 84 f4 c6 3c a1 a9 b7 bd 0e f7 24 3d 07 45 21 3e
       0.024286516 -0.08967901 0.040274672 0.15748988
000390 28 91 10 be bc eb 1c be 12 7e 79 bd 08 10 3d 3d
       -0.14117873 -0.153243 -0.060911246 0.046157867
0003a0 54 f9 56 3d 8c 1f 21 3c e8 d1 05 3e 68 73 1b 3d
       0.05248387 0.0098341815 0.13068354 0.037951857
0003b0 e3 77 5c 3d 79 35 b5 bd f6 4d da 3d ec 39 19 be
       0.05382527 -0.0884809 0.10659401 -0.14963502
0003c0 b4 99 91 be 5a db 6a be fa 90 91 bc f6 6a 7c 3d
       -0.2843758 -0.22935238 -0.017769326 0.061625443
0003d0 00 8b 4f 3d a9 3a cb bc 7e 34 61 be 3b ce 4b bd
       0.05066967 -0.024808245 -0.2199268 -0.049757224
0003e0 9f 80 87 3b fc 88 90 3e 7f cc 08 be 09 a7 60 3a
       0.004135206 0.2822951 -0.13359259 0.0008569812
0003f0 b9 c3 3f be 1b f0 90 be db 6f 7c be 6a 98 13 bb
       -0.18727006 -0.28308186 -0.24652044 -0.0022521266

bias f4 [20]
000000 0f fd 76 3d d6 90 5e be 46 12 04 bd 37 97 ed 3c
       0.06029993 -0.21734938 -0.03224399 0.029002769
000010 6e 76 24 3e d3 0e 67 3e 12 81 27 bd 64 2c 43 be
       0.16060802 0.22564249 -0.040894575 -0.19059902
000020 96 b9 13 3e 73 9e 1d 3e 45 05 8c 3d 66 ca 4b 3d
       0.14426264 0.15392475 0.068369426 0.04975357
000030 a4 a8 26 be 4a a3 0c 3e 9f de 18 bd 4d 09 00 be
       -0.16275269 0.13734165 -0.037321683 -0.12503548
000040 cb 3d 08 3d b7 6f 5b bb 15 b0 0a be 17 de dd 3d
       0.033262055 -0.0033483335 -0.13543732 0.10833376
