programming_homework/03/code/part_3_2/encoder.pt (torch, 116038 bytes, 26 tensors)

weight f4 [29, 20]
0.79410344 0.73772717 1.0132222 -0.6704161 -0.24909669 1.0905136 0.8323522 -0.67021376
-0.656842 0.829545 -0.13373329 0.36648372 -0.18761812 -0.48749247 0.4085162 -0.4691391
-1.1517334 -0.29930744 1.3717571 -0.51641977 -0.79706955 -0.6217019 -1.0757401 0.22618325
0.15706915 -0.20634153 0.085772395 0.62577915 0.5147453 0.4227369 0.22025384 -0.9349925
0.89329493 -0.5858661 -0.07562375 0.29927287 0.14508614 -1.1549964 0.24707098 0.019553615
0.9352661 -0.5769765 0.64661735 -1.259785 -0.91432387 -0.7599258 -1.413214 -0.24598336
-0.91440815 0.016566206 0.27285874 -1.102886 -0.017630272 -0.388325 0.7818515 0.24229547
0.63733965 -0.43742636 0.7154629 -0.31184974 -0.77296275 -0.38194704 -0.07420251 -1.6265466
-0.0009470131 0.70574975 0.084477894 -0.87244284 0.30032215 -0.61338055 0.10350953 -0.17392412
-0.5297193 -0.35183397 -0.2673426 -0.14710882 0.68198264 -0.50018394 -0.73691195 -0.2339231
1.5179842 1.016208 -0.5063052 0.6069344 1.3987978 0.113195375 -0.2958204 -1.3380234
-0.32046458 0.25790644 0.34852725 1.2882375 1.0589263 -1.087639 0.15591948 0.17200945
0.17017598 1.8270938 0.13565017 -1.1612773 0.0057565323 -0.48243532 -0.016145788 -0.25394613
-0.15968542 -1.4149618 -0.09366188 -0.112744726 -0.25167426 -0.9308861 -0.40459877 -1.0718235
-0.37095058 -0.115927495 0.8810104 -1.3219707 0.11763884 0.0044960408 -0.5269282 -1.3365875
0.64653236 -0.056799408 1.053114 -1.1881298 0.77011824 -0.24214561 0.16783585 0.030752039
0.39046383 0.53834945 0.34950274 -0.5376438 0.8184095 -0.81349707 0.2908324 0.60900134
2.6333966 0.41136384 0.4115597 -1.3947338 0.8558124 -1.1637335 -0.037599046 -0.597665
-1.0548205 0.24841051 0.39314288 -0.47824666 -0.8003856 -0.8823981 0.24478848 -1.9445344
-0.9480721 0.9780269 0.021369167 0.31092396 1.4980125 -0.7129068 -0.13840674 -1.0520833
0.5290875 -0.39066166 -0.40783432 -0.71868485 0.044724535 -0.30057165 -1.3809177 -0.78805023
-1.1744188 0.33184305 0.32468358 -0.18219596 1.1254109 -0.21821491 -1.7593868 -0.08003294
-0.04499451 0.15623854 1.5929271 -0.10754668 -0.8138653 -1.0942324 -0.114997245 0.023237085
-0.5222363 -0.95872337 -1.6475188 -0.6829419 0.18671602 0.013704123 0.51582855 0.34441742
-0.16689728 -1.1003537 1.284238 -0.40830797 0.16144444 -1.0386964 -0.44335166 -0.66918975
-0.70398676 -0.06816738 0.085063405 1.1598568 0.1536294 -1.1120244 1.1968241 -0.03665951
-0.31728166 -0.17852478 0.53406274 -0.34942433 -0.040914647 -0.09643032 -0.72729945 0.94175804
0.2568597 0.65297633 0.1986665 -1.7123536 -0.13454898 -0.7145006 0.6519441 0.105811745
-0.269304 0.28679904 0.11114049 -0.69046694 0.31639823 -0.69724476 0.053543787 0.5530179
-1.0455053 -1.5234548 -0.44200996 0.25483966 -0.601389 0.6644762 -0.7615828 -0.08185535
-1.6391389 -1.3991495 0.8259873 0.25483894 -0.092384204 0.94915897 0.10696388 -0.36269256
-0.042008094 -0.033997495 -0.7679731 -0.44847637 0.037338715 0.23135146 0.32517803 -0.76084185
00000000: 5d4a 4b3f b0db 3c3f 44b1 813f 64a0 2bbf
00000010: 3413 7fbe f395 8b3f 0915 553f 2193 2bbf
00000020: cc26 28bf 105d 543f 61f1 08be c1a3 bb3e
00000030: f71e 40be 9d98 f9be 0929 d13e 0033 f0be
00000040: 006c 93bf d33e 99be bd95 af3f 1634 04bf
00000050: c00c 4cbf db27 1fbf dab1 89bf 959c 673e
00000060: bcd6 203e 324b 53be 70a9 af3d 1033 203f
00000070: 59c6 033f f970 d83e 398a 613e ab5b 6fbf
00000080: faae 643f 52fb 15bf a0e0 9abd 4b3a 993e
00000090: 7691 143e ecd6 93bf 2d00 7d3e e72e a03c
000000a0: 996d 6f3f bbb4 13bf b788 253f a340 a1bf
000000b0: 2111 6abf 7f8a 42bf 32e4 b4bf 10e3 7bbe
000000c0: a716 6abf dab5 873c 24b4 8b3e 5e2b 8dbf
000000d0: 5c6d 90bc 89d2 c6be 6b27 483f 4e1c 783e
000000e0: b128 233f 59f6 dfbe 9428 373f c5aa 9fbe
000000f0: e3e0 45bf 908e c3be 7cf7 97bd ae32 d0bf
00000100: f940 78ba 04ac 343f bf02 ad3d 6a58 5fbf
00000110: d3c3 993e 8206 1dbf cefc d33d 2a19 32be
00000120: af9b 07bf 9523 b4be 21e1 88be b2a3 16be
00000130: 6a96 2e3f 0e0c 00bf 43a6 3cbf 8a89 6fbe
00000140: 4e4d c23f 1b13 823f 389d 01bf 0e60 1b3f
00000150: ce0b b33f fad2 e73d c575 97be 5a44 abbf
00000160: ef13 a4be 500c 843e 2a72 b23e f7e4 a43f
00000170: e68a 873f c137 8bbf 5ba9 1f3e 3f23 303e
00000180: 9d42 2e3e 36de e93f e1e7 0a3e bca4 94bf
00000190: 4ba1 bc3b c301 f7be 2c44 84bc 3a05 82be
000001a0: 9384 23be 781d b5bf cdd1 bfbd b5e6 e6bd
000001b0: 73db 80be 8d4e 6ebf 9227 cfbe 8331 89bf
000001c0: 3ced bdbe 656b edbd e689 613f 5636 a9bf
000001d0: a2ec f03d 8653 933b c4e4 06bf 4d15 abbf
000001e0: 2583 253f 7fa6 68bd 71cc 863f a314 98bf
000001f0: 7826 453f 05f5 77be 29dd 2b3e b3eb fb3c
00000200: e0ea c73e 45d1 093f 06f2 b23e 06a3 09bf
00000210: 4983 513f 5841 50bf fce7 943e 83e7 1b3f
00000220: 9289 2840 489e d23e f4b7 d23e a386 b2bf
00000230: 8516 5b3f 38f5 94bf 7501 1abd 9300 19bf
00000240: 5c04 87bf 535f 7e3e 064a c93e bfdc f4be
00000250: 12e6 4cbf d8e4 61bf d5a9 7a3e 81e6 f8bf
00000260: dab4 72bf f95f 7a3f 640e af3c 6d31 9f3e
00000270: e0be bf3f 0f81 36bf 7fba 0dbe aaaa 86bf
00000280: 4772 073f ce04 c8be a9cf d0be bbfb 37bf
00000290: 1331 373d 87e4 99be e9c1 b0bf a9bd 49bf
000002a0: 5b53 96bf 55e7 a93e ed3c a63e 9491 3abe
000002b0: 770d 903f bb73 5fbe 9633 e1bf 4fe8 a3bd
000002c0: 2a4c 38bd fffc 1f3e 09e5 cb3f 6f41 dcbd
000002d0: 7a59 50bf cf0f 8cbf ad83 ebbd b35b be3c
000002e0: 47b1 05bf e56e 75bf e5e1 d2bf 48d5 2ebf
000002f0: 7c32 3f3e 4287 603c 570d 043f 7b57 b03e
00000300: 1fe7 2abe 64d8 8cbf e961 a43f be0d d1be
00000310: b151 253e 01f4 84bf fdfe e2be 0550 2bbf
00000320: 7a38 34bf 579b 8bbd b935 ae3d 3076 943f
00000330: 0751 1d3e d156 8ebf 8831 993f 4828 16bd
00000340: be72 a2be 33cf 36be 56b8 083f bfe7 b2be
00000350: 1e96 27bd 427d c5bd 4c30 3abf 0e17 713f
00000360: 1d83 833e 7529 273f 3b6f 4b3e 672e dbbf
00000370: 35c7 09be 83e9 36bf cfe5 263f d4b3 d83d
00000380: 37e2 89be 53d7 923e a09d e33d 71c2 30bf
00000390: f3fe a13e a27e 32bf bb50 5b3d 9592 0d3f
000003a0: 1ed3 85bf 9100 c3bf 214f e2be 587a 823e
000003b0: a1f4 19bf 1d1b 2a3f 17f7 42bf c7a3 a7bd
000003c0: 4ecf d1bf 5517 b3bf e773 533f 407a 823e
000003d0: ee33 bdbd 15fc 723f e10f db3d d7b2 b9be
000003e0: ae10 2cbd f540 0bbd e399 44bf b29e e5be
000003f0: 7bf0 183d 66e7 6c3e bc7d a63e 88c6 42bf

weight f4 [20, 20]
-0.27142054 -0.028596064 -0.011207547 -0.3148834 -0.098483786 -0.0027188633 0.16052471 -0.14958546
-0.052195415 -0.3643924 0.12510826 0.0069793453 -0.17380872 -0.09992675 0.1743879 0.13213246
0.34547505 0.020332849 -0.13937554 0.0013699926 0.31754234 -0.2768732 0.0031916976 0.14797978
-0.29101896 -0.0009913506 -0.10510763 -0.033916965 0.12918068 -0.27818915 -0.09335614 -0.095016986
-0.18461338 -0.2102392 -0.3605649 -0.10562935 -0.029193798 -0.1914983 -0.086779326 -0.46965107
0.2978172 -0.10122352 -0.0016865247 0.1725061 -0.2276475 -0.19231284 -0.15908432 0.10764919
0.24240062 -0.101499826 -0.13519572 -0.0009507314 -0.22568166 -0.012967372 -0.33624968 -0.40894002
0.10618204 -0.12324803 -0.013716618 -0.16579577 -0.033375207 -0.14076333 0.093154326 0.014799105
-0.39059728 0.39828944 -0.06107176 -0.02330378 0.00886353 0.09872943 0.10557502 -0.24576549
0.10801611 -0.10421574 0.1304306 0.041085575 -0.1489457 -0.1632249 -0.33796692 -0.3330797
-0.11647443 0.16980772 0.34777468 0.3197099 0.33999684 -0.13702548 -0.30950534 -0.16020603
-0.005834388 -0.09563443 -0.09674304 -0.13916872 -0.20119168 0.0536507 -0.16136397 0.24048473
0.11558084 -0.18288456 -0.064419635 0.010372934 -0.06881916 0.043652583 0.056795973 -0.21904784
0.01411264 -0.41161346 0.30820754 0.03502971 0.17590804 -0.060138796 -0.21699935 0.10614288
0.056935113 -0.14570305 0.2209455 -0.08623268 -0.42793423 0.008918254 -0.16802077 -0.32578498
-0.230786 0.024023162 -0.04655477 -0.020892313 0.44094732 0.16157575 -0.113993004 -0.012074288
-0.19652544 0.05266287 0.40216953 0.16416441 0.08619739 0.23735349 0.32331175 0.09947866
-0.1336604 0.075096145 0.19548449 0.21202773 0.39946732 0.06746265 -0.20399074 0.09221006
-0.49949312 -0.009345525 0.25168434 0.043420963 0.07955757 -0.06330916 0.15813567 -0.14443947
0.21557441 -0.093574874 -0.117714696 0.15610096 -0.17648531 -0.22657762 -0.13412762 -0.15403077
0.029211732 0.024887359 0.040846266 -0.27065694 0.584958 -0.16490354 0.008518317 -0.16635214
-0.45073116 -0.2785873 0.44346416 -0.03895071 -0.31671342 -0.108752154 -0.120209314 0.1876385
-0.04022201 0.07451318 0.1782306 0.2757431 -0.21650848 0.0032565275 -0.0150211565 0.17851189
0.07029494 -0.10631269 0.00055851816 0.19480047 -0.061552107 0.34494668 -0.29135203 0.09374053
0.27315086 0.117136106 0.34650004 -0.26689532 -0.22252701 0.1697319 0.022629432 0.2231561
0.1950555 0.36194095 -0.20304509 0.18324442 -0.049215827 -0.19067793 -0.16549346 0.22633761
-0.091289684 0.3123556 0.17473929 0.20298994 0.3060072 0.32865223 -0.09380317 0.33030412
0.05587943 0.21688524 0.19780725 0.25083888 0.39395785 -0.11764794 -0.26740617 0.058176275
-0.532323 -0.1500414 0.19218329 0.054115586 -0.13294776 -0.2550803 -0.06466692 -0.3435722
-0.049179513 -0.05724779 -0.2349442 0.04234637 -0.023055047 -0.28404558 0.20736566 -0.0063749854
0.28210616 -0.081412084 -0.33665502 0.2644074 -0.3945511 0.015896095 0.20705462 -0.03425373
0.20789744 0.046462134 -0.30859214 0.07822691 0.2772867 0.16363709 0.2338025 -0.34533295
00000000: a2f7 8abe 4b42 eabc dc9f 37bc 6638 a1be
00000010: deb1 c9bd f52e 32bb 9760 243e ee2c 19be
00000020: dcca 55bd a491 babe 611c 003e feb2 e43b
00000030: eafa 31be 65a6 ccbd be92 323e bb4d 073e
00000040: 1be2 b03e 1391 a63c 76b8 0ebe 5391 b33a
00000050: e994 a23e 53c2 8dbe cd2b 513b 0388 173e
00000060: 7000 95be 35f0 81ba ab42 d7bd 84ec 0abd
00000070: f147 043e cf6e 8ebe 8131 bfbd 4498 c2bd
00000080: 4a0b 3dbe f248 57be f69b b8be 3354 d8bd
00000090: d527 efbc 2118 44be 5cb9 b1bd 1b76 f0be
000000a0: 7f7b 983e 474e cfbd 610e ddba 70a5 303e
000000b0: 6d1c 69be a8ed 44be 00e7 22be 2e77 dc3d
000000c0: de37 783e 24df cfbd bf70 0abe 813a 79ba
000000d0: 1819 67be 1a75 54bc eb28 acbe 9660 d1be
000000e0: f875 d93d 7769 fcbd aabb 60bc 5ec6 29be
000000f0: 71b4 08bd 4324 10be b2c7 be3d f277 723c
00000100: 5efc c7be 98ec cb3e 6226 7abd 92e7 bebc
00000110: 5738 113c a832 ca3d b737 d83d f3a9 7bbe
00000120: 8d37 dd3d 106f d5bd 998f 053e 5949 283d
00000130: 3985 18be 6e24 27be 000a adbe 6c89 aabe
00000140: 258a eebd 13e2 2d3e 860f b23e 04b1 a33e
00000150: 1114 ae3e 6850 0cbe 7c77 9ebe 0d0d 24be
00000160: 652e bfbb fcdb c3bd 3721 c6bd 3f82 0ebe
00000170: 3105 4ebe d6c0 5b3d 993c 25be a141 763e
00000180: a6b5 ec3d 1746 3bbe 71ee 83bd 3df3 293c
00000190: 0ff1 8cbd 0dcd 323d e5a2 683d 144e 60be
000001a0: b438 673c 00bf d2be 61cd 9d3e 507b 0f3d
000001b0: 3d21 343e 1954 76bd 1435 5ebe 7061 d93d
000001c0: cb34 693d 2e33 15be 8a3f 623e c29a b0bd
000001d0: 321a dbbe de1d 123c a30d 2cbe 4acd a6be
000001e0: 2a53 6cbe 39cc c43c 37b0 3ebd 5b26 abbc
000001f0: d9c3 e13e 1d74 253e 2a75 e9bd 3cd3 45bc
00000200: f73d 49be 06b5 573d 2ae9 cd3e b71a 283e
00000210: 4288 b03d cb0c 733e 1e89 a53e 78bb cb3d
00000220: 46de 08be 02cc 993d 162d 483e cc1d 593e
00000230: fb86 cc3e dc29 8a3d f3e2 50be a1d8 bc3d
00000240: 90bd ffbe f91d 19bc c5dc 803e 2eda 313d
00000250: 14ef a23d 3ca8 81bd 51ee 213e f1e7 13be
00000260: 8abf 5c3e 2fa4 bfbd 6714 f1bd eed8 1f3e
00000270: 91b8 34be f703 68be c058 09be 3eba 1dbe
00000280: 714d ef3c 93e0 cb3c 6a4e 273d 8c93 8abe
00000290: cfbf 153f 79dc 28be 6990 0b3c 3758 2abe
000002a0: 3cc6 e6be ffa2 8ebe bc0d e33e c88a 1fbd
000002b0: 4328 a2be 73b9 debd 4d30 f6bd 4f24 403e
000002c0: d6bf 24bd 5e9a 983d 1582 363e 332e 8d3e
000002d0: 66b4 5dbe 776b 553b 4c1b 76bc d2cb 363e
000002e0: cbf6 8f3d 78ba d9bd 8569 123a c679 473e
000002f0: 101e 7cbd da9c b03e 182c 95be 09fb bf3d
00000300: 6eda 8b3e 0ee5 ef3d 7468 b13e 81a6 88be
00000310: 1fde 63be 33ce 2d3e 5c61 b93c 0883 643e
00000320: a1bc 473e 5350 b93e 0deb 4fbe 6da4 3b3e
00000330: 8996 49bd 1341 43be 1e77 29be 0cc5 673e
00000340: 16f6 babd 13ed 9f3e dbee 323e 98dc 4f3e
00000350: faac 9c3e 1b45 a83e e01b c0bd 9f1d a93e
00000360: d4e1 643d 2a17 5e3e fc8d 4a3e f46d 803e
00000370: d8b4 c93e 67f1 f0bd 76e9 88be 3f4a 6e3d
00000380: 5246 08bf 74a4 19be b2cb 443e 4ea8 5d3d
00000390: 7523 08be e399 82be 1770 84bd b2e8 afbe
000003a0: 7570 49bd a97c 6abd 3695 70be 6373 2d3d
000003b0: f0dd bcbc 6c6e 91be aa57 543e 41e5 d0bb
000003c0: 3870 903e 61bb a6bd 0c5e acbe 6860 873e
000003d0: 9a02 cabe 8738 823c 2006 543e a44d 0cbd
000003e0: 11e3 543e 144f 3e3d caff 9dbe 6e35 a03d
000003f0: 86f8 8d3e 7b90 273e ec69 6f3e 7bcf b0be

bias f4 [20]
-0.16168216 -0.22281438 -0.16324525 -0.20900838 -0.022318793 -0.30410102 0.2914915 -0.43008894
0.13711797 0.20708075 0.36373794 -0.4262444 0.19425674 -0.038724992 0.651628 -0.13933043
-0.33814523 0.54467946 -0.06565884 0.5415638
00000000: 0290 25be 7429 64be c329 27be 4b06 56be
00000010: e7d5 b6bc 21b3 9bbe 603e 953e 9e34 dcbe
00000020: a768 0c3e fa0c 543e dc3b ba3e b53c dabe
00000030: 3deb 463e 199e 1ebd 18d1 263f a3ac 0ebe
00000040: 5f21 adbe 1d70 0b3f 2478 86bd eda3 0a3f

weight f4 [20, 20]
-0.0177876 0.37973747 -0.010614405 0.10982257 0.093626596 0.13341372 0.31691375 0.070144296
-0.34380436 0.17812864 0.15988202 0.13803321 -0.13699622 -0.17688963 -0.18862425 -0.1159972
-0.0654238 0.032687224 0.6391623 0.09372616 0.14559804 0.09760619 -0.13771927 0.19029811
0.14257553 0.110716596 0.10598503 -0.16095385 -0.16170055 -0.121787116 0.32015315 0.2807003
-0.047398504 -0.12507398 0.008656081 0.24307011 0.11194717 0.31781155 0.71046364 0.3266033
0.067208104 0.10776335 -0.102656126 0.05585138 0.33776063 0.23255098 -0.100934334 -0.07034145
0.12147834 0.08599305 -0.0082641905 0.1899653 0.032762233 -0.17519699 0.03495036 0.21894751
0.17621592 0.16789924 0.21726099 0.10417775 -0.20292394 -0.16316095 -0.08450997 0.15957712
-0.07523208 -0.06282942 -0.35321555 -0.4373969 -0.085011475 -0.3107485 0.25391918 0.20254841
-0.11453958 -0.015528601 0.21616772 0.4774396 0.13097109 -0.024233382 0.018704662 0.12332509
0.0042217397 0.09549962 0.12865295 -0.12817462 0.061218195 -0.10112657 0.21048045 -0.068282135
0.012386332 0.058594994 0.020317419 0.38520265 0.18051903 0.015529554 -0.079218864 -0.029734552
-0.11786048 0.051344875 0.123324074 -0.05883324 -0.17328124 0.26711243 -0.14097267 -0.1551385
0.28920072 0.0072801867 -0.07077506 -0.2539149 0.11711922 -0.26242656 -0.07952052 -0.07006403
0.05745459 0.05736275 0.28202388 -0.18288523 0.22287479 -0.22181712 0.11612306 0.08630321
0.10550551 0.03258415 0.05945972 -0.029135177 -0.38197735 -0.1868439 0.09870307 0.080031425
0.24242361 0.25292942 0.06562866 -0.30182827 0.09023347 0.1148892 -0.0853517 -0.45834127
0.063955486 -0.18548366 -0.18166691 -0.21649416 -0.027311025 0.12516832 -0.29236078 0.09208675
0.05070558 0.07402591 -0.17898606 0.06186808 -0.13012932 -0.21218121 0.1681339 -0.19244432
0.022824666 0.022212649 -0.055652857 0.5115505 0.14937973 -0.20986149 0.18209176 0.2879029
0.46822253 0.21959999 0.02349724 -0.05317168 0.0046059038 -0.028068148 0.28979704 0.010437715
-0.41286948 0.04255753 -0.16783823 0.05220235 -0.23325722 0.18352877 -0.004718279 -0.35743836
-0.1794617 -0.0027585423 0.11939938 0.043656494 -0.225797 -0.34129736 0.05986214 -0.028888019
0.113756865 -0.109987184 0.050945226 -0.030081218 0.3539902 0.18515292 -0.014343137 -0.3717012
-0.040580727 0.076071896 0.15089306 -0.16077653 -0.023100113 -0.12533996 -0.5150149 -0.18618943
-0.09568904 -0.1729635 0.12913263 -0.108830966 -0.26956296 -0.013779725 -0.1635268 0.25218204
0.40242794 -0.23872234 -0.35851613 -0.45859647 0.2611286 0.27145207 -0.088659264 -0.19744596
0.22777547 -0.07885729 -0.66752833 -0.21167427 0.24646941 0.4141819 -0.3562702 0.31055948
0.10546096 0.19117428 0.23488952 0.17422976 -0.36763048 0.02278485 0.1939698 0.29157293
0.20541088 -0.077341296 -0.22624731 0.30282065 -0.21802138 0.070764534 0.62734157 0.3996543
-0.3307284 -0.0704013 0.09751552 0.06589079 -0.19340505 0.016067686 -0.16543761 0.18573572
0.30689624 0.019023966 0.115711056 0.052691128 0.16474973 0.09564182 -0.20846348 -0.01097851
00000000: 4db7 91bc f36c c23e 0be8 2dbc a8ea e03d
00000010: 4dbf bf3d 9b9d 083e 8542 a23e d0a7 8f3d
00000020: 2007 b0be 5b67 363e 1db8 233e 9458 0d3e
00000030: bd48 0cbe 8e22 35be b726 41be f18f edbd
00000040: eafc 85bd 0ae3 053d 24a0 233f 80f3 bf3d
00000050: a717 153e c1e5 c73d 4806 0dbe 82dd 423e
00000060: 52ff 113e 62bf e23d ae0e d93d 16d1 24be
00000070: d494 25be 866b f9bd 1deb a33e f3b7 8f3e
00000080: ef24 42bd 6513 00be 3cd2 0d3c 5fe7 783e
00000090: 8f44 e53d 32b8 a23e f2e0 353f 8c38 a73e
000000a0: 67a4 893d 08b3 dc3d 603d d2bd 6bc4 643d
000000b0: f6ee ac3e d821 6e3e a9b6 cebd 2e0f 90bd
000000c0: a3c9 f83d 201d b03d 8766 07bc 4386 423e
000000d0: b131 063d d766 33be 1c28 0f3d c733 603e
000000e0: f271 343e c7ed 2b3e aa79 5e3e 255b d53d
000000f0: 4bcb 4fbe aa13 27be 9013 adbd 2f68 233e
00000100: 4713 9abd b6ac 80bd abd8 b4be 7df2 dfbe
00000110: 7f1a aebd 6d1a 9fbe b201 823e da68 4f3e
00000120: ba93 eabd ac6b 7ebc 125b 5d3e f772 f43e
00000130: 491d 063e 1685 c6bc 853a 993c dd91 fc3d
00000140: 8556 8a3b 4e95 c33d 99bd 033e 3540 03be
00000150: eebf 7a3d 721b cfbd 3088 573e 81d7 8bbd
00000160: 0bf0 4a3c 4e01 703d b770 a63c 4839 c53e
00000170: fbd9 383e ac6f 7e3c 803d a2bd e095 f3bc
00000180: d660 f1bd 014f 523d 5591 fc3d 20fb 70bd
00000190: a370 31be f6c2 883e 245b 10be a0dc 1ebe
000001a0: 1e12 943e a28e ee3b 84f2 90bd 2201 82be
000001b0: 34dc ef3d c65c 86be a8db a2bd bb7d 8fbd
000001c0: 8155 6b3d 34f5 6a3d 6f65 903e 4446 3bbe
000001d0: 4a39 643e 0724 63be edd1 ed3d bdbf b03d
000001e0: 4613 d83d f576 053d 098c 733d e5ac eebc
000001f0: 8992 c3be 0254 3fbe d624 ca3d 84e7 a33d
00000200: e53d 783e f77f 813e 5268 863d 3c89 9abe
00000210: 53cc b83d 074b eb3d dfcc aebd b5ab eabe
00000220: 18fb 823d 6eef 3dbe e406 3abe a5b0 5dbe
00000230: 5fbb dfbc 202c 003e 50b0 95be fa97 bc3d
00000240: a7b0 4f3d e59a 973d 1f48 37be 6269 7d3d
00000250: 9f40 05be 0846 59be 4b2b 2c3e 2010 45be
00000260: cbfa ba3c 4df7 b53c 40f4 63bd f9f4 023f
00000270: 00f7 183e eee5 56be 4376 3a3e 0268 933e
00000280: ddba ef3e d2de 603e 497d c03c 8cca 59bd
00000290: 1fed 963b 2cef e5bc 4760 943e f302 2b3c
000002a0: a163 d3be ce50 2e3d c9dd 2bbe 22d2 553d
000002b0: fbda 6ebe f7ee 3b3e cb9b 9abb 2902 b7be
000002c0: cfc4 37be a9c8 34bb aa87 f43d 27d1 323d
000002d0: 5437 67be 87be aebe 0132 753d 91a6 ecbc
000002e0: 5cf9 e83d f640 e1bd f1ab 503d e36c f6bc
000002f0: 343e b53e ba98 3d3e 7aff 6abc 9f4f bebe
00000300: fa37 26bd 95cb 9b3d b683 1a3e 9aa2 24be
00000310: 733c bdbc 1e59 00be 04d8 03bf 71a8 3ebe
00000320: 9ef8 c3bd 581d 31be 583b 043e c5e2 debd
00000330: 2804 8abe 5bc4 61bc 9273 27be 011e 813e
00000340: 090b ce3e a173 74be 6d8f b7be 28cd eabe
00000350: a6b2 853e c4fb 8a3e fd92 b5bd 462f 4abe
00000360: f93d 693e ee7f a1bd 23e3 2abf 24c1 58be
00000370: 7a62 7c3e a60f d43e 0c69 b6be a701 9f3e
00000380: eafb d73d 31c3 433e e186 703e 4969 323e
00000390: 103a bcbe 4ba7 ba3c 05a0 463e 0c49 953e
000003a0: 3b57 523e 1d65 9ebd 60ad 67be 4f0b 9b3e
000003b0: ff40 5fbe ffec 903d 7599 203f 7d9f cc3e
000003c0: 3c55 a9be 8f2e 90bd 38b6 c73d c0f1 863d
000003d0: f90b 46be 61a0 833c 7a68 29be 8131 3e3e
000003e0: 8121 9d3e 26d8 9b3c ebf9 ec3d a7d2 573d
000003f0: 27b4 283e dcdf c33d 7377 55be 35df 33bc

bias f4 [20]
-0.3081071 -0.2319753 -0.14767256 -0.10425637 -0.11703227 0.15078297 0.16504374 0.0045053954
0.06842899 0.2591314 0.081420094 -0.01601959 0.09839282 0.10986773 0.08187016 -0.09222993
0.037312657 0.124999285 -0.07570223 0.37961283
00000000: 37c0 9dbe ef8a 6dbe 7a37 17be 5d84 d5bd
00000010: 9dae efbd da66 1a3e 3a01 293e ffa1 933b
00000020: 8024 8c3d dfac 843e 94bf a63d 843b 83bc
00000030: 2d82 c93d 5502 e13d 8bab a73d 0ce3 bcbd
00000040: 28d5 183d a0ff ff3d c509 9bbd 9d5c c23e

weight f4 [20, 20]
-0.2993406 -0.24450445 -0.09192233 0.16611098 0.008949462 -0.18732513 0.14145552 -0.20920773
-0.09037198 0.040268 -0.095169075 -0.045816254 -0.0014961861 0.021358067 -0.33895338 -0.2363074
-0.22768553 -0.018128201 -0.1601882 -0.08108818 -0.121307634 -0.102938615 0.0025410575 -0.06638952
0.151737 -0.23702309 0.14606446 0.01059319 0.30001238 0.0908807 -0.11612898 0.014267839
0.17342031 -0.2780963 -0.22168998 -0.2264302 0.036264576 -0.28401265 -0.35319313 -0.017630951
-0.1172523 0.0030000804 -0.20269895 0.19181989 -0.19789651 -0.02130551 0.12966533 -0.10864277
0.38425866 -0.22388588 0.058723405 -0.19743788 0.16307448 -0.22894663 -0.09305016 -0.14455985
-0.09598351 0.09195895 -0.3486336 -0.10385508 0.17643465 -0.05410868 -0.10179284 -0.19659233
0.04337757 -0.27501097 0.052251086 -0.08273188 -0.051967036 -0.14074318 0.21596439 -0.07464654
-0.12893112 -0.0840265 -0.3494824 -0.3268325 -0.10103989 -0.14665033 0.020445747 -0.35394752
-0.03113098 0.074962854 -0.18179455 0.120698325 -0.036195982 0.17471433 -0.22602707 0.053347614
0.119801484 -0.010051691 0.021671556 -0.05440836 0.0042580236 0.020608494 -0.12131428 0.26058134
-0.15467931 0.037617832 0.06822014 -0.13456476 -0.14316632 0.09216167 -0.19637522 -0.106937975
-0.020847026 -0.11381802 -0.05517121 -0.21741201 0.0174813 -0.14813946 0.19063833 -0.18840413
0.07726992 0.04523612 -0.29000384 -0.04197241 0.28675178 -0.1219794 -0.024471916 -0.05871036
0.1327201 -0.18216589 0.043078497 -0.00045396175 0.11437701 -0.031504046 -0.34181947 -0.08492861
0.33479255 -0.10671299 0.09042313 -0.17004323 0.11419472 -0.28455958 -0.27070823 0.11504552
0.059981957 0.19347051 -0.11769252 -0.29033962 0.05536503 0.06534205 -0.14425957 0.023307478
0.15147157 0.0115033295 0.07498743 -0.24581742 -0.05572959 -0.033968054 -0.17957287 -0.057666097
-0.015686354 0.0721296 0.12539452 -0.05202855 -0.20917246 -0.06595538 -0.056259785 0.13931055
-0.048261717 0.06888093 -0.14747632 -0.17159365 0.16477485 -0.10389715 -0.06353729 0.06798982
0.019555463 -0.015083775 0.40918213 0.06987132 -0.41070837 0.025009964 -0.047253888 0.07102837
-0.12675202 0.06272325 -0.14476994 0.091953285 -0.21358 0.023095617 -0.17331292 -0.08048235
-0.034235533 -0.15742482 -0.123134315 -0.2177624 -0.021531535 -0.08794085 0.05704953 -0.12463424
-0.030433448 -0.2964264 -0.20432849 0.0411866 -0.082695365 0.009923338 -0.08470679 0.0943797
-0.25856736 -0.0045499383 0.0470882 0.22478269 0.005844514 -0.231196 -0.34429267 0.20933023
0.097571746 0.056786142 -0.3237994 0.066036806 0.17642401 0.14893052 0.01623137 0.022806203
0.17839395 0.07254222 -0.018338358 0.041326746 0.08896871 -0.0680532 -0.41914913 0.11012337
-0.44194856 -0.26657492 -0.029842053 -0.0680614 0.3505564 0.0006172789 -0.41249248 0.04887466
0.3334707 -0.21648827 -0.6186312 -0.20604566 0.024748774 0.1529335 0.14268866 -0.1898359
0.009167598 -0.051078826 -0.0970937 0.0065383352 -0.26763704 -0.057299238 0.028891334 0.027130695
-0.011577326 0.16128935 -0.15377332 -0.22876489 -0.35847795 -0.20618208 0.12603244 -0.0020739264
00000000: 2c43 99be 605f 7abe c641 bcbd ff18 2a3e
00000010: c4a0 123c 29d2 3fbe b7d9 103e 8d3a 56be
00000020: f214 b9bd 0ff0 243d 01e8 c2bd d3a9 3bbd
00000030: ad1b c4ba 1df7 ae3c 4c8b adbe 91fa 71be
00000040: 6526 69be 9881 94bc 6008 24be 8f11 a6bd
00000050: 2370 f8bd 7bd1 d2bd df87 263b 3bf7 87bd
00000060: f260 1b3e 2eb6 72be ec91 153e 0f8f 2d3c
00000070: 399b 993e a91f ba3d 08d5 edbd a7c3 693c
00000080: 1895 313e a362 8ebe b302 63be 51dd 67be
00000090: 2a8a 143d 1b6a 91be bbd5 b4be c96e 90bc
000000a0: f921 f0bd ff9c 443b 5090 4fbe 6f6c 443e
000000b0: 62a5 4abe e588 aebc fdc6 043e 1a80 debd
000000c0: 8dbd c43e 5742 65be f487 703d 282d 4abe
000000d0: fffc 263e fc70 6abe 1591 bebd 7f07 14be
000000e0: 0193 c4bd f954 bc3d 1a80 b2be f9b1 d4bd
000000f0: 49ab 343e 10a1 5dbd c478 d0bd 804f 49be
00000100: aeac 313d 3dce 8cbe 3c05 563d 556f a9bd
00000110: 63db 54bd fb1e 10be c525 5d3e 49e0 98bd
00000120: 8506 04be 1616 acbd 5bef b2be 9756 a7be
00000130: 00ee cebd 812b 16be d77d a73c 9c38 b5be
00000140: 6606 ffbc 2086 993d 5a28 3abe af30 f73d
00000150: 3d42 14bd 50e8 323e a473 67be 0783 5a3d
00000160: 7b5a f53d d9af 24bc 8c88 b13c 4ddb 5ebd
00000170: e486 8b3b 25d3 a83c 9f73 f8bd eb6a 853e
00000180: 4164 1ebe 2815 1a3d 00b7 8b3d 58cb 09be
00000190: 319a 12be 42bf bc3d 9616 49be 4c02 dbbd
000001a0: 62c7 aabc 6c19 e9bd 35fb 61bd 41a1 5ebe
000001b0: f134 8f3c dfb1 17be b236 433e 03ed 40be
000001c0: b13f 9e3d 8249 393d 627b 94be 43eb 2bbd
000001d0: 21d1 923e 56d0 f9bd 5479 c8bc 467a 70bd
000001e0: c7e7 073e b289 3abe 1473 303d b701 eeb9
000001f0: 7e3e ea3d 630a 01bd f602 afbe 0def adbd
00000200: ee69 ab3e 578c dabd c32f b93d d01f 2ebe
00000210: ecde e93d cbb1 91be 459a 8abe fc9c eb3d
00000220: a4af 753d 221d 463e c708 f1bd 65a7 94be
00000230: 71c6 623d 0dd2 853d c8b8 13be 53ef be3c
00000240: 5d1b 1b3e 7678 3c3c 0293 993d 90b7 7bbe
00000250: b644 64bd 1622 0bbd f3e1 37be 4933 6cbd
00000260: ab80 80bc afb8 933d 6c67 003e e41b 55bd
00000270: 4e31 56be 9d13 87bd a970 66bd 6da7 0e3e
00000280: 14ae 45bd 7211 8d3d 0804 17be 3fb6 2fbe
00000290: bdba 283e 07c8 d4bd d71f 82bd 3f3e 8b3d
000002a0: c732 a03c f021 77bc 5280 d13e b218 8f3d
000002b0: 5e48 d2be b2e1 cc3c 4b8d 41bd 5277 913d
000002c0: 48cb 01be 0c75 803d 923e 14be 0152 bc3d
000002d0: b7b4 5abe 0533 bd3c f178 31be eed3 a4bd
000002e0: 8f3a 0cbd f933 21be d82d fcbd 1bfd 5ebe
000002f0: e762 b0bc 551a b4bd c5ac 693d 3d40 ffbd
00000300: 914f f9bc 33c5 97be 7d3b 51be 48b3 283d
00000310: 305c a9bd 7f95 223c c17a adbd 254a c13d
00000320: f162 84be a617 95bb 8edf 403d 6f2d 663e
00000330: 5683 bf3b a5be 6cbe 2147 b0be aa5a 563e
00000340: b2d3 c73d 9698 683d 09c9 a5be 4e3e 873d
00000350: 7fa8 343e 3e81 183e a6f7 843c 13d4 ba3c
00000360: e7ac 363e 0491 943d 533a 96bc 3c46 293d
00000370: 3a35 b63d 7a5f 8bbd b79a d6be 5d88 e13d
00000380: 1547 e2be 827c 88be 5277 f4bc c663 8bbd
00000390: 217c b33e e3d0 213a 3732 d3be cc30 483d
000003a0: acbc aa3e 1aaf 5dbe 9d5e 1ebf a2fd 52be
000003b0: f1bd ca3c 999a 1c3e fa1c 123e 5864 42be
000003c0: b133 163c 0838 51bd 10d9 c6bd 883f d63b
000003d0: b907 89be 9bb2 6abd 85ad ec3c 3141 de3c
000003e0: d3ae 3dbc 0929 253e c176 1dbe 5841 6abe
000003f0: 6c8a b7be 6521 53be a60e 013e b6ea 07bb

bias f4 [20]
-0.38984343 -0.348809 0.04773095 -0.48566142 -0.13607019 0.044892456 0.13188012 -0.14412859
-0.058422178 -0.13450086 0.010386927 -0.28950545 -0.07658874 -0.21688245 -0.20934314 -0.14288767
-0.12955353 -0.23352534 -0.12073975 -0.058728404
00000000: 8f99 c7be 1897 b2be 8781 433d 9da8 f8be
00000010: fc55 0bbe 27e1 373d 950b 073e 7296 13be
00000020: 184c 6fbd 98ba 09be ee2d 2a3c 0f3a 94be
00000030: 8fda 9cbd 6f16 5ebe 0c5e 56be 2551 12be
00000040: aea9 04be 4421 6fbe 6746 f7bd 328d 70bd

weight f4 [20, 20]
0.09045129 0.0032438992 0.3568207 -0.4450387 0.046103902 -0.09210111 0.00067315914 -0.14625107
-0.3539732 0.16190678 0.38464245 0.16546808 0.04720016 0.26856288 0.22454874 0.27365097
0.16785376 0.20579702 -0.16121759 -0.123103276 0.15390672 -0.0067764176 -0.02349535 -0.21174365
-0.36106116 0.029216424 -0.23750706 0.05961861 -0.06185224 0.4390711 0.35342807 0.19132982
0.37609676 0.025211532 0.16654709 0.059171274 0.45665616 0.28387612 0.0023047146 -0.35366818
0.16148567 0.012828044 -0.089414924 0.33775896 0.1737071 0.03877579 -0.05494416 0.113823615
-0.099834286 0.23087692 -0.17065905 0.09538912 -0.40849292 0.06060346 0.064375475 0.14681064
-0.027230512 0.09996107 0.2976509 -0.06145314 0.48307142 0.21319672 -0.011721282 0.07477141
-0.14792913 -0.038277816 -0.026857061 -0.03126555 -0.054481413 0.11166225 -0.19820347 0.4245537
0.18695682 0.08084362 -0.17325953 -0.19787723 -0.17679821 0.099721804 0.28124157 -0.26824272
-0.39322525 0.043191515 -0.030746352 -0.04780626 0.016245779 0.012913373 0.03852517 0.18339658
0.30049044 -0.3320851 0.012551304 -0.08098322 0.056014437 -0.102702305 -0.2461891 -0.43352517
-0.13307193 -0.43080756 0.09116927 -0.114768974 -0.118343666 -0.7113419 0.32087803 0.2516349
0.0072495807 0.10701905 -0.3098588 -0.117509395 0.4485769 -0.13048275 0.20060906 -0.45333898
-0.424887 -0.5397373 -0.10972249 0.05884398 0.15212475 -0.20083895 -0.2302022 0.049798872
-0.059701912 -0.37527677 0.5793941 0.057922352 -0.04161674 -0.33638743 -0.37839228 -0.078197315
0.10712379 -0.3831613 -0.3287718 -0.67246735 -0.11547155 -0.22175583 -0.16935387 0.1357655
0.028170977 -0.13406159 -0.01239378 0.09427631 0.17458993 0.72080135 -0.051971212 0.060047615
-0.091920525 0.17499666 0.04327693 0.23920108 -0.22621936 0.13531575 -0.07919463 0.010696596
0.26224005 0.16899136 0.1211305 -0.081255384 0.13224144 0.1378134 0.22915192 -0.072266944
0.13030885 -0.22884586 0.39111426 -0.407495 -0.061629552 0.021158157 -0.26254308 -0.27778006
0.108947955 0.4110603 0.024467861 0.21528545 -0.34920478 0.27741638 0.014263623 0.50507337
0.27612892 -0.028085703 0.09669278 0.006662769 -0.16230719 0.3866473 0.01647373 0.18732229
-0.27306873 0.120865144 -0.048694894 0.05833488 0.25460956 0.21020961 -0.051028796 0.14649922
0.050750203 0.066989556 -0.12701848 -0.42077923 0.09467595 -0.11796531 -0.07430271 -0.11100443
-0.0171637 -0.31555206 -0.4605711 0.013803563 -0.15536173 0.037932333 -0.06479786 0.07795775
0.05877816 0.0001066038 0.061598293 -0.01574092 -0.35201237 -0.2741709 0.17775801 0.13262859
-0.04049592 0.16211097 0.05363857 -0.32391414 -0.009522115 0.30548486 0.24177313 0.07920682
0.18170162 -0.17688385 0.19930077 -0.12587222 0.12466416 -0.2173615 -0.095631815 0.074335225
0.11640845 -0.08371186 0.030361596 0.14670308 -0.15706821 -0.46056682 -0.21682991 0.43044865
-0.117523424 -0.55216545 -0.15615131 -0.10433177 -0.13529786 0.026676487 -0.13928506 -0.045870956
-0.5025329 0.2107813 0.16698773 -0.55073816 0.08030611 -0.27622798 0.28357354 0.2604724
00000000: 873e b93d 9997 543b 34b1 b63e 1ddc e3be
00000010: 72d7 3c3d 829f bcbd f276 303a d7c2 15be
00000020: fa3b b5be e4ca 253e dbef c43e 7770 293e
00000030: f454 413d 1381 893e 1bf0 653e fb1b 8c3e
00000040: dbe1 2b3e 74bc 523e 3916 25be 921d fcbd
00000050: b999 1d3e b60c debb 5279 c0bc 54d3 58be
00000060: 02dd b8be 4857 ef3c 0d35 73be a532 743d
00000070: c658 7dbd edcd e03e 86f4 b43e f7eb 433e
00000080: c18f c03e 6a88 ce3c 528b 2a3e 945d 723d
00000090: d6ce e93e 3658 913e b20a 173b ff13 b5be
000000a0: 805c 253e b72c 523c 2c1f b7bd beee ac3e
000000b0: 46e0 313e 5dd3 1e3d 210d 61bd 5b1c e93d
000000c0: eb75 ccbd 006b 6c3e 3fc1 2ebe 5f5b c33d
000000d0: fc25 d1be 553b 783d 4ad7 833d 8755 163e
000000e0: 8612 dfbc 64b8 cc3d b365 983e 4ab6 7bbd
000000f0: 2355 f73e 3e50 5a3e 9f0a 40bc c121 993d
00000100: bc7a 17be 33c9 1cbd 5703 dcbc 4e10 00bd
00000110: e727 5fbd 2daf e43d daf5 4abe 1a5f d93e
00000120: 9c71 3f3e 5791 a53d f26a 31be 54a0 4abe
00000130: 970a 35be f23a cc3d e5fe 8f3e 1c57 89be
00000140: d254 c9be 96e9 303d c6df fbbc 7fd0 43bd
00000150: de15 853c 9d92 533c 92cc 1d3d 50cc 3b3e
00000160: e2d9 993e 0f07 aabe fca3 4d3c 88da a5bd
00000170: 656f 653d 9655 d2bd ff18 7cbe 03f7 ddbe
00000180: 0244 08be cf92 dcbe f4b6 ba3d ff0b ebbd
00000190: 2a5e f2bd 811a 36bf 204a a43e 4ad6 803e
000001a0: e48d ed3b ce2c db3d d0a5 9ebe c4a8 f0bd
000001b0: dfab e53e 459d 05be 766c 4d3e 0c1c e8be
000001c0: ca8a d9be 392c 0abf 2fb6 e0bd 6306 713d
000001d0: 97c6 1b3e baa8 4dbe 20ba 6bbe e7f9 4b3d
000001e0: fe89 74bd 4724 c0be 2c53 143f fd3f 6d3d
000001f0: 5176 2abd f93a acbe a2bc c1be ea25 a0bd
00000200: b863 db3d b82d c4be c754 a8be d226 2cbf
00000210: 597c ecbd f613 63be 1a6b 2dbe 1c06 0b3e
00000220: d2c6 e63c 7147 09be 480f 4bbc f013 c13d
00000230: b4c7 323e 7086 383f c4df 54bd 7df4 753d
00000240: d440 bcbd 5332 333e 2643 313d 21f1 743e
00000250: 0ca6 67be 3690 0a3e cb30 a2bd c640 2f3c
00000260: 5444 863e 120c 2d3e 4513 f83d 3969 a6bd
00000270: 4d6a 073e f51e 0d3e cda6 6a3e b100 94bd
00000280: af6f 053e 9256 6abe 2140 c83e 2fa3 d0be
00000290: 456f 7cbd df53 ad3c 0c6c 86be 3039 8ebe
000002a0: 1b20 df3d 7f76 d23e d370 c83c ca73 5c3e
000002b0: f8ca b2be 8509 8e3e f9b1 693c 7d4c 013f
000002c0: c560 8d3e fd13 e6bc dd06 c63d 5b53 da3b
000002d0: db33 26be a3f6 c53e eaf3 863c 6ad1 3f3e
000002e0: aacf 8bbe 2588 f73d 4c74 47bd 8ef0 6e3d
000002f0: 2f5c 823e 3041 573e 9203 51bd e403 163e
00000300: 72df 4f3d d231 893d 2211 02be 6070 d7be
00000310: 77e5 c13d cc97 f1bd 052c 98bd 4a56 e3bd
00000320: e39a 8cbc 0a90 a1be facf ebbe 5728 623c
00000330: 2517 1fbe ef5e 1b3d beb4 84bd 50a8 9f3d
00000340: 5ec1 703d 7b90 df38 7e4e 7c3d 1af3 80bc
00000350: f73a b4be 2160 8cbe 3206 363e cacf 073e
00000360: 0ddf 25bd 6b00 263e 1eb4 5b3d 13d8 a5be
00000370: a502 1cbc 8368 9c3e 6093 773e 2f37 a23d
00000380: fd0f 3a3e 0a21 35be 8015 4c3e a6e4 00be
00000390: ec4f ff3d 0394 5ebe 9dda c3bd 113d 983d
000003a0: 8e67 ee3d 2071 abbd e2b8 f83c 5539 163e
000003b0: 7dd6 20be 6acf ebbe a908 5ebe c463 dc3e
000003c0: 1fb0 f0bd b75a 0dbf 21e6 1fbe e5ab d5bd
000003d0: 868b 0abe a688 da3c bea0 0ebe 2fe3 3bbd
000003e0: ffa5 00bf 0ed7 573e d5fe 2a3e 2dfd 0cbf
000003f0: 8877 a43d c16d 8dbe 8d30 913e a35c 853e

bias f4 [20]
0.11335146 0.33313295 0.16114393 0.33177748 -0.3871061 0.08450109 -0.081695475 0.043824192
0.3965791 0.29992673 0.35999408 -0.16446903 0.36239365 -0.24648258 0.031335395 0.14198077
-0.47621667 -0.26454285 -0.05674783 -0.17879969
00000000: cf24 e83d 6790 aa3e ea02 253e bdde a93e
00000010: c532 c6be e80e ad3d f54f a7bd ff80 333d
00000020: 6a0c cb3e ff8f 993e 2551 b83e 926a 28be
00000030: a98b b93e ee65 7cbe 8b59 003d 6863 113e
00000040: acd2 f3be 2972 87be 6a70 68bd 4417 37be

weight f4 [20, 20]
-0.025198955 0.5570402 -0.16091141 -0.023911837 -0.007251627 -0.14262778 -0.034053627 0.004187649
-0.056625403 0.22734918 -0.13363305 -0.19094312 -0.34989372 0.1564687 -0.33405757 0.2980425
-0.1347327 0.010515613 0.068635516 -0.33321378 0.584556 -0.26512697 -0.17567345 -0.022764008
0.1185947 0.02925783 -0.45027536 0.22000717 -0.060584843 0.06436067 0.07526881 -0.6205061
-0.35309556 0.05530674 -0.19773614 -0.12483561 -0.034801718 0.274467 0.14308202 -0.1057895
-0.24035688 0.12928836 -0.014372068 0.099569924 0.40111548 -0.0037441296 0.1084653 0.055760223
-0.30883345 -0.018880643 -0.0573571 0.05792774 0.18353152 -0.08700013 -0.13099444 -0.37277335
0.37530732 -0.13324127 0.17203178 0.41244814 0.1339747 -0.12430165 -0.16834556 -0.004277962
0.25240448 -0.06527559 0.082611404 0.20206003 0.12374857 0.025778625 0.12990957 -0.1313893
0.28926364 -0.24408993 -0.04848939 -0.2089007 -0.2303106 0.09455667 0.5158352 0.33232275
-0.44239318 -0.37171832 0.31774276 0.030688187 0.17287947 0.009566987 -0.18999553 -0.014826416
0.4438633 -0.16012995 0.3757685 0.14748918 0.25394428 0.08250616 0.19750719 -0.4428888
-0.0938974 -0.0904397 -0.117018096 -0.20131764 -0.49634346 0.012455636 0.028083831 -0.047939993
-0.19695367 0.03291479 -0.01870259 -0.20419829 -0.16455008 -0.05102461 0.13069217 -0.7748295
-0.071788974 -0.38624382 0.2276793 0.13413295 -0.073155425 -0.45662847 -0.17694426 -0.41850078
-0.22843869 0.15703484 0.22425558 0.38955516 0.10370189 -0.019516775 0.13519308 -0.015846102
-0.012823446 -0.13768864 -0.085635066 -0.24645008 0.42821315 -0.247379 -0.116388686 0.60151595
-0.32281494 -0.22224635 -0.3002913 -0.1445786 0.316204 0.3146414 0.20707677 -0.0064355633
0.07773488 0.2406343 -0.40303192 0.28614295 -0.061365325 -0.07680241 0.064816184 0.088947624
0.13567968 0.22113341 -0.09382063 -0.5974103 0.04890617 0.12596563 0.08262539 0.26069772
-0.1153103 0.11165288 0.06572536 -0.022428343 0.035737135 -0.14035766 -0.47624683 0.18210332
-0.08131593 0.13532169 0.19975208 -0.7239233 -0.271429 0.2510931 -0.25908503 0.4886896
-0.04076527 -0.09130845 0.29921645 0.06437751 0.021613987 -0.23401818 0.12622876 -0.16951405
0.18741693 0.027729003 -0.1112292 0.24948618 0.27008027 0.13184279 -0.14768642 -0.12288723
-0.10304234 0.03334077 0.32353655 -0.6241077 0.16381265 -0.17302425 0.21054871 0.18691193
0.08644954 -0.3683896 -0.23715669 -0.06693781 0.46022087 0.021279018 -0.04303261 -0.14797346
-0.025339438 -0.014956181 0.102301255 0.07006438 -0.21087639 0.30462915 0.35197154 -0.1025126
0.17799671 -0.05682789 -0.032670546 -0.0068034665 -0.1486083 0.33923453 0.29166943 -0.039439015
-0.5019736 -0.14277183 0.19829531 -0.30911723 -0.23917419 -0.38419017 -0.35764083 0.17346999
0.29871193 -0.13023974 0.20203763 0.065385826 -0.08778621 0.009673776 -0.02578485 0.13396622
0.35304475 -0.0773883 -0.24732189 0.2781996 -0.21194877 0.017393084 -0.04303998 -0.21978614
-0.22103179 0.0056669926 -0.08012855 0.086869866 -0.19119237 0.13370426 -0.40367886 0.079934634
00000000: 0a6e cebc 309a 0e3f f6c5 24be c2e2 c3bc
00000010: 0e9f edbb 040d 12be d17b 0bbd 8c38 893b
00000020: 0af0 67bd 39ce 683e 1ad7 08be 9886 43be
00000030: 4525 b3be 5539 203e 9809 abbe 0799 983e
00000040: 5ef7 09be ad49 2c3c c790 8c3d ff9a aabe
00000050: 76a5 153f b9be 87be bee3 33be 967b babc
00000060: c7e1 f23d 1eae ef3c 7e8a e6be 8f49 613e
00000070: d027 78bd 87cf 833d 8926 9a3d 7dd9 1ebf
00000080: f1c8 b4be 5289 623d 587b 4abe d0a9 ffbd
00000090: 3f8c 0ebd f086 8c3e 1884 123e 2aa8 d8bd
000000a0: 1d20 76be 2b64 043e d378 6bbc 51eb cb3d
000000b0: 025f cd3e 1260 75bb 0e23 de3d d564 643d
000000c0: 6b1f 9ebe 94ab 9abc 47ef 6abd a345 6d3d
000000d0: b0ef 3b3e 202d b2bd 6823 06be 26dc bebe
000000e0: 4828 c03e 6670 08be 1929 303e 672c d33e
000000f0: aa30 093e dd91 febd c762 2cbe 252e 8cbb
00000100: 293b 813e 35af 85bd 2b30 a93d d3e8 4e3e
00000110: e46f fd3d b22d d33c 0407 053e eb8a 06be
00000120: 5d1a 943e b6f2 79be d09c 46bd 11ea 55be
00000130: 8bd6 6bbe eda6 c13d c70d 043f 3526 aa3e
00000140: 5c81 e2be dd51 bebe 2eaf a23e cb65 fb3c
00000150: 5107 313e dabe 1c3c 308e 42be 7fea 72bc
00000160: 0d42 e33e 1bf9 23be bb64 c03e 6707 173e
00000170: fc04 823e fdf8 a83d 533f 4a3e 52c2 e2be
00000180: 484d c0bd 7338 b9bd 2fa7 efbd 3626 4ebe
00000190: bb20 febe b912 4c3c 1010 e63c ba5c 44bd
000001a0: 39ae 49be a9d1 063d 2d36 99bc 5b19 51be
000001b0: d17f 28be 2eff 50bd 2bd4 053e 3a5b 46bf
000001c0: 1906 93bd c0c1 c5be c324 693e 265a 093e
000001d0: 83d2 95bd 35cb e9be e030 35be bc45 d6be
000001e0: d5eb 69be becd 203e 41a3 653e c673 c73e
000001f0: a861 d43d a5e1 9fbc 0e70 0a3e afcf 81bc
00000200: 6e19 52bc 40fe 0cbe 7061 afbd 695d 7cbe
00000210: c13e db3e ec50 7dbe 315d eebd f3fc 193f
00000220: 0048 a5be 8c94 63be c8bf 99be 6a0c 14be
00000230: 7ee5 a13e ad18 a13e ef0b 543e 6be1 d2bb
00000240: 7733 9f3d d768 763e 335a cebe 5481 923e
00000250: 355a 7bbd 954a 9dbd 59be 843d 2c2a b63d
00000260: 9def 0a3e cc70 623e 0825 c0bd e2ef 18bf
00000270: d651 483d 22fd 003e 8037 a93d 2c7a 853e
00000280: ce27 ecbd 44aa e43d 049b 863d a5bb b7bc
00000290: 1a61 123d ebb9 0fbe a0d6 f3be 4b79 3a3e
000002a0: f788 a6bd c591 0a3e cf8b 4c3e 0a53 39bf
000002b0: bef8 8abe 468f 803e cba6 84be 8635 fa3e
000002c0: 7cf9 26bd edff babd e632 993e 5bd8 833d
000002d0: d10f b13c 76a2 6fbe 1d42 013e 1795 2dbe
000002e0: 39ea 3f3e ef27 e33c 23cc e3bd 4e79 7f3e
000002f0: f647 8a3e cc01 073e 1c3b 17be 4dac fbbd
00000300: dd07 d3bd 5590 083d 95a6 a53e 86c5 1fbf
00000310: 81be 273e 452d 31be 159a 573e d765 3f3e
00000320: 750c b13d 909d bcbe 34d9 72be b116 89bd
00000330: 12a2 eb3e 5651 ae3c f642 30bd 5b86 17be
00000340: a794 cfbc c50a 75bc 5283 d13d ea7d 8f3d
00000350: fbef 57be 5af8 9b3e 9d35 b43e 20f2 d1bd
00000360: c544 363e 5dc4 68bd 8dd1 05bd 9def debb
00000370: c62c 18be 26b0 ad3e b255 953e ce8a 21bd
00000380: 5881 00bf c732 12be ed0d 4b3e 9d44 9ebe
00000390: 14ea 74be 93b4 c4be b31c b7be 1ea2 313e
000003a0: c5f0 983e 915d 05be f4e2 4e3e 01e9 853d
000003b0: 42c9 b3bd c27e 1e3c c03a d3bc 712e 093e
000003c0: 48c2 b43e c27d 9ebd f341 7dbe 2e70 8e3e
000003d0: 1909 59be f17b 8e3c b14a 30bd 9e0f 61be
000003e0: 2856 62be 2eb2 b93b 701a a4bd d4e8 b13d
000003f0: efc7 43be c5e9 083e ffae cebe c5b4 a33d

bias f4 [20]
0.024548512 -0.09559912 -0.26229855 -0.18996891 0.12569545 0.044214293 -0.16631684 0.08539027
-0.22587548 -0.02932143 -0.079839475 0.21380222 0.26713958 -0.06986789 -0.065225154 -0.23503856
-0.17585966 -0.12558644 -0.16595575 -0.037180882
00000000: f619 c93c 79c9 c3bd ff4b 86be 3687 42be
00000010: 4fb6 003e 0c1a 353d f64e 2abe 18e1 ae3d
00000020: e74b 67be 7f33 f0bc e182 a3bd f8ee 5a3e
00000030: 85c6 883e e516 8fbd c494 85bd f3ad 70be
00000040: 8e14 34be bb99 00be 4ef0 29be fb4a 18bd

weight f4 [20, 20]
-0.6681384 0.03440715 0.031811472 0.09211252 -0.3896971 0.06360238 -0.009257488 -0.32422143
-0.19302225 0.21117428 -0.16897205 -0.07847718 -0.26702583 -0.16570742 -0.13823907 0.31036207
-0.20595758 -0.0453701 -0.106935464 -0.03485978 -0.20096421 -0.61843026 -0.24925962 -0.23933293
-0.13408047 -0.17310858 -0.24814098 0.20462357 -0.22675322 0.06695745 -0.04340377 -0.34203812
0.06815955 -0.0873008 -0.0015993075 -0.030551048 0.15248469 -0.22135486 0.11215294 0.06931855
-0.026915891 -0.07040964 -0.44778925 -0.026735898 -0.1028042 -0.19179055 -0.14560941 -0.21354824
0.1249091 -0.06548011 -0.13241889 -0.15499353 0.19019859 -0.16133189 0.108588904 -0.14074028
-0.09863757 -0.23522113 0.21468627 0.1291561 0.27777448 0.0765298 -0.038747482 -0.3173149
0.05366242 0.027202137 0.21481653 -0.104217395 0.09926302 -0.19158277 0.04227764 0.14181532
-0.02315661 -0.012080508 -0.24880679 -0.03263016 -0.12192776 0.070158675 0.09008337 -0.08978017
-0.1332034 0.038891684 -0.16508369 -0.09954693 -0.70926934 0.19361474 0.11053673 -0.035625648
0.07551241 0.11308409 -0.07675829 -0.29308107 -0.06507795 -0.17703696 -0.03466772 -0.12425202
0.34476897 -0.03948038 -0.118170284 0.13367687 -0.1176123 0.003257096 -0.1031846 -0.19064221
0.003570009 -0.7264559 -0.025040627 -0.21091264 -0.024477275 -0.16246372 0.01467911 -0.2743974
-0.17763118 -0.008660541 0.15993407 -0.023752263 -0.08415934 0.09760345 -0.05384076 0.15056394
0.18406403 -0.22968112 0.5759727 0.058209505 0.22330734 0.20017643 -0.42711136 -0.18418702
-0.04728378 -0.065925896 -0.10468564 -0.43254587 -0.21430984 0.043140974 0.076660745 0.07439967
-0.12722339 -0.18383978 -0.1218641 -0.012793057 -0.056204427 0.05738771 -0.0007767561 0.07998764
0.07804047 -0.12627484 0.05514783 -0.6587526 0.36469477 -0.031866863 0.1807486 0.117481545
-0.24676672 -0.014093743 -0.21448483 0.027715907 -0.455672 -0.09443583 0.09260421 -0.20382757
0.07264552 -0.14849643 0.19085807 -0.012128631 0.02593108 0.13125426 -0.0066371085 -0.24237654
-0.5332309 0.06540261 0.06029796 -0.0701001 -0.023550194 -0.18077712 -0.019605815 0.06428314
-0.2495465 -0.07257881 -0.29659525 -0.013223489 0.09937497 0.08137813 0.007170446 0.22410409
0.04643375 -0.034791153 -0.07767111 0.005673524 -0.09842227 -0.38277438 -0.13242607 0.14593413
-0.040421896 -0.13707636 0.16379964 0.17596973 -0.14356431 0.024998592 -0.29750007 -0.07492307
0.13916342 0.17332163 0.16535164 -0.28810918 0.1235806 -0.34073374 0.30501986 0.10581445
0.15151174 -0.061383076 -1.0227507 0.07553334 -0.071215376 0.067973375 -0.102196276 -0.0025754028
-0.077376954 -0.014744517 0.33136445 0.23019843 -0.011136627 -0.35028675 -0.08903874 0.17040014
-0.32783458 -0.060823385 0.07364565 0.03990092 -0.20170419 -0.13100314 -0.051037796 -0.6788559
0.10281393 -0.021692043 0.099013254 -0.09449522 0.08626265 0.118020825 -0.119736865 0.2643164
0.17411596 -0.10118409 0.049481288 -0.3538699 -0.18242183 0.09693152 0.0790882 -0.11104196
0.12520188 -0.058754127 0.023965206 -0.047437094 -0.5495018 0.021073459 -0.19886823 0.12315116
00000000: 1e0b 2bbf 83ee 0c3d bf4c 023d 7da5 bc3d
00000010: 6186 c7be f741 823d b8ac 17bc 5a00 a6be
00000020: a0a7 45be 123e 583e 0207 2dbe a5b8 a0bd
00000030: 9cb7 88be 35af 29be 8b8e 0dbe c7e7 9e3e
00000040: 8be6 52be ffd5 39bd fb00 dbbd 21c9 0ebd
00000050: 90c9 4dbe 7251 1ebf ea3d 7fbe b113 75be
00000060: 644c 09be 6043 31be ab18 7ebe d788 513e
00000070: ff31 68be fd20 893d 27c8 31bd 9f1f afbe
00000080: 3c97 8b3d c3ca b2bd db9f d1ba 3146 fabc
00000090: f224 1c3e d9aa 62be 71b0 e53d e2f6 8d3d
000000a0: b77e dcbc ee32 90bd a244 e5be 3e05 dbbc
000000b0: 028b d2bd be64 44be a21a 15be 64ac 5abe
000000c0: 58d0 ff3d 701a 86bd d198 07be a0b6 1ebe
000000d0: 6bc3 423e 3034 25be dc63 de3d 381e 10be
000000e0: 7f02 cabd cfdd 70be b8d6 5b3e 7f41 043e
000000f0: 7538 8e3e a8bb 9c3d aeb5 1ebd 1977 a2be
00000100: 20cd 5b3d 04d7 de3c ddf8 5b3e ee6f d5bd
00000110: 694a cb3d 462e 44be 522b 2d3d 0938 113e
00000120: eeb2 bdbc 53ed 45bc 35c7 7ebe 34a7 05bd
00000130: 43b5 f9bd 5aaf 8f3d a17d b83d aade b7bd
00000140: 7966 08be e34c 1f3d b30b 29be 43df cbbd
00000150: ad92 35bf f142 463e 1561 e23d 33ec 11bd
00000160: 40a6 9a3d a298 e73d 7333 9dbd b90e 96be
00000170: 9747 85bd 2d49 35be bdff 0dbd d877 febd
00000180: 8f85 b03e 2eb6 21bd 4303 f2bd 97e2 083e
00000190: b8de f0bd 0175 553b 7352 d3bd b637 43be
000001a0: d0f6 693b 04f9 39bf 0022 cdbc 7cf9 57be
000001b0: 9184 c8bc e45c 26be a680 703c d17d 8cbe
000001c0: f3e4 35be f1e4 0dbc c2c5 233e 1b94 c2bc
000001d0: bb5b acbd 51e4 c73d 2188 5cbd 6f2d 1a3e
000001e0: 487b 3c3e 8731 6bbe f272 133f 176d 6e3d
000001f0: aeaa 643e 0dfb 4c3e 57ae dabe 869b 3cbe
00000200: a3ac 41bd 2804 87bd 6d65 d6bd a776 ddbe
00000210: 0a74 5bbe 97b4 303d 4f00 9d3d db5e 983d
00000220: d946 02be 7f40 3cbe e393 f9bd f899 51bc
00000230: 9d36 66bd 600f 6b3d 389f 4bba 8fd0 a33d
00000240: afd3 9f3d 314e 01be b1e2 613d 03a4 28bf
00000250: 46b9 ba3e d486 02bd 2916 393e 2a9a f03d
00000260: 6ab0 7cbe 71e9 66bc e9a1 5bbe 780c e33c
00000270: d74d e9be 9367 c1bd 47a7 bd3d 2db8 50be
00000280: 2dc7 943d 730f 18be 4c70 433e 2ab7 46bc
00000290: 6b6d d43c 8467 063e 1a7c d9bb 8e31 78be
000002a0: d281 08bf cef1 853d fefa 763d a490 8fbd
000002b0: 56ec c0bc a31d 39be 609c a0bc e1a6 833d
000002c0: 1e89 7fbe 33a4 94bd 55db 97be 55a7 58bc
000002d0: 1b85 cb3d 94a9 a63d 10f6 ea3b 8b7b 653e
000002e0: 5131 3e3d 2b81 0ebd 0812 9fbd f8e8 b93b
000002f0: 9d91 c9bd 01fb c3be b39a 07be c26f 153e
00000300: 6e91 25bd bf5d 0cbe 18bb 273e 6931 343e
00000310: 8602 13be d9c9 cc3c ee51 98be 4471 99bd
00000320: db80 0e3e 3a7b 313e f151 293e 0c83 93be
00000330: d317 fd3d a774 aebe 902b 9c3e 3fb5 d83d
00000340: e525 1b3e d26c 7bbd 7fe9 82bf 39b1 9a3d
00000350: 5ed9 91bd a035 8b3d 484c d1bd 17c8 28bb
00000360: cf77 9ebd fd92 71bc 9aa8 a93e 23b9 6b3e
00000370: 6676 36bc c958 b3be f159 b6bd 607d 2e3e
00000380: efd9 a7be f121 79bd 88d3 963d 266f 233d
00000390: 8b8b 4ebe b025 06be 020d 51bd 80c9 2dbf
000003a0: 1c90 d23d 83b3 b1bc 76c7 ca3d b686 c1bd
000003b0: 79aa b03d e7b4 f13d 9a38 f5bd 7b54 873e
000003c0: 744b 323e 9b39 cfbd e4ac 4a3d 6f2e b5be
000003d0: cacc 3abe 0884 c63d fff8 a13d f869 e3bd
000003e0: ec34 003e 2ba8 70bd ae52 c43c 664d 42bd
000003f0: 26ac 0cbf 3fa2 ac3c 1da4 4bbe ad36 fc3d

bias f4 [20]
-0.4091294 -0.2220936 -0.093226954 -0.18195923 -0.27411002 0.051847745 -0.07406743 -0.093486644
-0.18722698 -0.09218995 -0.2895918 -0.30922607 -0.18866695 -0.223072 0.14845286 -0.0870308
-0.23427545 -0.23153754 -0.10381291 -0.09384729
00000000: 6979 d1be 816c 63be c6ed bebd 8553 3abe
00000010: 2658 8cbe 4d5e 543d aab0 97bd ed75 bfbd
00000020: 6eb8 3fbe 16ce bcbd 6045 94be e152 9ebe
00000030: e931 41be fd6c 64be 0704 183e 343d b2bd
00000040: e7e5 6fbe 2d18 6dbe dd9b d4bd 0233 c0bd
